pygame_env/code/rlhf_dqn/dqn/model.pt (torch, 117139 bytes, 4 tensors)

fc1.weight f8 [128, 108]
000000 80 9c 7a b5 14 e8 80 bf d7 0e 62 48 87 88 b1 bf
       -0.008255159176157045 -0.06848950879253422
000010 a0 01 45 98 37 6c b3 bf d4 dc 33 16 c3 25 9e bf
       -0.07587001292723139 -0.029440925817621658
000020 68 3d 67 fe e3 40 90 bf bc fe df 40 ce b4 b1 bf
       -0.015872537996810904 -0.06916512569295724
000030 18 e8 eb 80 9c 97 98 3f 09 36 88 78 8d 8c b0 3f
       0.024015851372475167 0.06464466278722382
000040 9a 4b d6 f1 18 f4 b8 3f c6 8f 5b 87 6a 1e a3 3f
       0.09747463134981019 0.037341431639816444
000050 72 1d 49 75 ed 0a b0 bf 04 81 df c8 53 2e b0 bf
       -0.0626667414991198 -0.06320689825179576
000060 cd c5 4a f6 2e af b7 3f 5f 21 23 33 19 d7 a2 bf
       0.09251683724394084 -0.03679732083543529
000070 b0 94 4a 67 8f cd b4 3f 8c b9 72 3a fa 47 70 3f
       0.08126159927140253 0.003974893049571892
000080 6a bf cf e5 1a de 89 3f d6 bc e4 2f b9 8d a2 bf
       0.01263066304997525 -0.036237513634085936
000090 0a 97 36 e8 28 dc a1 3f b0 b3 3b 79 29 06 9c bf
       0.03488281092294983 -0.02736725618790431
0000a0 81 8a 7c fc a8 44 b8 bf 4a ae 02 41 0f 30 b1 bf
       -0.09479767002316387 -0.06713958108110166
0000b0 c6 f0 1a 4d ff ce 71 bf c0 b2 92 99 72 32 6d 3f
       -0.004347798605234659 0.0035640943793480984
0000c0 ac d7 3c 13 7f 4d 91 bf 51 69 f0 fc d0 58 95 bf
       -0.016897187756704277 -0.020846620023897092
0000d0 86 1c 70 fc ad 75 9d 3f dd f0 4d 62 5f 70 b3 3f
       0.028769224674786396 0.07593341970454355
0000e0 35 ff f1 51 6e e4 96 bf 6a fb 3d 78 14 73 ae bf
       -0.022355769874138082 -0.05947174041556631
0000f0 68 fd 7e 12 6f 30 9c 3f 00 ac e2 de 75 2f 6b bf
       0.027528510574254567 -0.0033185293351229994
000100 dc 54 54 c8 5d ff 95 bf b7 9e 03 37 a8 48 b1 bf
       -0.021481957771432345 -0.06751490920180002
000110 31 97 0a 89 7b 26 b6 3f cd a7 15 8b 06 79 b8 3f
       0.08652469726311264 0.09559670348758616
000120 a1 8f b4 a4 30 f7 b2 3f d8 66 44 78 2f 8c 81 3f
       0.0740843202698316 0.008568163736117837
000130 84 83 01 03 38 1f 97 bf 29 ad 74 e0 be a7 b7 bf
       -0.022580027755228396 -0.09240334491612558
000140 e7 86 15 f0 58 46 b4 3f 50 fd 44 6d 10 4f b7 bf
       0.07919841634204837 -0.09105017345153965
000150 b4 b1 2c fa fb f1 90 bf 55 13 32 47 dc dc b2 bf
       -0.016548096794552783 -0.0736825631921197
000160 2d 79 f1 0b 44 77 b3 3f 06 97 0b 21 9e 8d 87 bf
       0.07603860179503803 -0.011500583060704905
000170 cc 61 f9 f1 c0 b6 9a bf ea cb 40 98 05 50 a0 3f
       -0.026087775010042155 0.03186051829870691
000180 01 d0 57 92 ca 4a b5 bf 3c 28 7c 91 27 4a 90 3f
       -0.08317247460200862 0.015907877211283714
000190 a8 9e 53 6d 66 85 88 bf 47 69 64 5d 37 6b b1 bf
       -0.011973190509208934 -0.0680422404297235
0001a0 bf da ee bb 14 a6 a1 bf f7 9b 74 f1 1a 29 b1 3f
       -0.034470222416918876 0.06703346629056726
0001b0 0d 26 e0 95 af d3 b1 3f 4f f2 e8 49 e2 3b b1 3f
       0.0696363202006511 0.06732000641290735
0001c0 8a 05 6f 62 c2 b5 a6 3f 64 cf f9 7d 31 14 9b bf
       0.0443554635198878 -0.026444218934968858
0001d0 90 c3 e5 68 7a 9a 96 3f 65 6f 74 4b 4d 3d b4 3f
       0.0220736624264109 0.07906039325865562
0001e0 6e 93 e7 34 ec f4 a3 3f 09 03 e9 1a ae d2 b3 3f
       0.03897798677261376 0.0774334731768357
0001f0 40 81 9a 9a 82 7e 91 3f 4c 38 cc 2d ad ee 99 3f
       0.017084160505534074 0.025324541015884258
000200 4a 80 f0 b4 42 49 a3 3f 80 da 37 96 e4 21 83 3f
       0.03766830881818402 0.00934198935918329
000210 7a 10 e7 9c 8d c8 a9 3f 7b ce c2 42 9a 96 b0 3f
       0.050358224299572776 0.06479801301866843
000220 51 85 84 77 37 a9 b3 3f be 79 3b 1a 06 15 af 3f
       0.07680079143439868 0.060707274152935295
000230 96 b1 fb 47 32 2f ad 3f f3 9c b4 84 ec 36 ac bf
       0.057000705039033026 -0.0551065361017268
000240 19 3d 6a 00 97 19 9f bf 17 9c 6e b9 92 f7 a0 bf
       -0.03037105503113677 -0.03313883317542137
000250 a6 8b 98 b3 75 7e b5 bf cf 36 46 3d f1 f6 b0 bf
       -0.08396087298073826 -0.06626804109529448
000260 20 3f 79 e7 cc 3b ad 3f a2 12 6c 27 86 5f b5 3f
       0.057096865898186744 0.08348883116202413
000270 bf 18 b2 26 13 f8 9c 3f e4 3e fa 8c 1a b0 9e 3f
       0.02829008029632329 0.029968657354912845
000280 e0 3b 71 d6 28 cf 8a 3f 50 be 15 5d 1c 0c 89 bf
       0.013090437931308985 -0.012230130758978636
000290 f3 b8 08 db a3 13 aa bf d2 22 eb c3 44 59 9e bf
       -0.05093109177356494 -0.029637407739559425
0002a0 05 ad 05 55 a4 2f ae bf 85 b4 27 36 3c 1a b2 3f
       -0.05895722902172377 0.07071281740327791
0002b0 6c 22 e9 f0 b5 58 9f 3f 2a c7 14 94 ff 2d a4 3f
       0.030611841992398345 0.039413439585031476
0002c0 5f 95 64 44 70 ec b4 3f 0d a0 dd 83 db f3 b5 bf
       0.08173276586292876 -0.08575221986177457
0002d0 c4 d2 bc 91 92 76 ab 3f dd 87 f3 04 78 b5 a7 3f
       0.053639011659844665 0.04630637226524901
0002e0 ec c7 2a c5 f5 23 b3 bf 2e 26 3b 5c 0c fc a1 3f
       -0.07476745666170331 0.035126100786851175
0002f0 fd 5b 47 3a 61 8e a3 bf 77 7f ff 3e 0e 5b b5 bf
       -0.03819564663324824 -0.08342064893758826
000300 3f d9 1c 9a a2 02 8f 3f 68 2f 7f 15 11 2d 9a bf
       0.015141744926591925 -0.02556254094797286
000310 ee 24 53 aa cf 0c ad 3f 7e 78 67 af d2 85 a3 3f
       0.056738366643523594 0.038130363380092
000320 88 95 94 40 aa 01 82 3f db 07 53 c1 61 3e b2 bf
       0.008792238326871496 -0.0712643715842484
000330 d0 84 98 80 33 71 ad bf 51 2b b7 46 0a 3e a4 3f
       -0.057504281470991736 0.039535828716529615
000340 1c 03 1d d5 bf ca ae 3f 56 5b 98 76 d0 af b2 3f
       0.060140604748545295 0.07299521346463442
000350 18 dc ed 98 e7 75 b5 3f 54 79 4d a7 ad bf b1 3f
       0.08383033259984563 0.06933102926766327
000360 c2 ed 3c 38 5b f7 ae 3f ce 74 99 85 ee b0 a9 bf
       0.060480929007521236 -0.050178006943249906
000370 98 dc 4b f8 84 55 91 3f fe 4a c4 f7 a8 f7 b1 bf
       0.01692779317360457 -0.07018524216645614
000380 61 1c cd 93 01 27 b2 bf df 4e 50 6d e8 05 b3 bf
       -0.07090768679073413 -0.07430889767448033
000390 97 5f df f3 e4 16 b1 3f 52 36 1b 2a bc 5e 54 3f
       0.06675558999938712 0.001243289713261393
0003a0 b9 c0 e5 16 26 2c bc bf 8c 42 fe 8e ad 83 ad bf
       -0.1100486570264846 -0.05764524813196656
0003b0 d5 aa 3d f3 f3 fa be 3f dd cd 74 5d eb 77 b2 3f
       0.12101673782823792 0.07214232474944234
0003c0 30 a2 a2 98 06 33 80 3f c7 65 0f 94 cf 2a 92 3f
       0.007909823926028542 0.017741435443758193
0003d0 84 86 82 5e a8 41 bd 3f f2 e6 13 0e 9f e8 91 3f
       0.11428310687417748 0.017488942369687295
0003e0 5c 99 eb 00 93 4b b0 3f a4 cb 4c 18 8f 86 96 3f
       0.06365317127674558 0.0219976767140896
0003f0 e6 f6 e9 2d 27 58 af 3f 72 17 25 fa f4 0f a7 3f
       0.061219429354407315 0.045043616805329104
000400 77 68 0b ca 5f a2 b3 3f f2 db 13 34 f1 a6 ad bf
       0.07669638331154426 -0.05791429291451057
000410 8b 85 b3 ce 34 e1 b3 3f f4 b6 3a 66 b6 b0 93 bf
       0.0776551251069774 -0.01922879218061886
000420 60 b9 61 02 ea 52 6a 3f 1c ca e2 f4 00 d8 92 bf
       0.003213364648266978 -0.018402113863610223
000430 20 d4 41 ca 7e 55 a9 bf 50 3d a4 57 14 28 9c 3f
       -0.049480402173607496 0.027496641015259116
000440 36 02 39 87 92 04 bb 3f 90 60 3d 07 47 d6 8f bf
       0.10553851891837315 -0.01554542055934885
000450 16 fa d8 a5 a5 a8 ac 3f 88 cf 36 47 63 02 9c 3f
       0.05597417497164174 0.02735285875469587
000460 e8 fb c1 e2 12 5f 96 bf b6 89 f5 99 71 99 a6 3f
       -0.021847052660174088 0.044139432948913024
000470 b8 fa 27 dd b9 90 87 bf e8 a3 b1 6a ce 98 8d 3f
       -0.01150651174702709 0.014451611166991854
000480 ce f4 9c cd e7 e1 a8 3f 80 0c 2f 27 eb cf 76 3f
       0.04859852204251923 0.0055693803469153425
000490 5d ac c9 42 23 ef b1 3f 91 8d 4c 64 bd a2 b2 3f
       0.07005520229874791 0.07279571245867646
0004a0 58 43 6a 12 06 2b 91 3f 00 5b 7a f5 e0 b2 90 3f
       0.016765684961288357 0.01630736826208601
0004b0 4a 1f b4 f3 28 15 aa 3f 08 81 f9 71 06 8c a8 bf
       0.050942687748885065 -0.04794330731670199
0004c0 bc 0f b5 e4 ba 34 ae bf 9e 4a f0 be 50 59 b6 3f
       -0.05899604837261971 0.08730034505451065
0004d0 28 ca e9 95 07 d6 af bf 98 f9 12 65 8a ca 9d bf
       -0.0621797914981424 -0.029092943591189163
0004e0 c1 6d 4a 8b 92 e4 b5 bf fc 82 78 04 14 84 a7 bf
       -0.08551898861553921 -0.0459295516450364
0004f0 35 4e f2 5f b4 45 b0 3f 50 34 ff 37 c6 88 8f 3f
       0.06356360762065878 0.015397595008744741
000500 67 2c bb cd 6c 31 ab bf b8 15 96 d7 21 fd 88 3f
       -0.053111457933106725 0.01220156134764748
000510 42 51 78 ae b7 5f a4 bf 5c 2d 20 df 05 e1 97 3f
       -0.03979276661644572 0.023319331878196223
000520 20 27 4c 54 aa e2 7d bf 3b 9c 3f 33 a2 fe b1 3f
       -0.0072962430465482175 0.07029165030654465
000530 44 50 27 26 9c d2 9f 3f 34 99 9f 81 d2 ef 9a bf
       0.03107685072775747 -0.026305474435411827
000540 08 e6 c1 ed dd 9d 97 bf 3c bf 8b 0f 30 2e b4 bf
       -0.02306315196663003 -0.07882976893938304
000550 6f e9 a9 56 16 f6 a8 bf 52 4d e3 f4 8b 7c ae 3f
       -0.04875249679476467 0.05954396595339041
000560 a5 77 bc 83 73 dc b0 3f 4a 6a 3e a3 56 9a a2 3f
       0.06586381880012356 0.03633375876161844
000570 ae fa 33 9f f5 38 ad 3f af 75 b4 55 c6 06 a4 bf
       0.05707519119640857 -0.03911418720438619
000580 9b 9f 44 b0 d6 e4 a8 bf 9a 55 bd 04 f5 db aa 3f
       -0.048620900170418944 0.05245938952308933
000590 cc 62 1d 0d 38 2b 93 bf 34 a2 94 8c 92 9e a9 bf
       -0.018719554710829908 -0.0500379368407419
0005a0 2f cc 7e c4 cc 1c 9c bf 82 2c 3b 79 86 4a b0 bf
       -0.02745361279785302 -0.0636371656393511
0005b0 6a cd b8 f9 20 71 af 3f 6b dc d4 3a 2f 57 a8 bf
       0.06140997932780119 -0.04754016488225762
0005c0 16 52 02 9f a4 fa ad 3f c4 0a 8e dd 4e b4 aa 3f
       0.05855287972477556 0.05215689138915061
0005d0 4d 55 2e ab c8 84 b6 bf 3b 57 ce 10 b5 02 b0 3f
       -0.08796362094138495 0.06254130993178546
0005e0 88 09 d2 5a 7f a9 98 bf 92 16 57 b4 be 9f a3 3f
       -0.024084081571808663 0.03832813216608345
0005f0 c0 75 d9 35 07 9b 8c bf 16 0c 6b be 5d 79 b4 3f
       -0.013967567759375465 0.07997690104370778
000600 20 f6 04 38 10 57 b1 3f c9 03 6c db f3 c9 b3 3f
       0.06773473136578234 0.07730030161839276
000610 01 8c 3b 2b 91 2e b5 3f ce 70 55 b6 c2 88 a1 3f
       0.08274180703624269 0.03424652553323569
000620 7e 7d 62 69 c0 95 a5 bf ff 1f 62 c0 d4 35 9a 3f
       -0.04215813909945164 0.025595974199433155
000630 53 f7 0d b3 15 51 a9 bf 42 ec 13 f2 59 0a a5 3f
       -0.04944675265049505 0.041094599533572765
000640 11 4f ee dc 07 19 a7 bf 2f dd f2 d3 db 4d b6 bf
       -0.045112844199279085 -0.08712552952316764
000650 ee 62 1c c3 32 f7 ac 3f 50 24 e9 d8 83 bc a6 3f
       0.05657347327923455 0.04440700552783794
000660 99 04 52 d7 2f b7 91 3f 50 6f f3 91 61 ce 8a bf
       0.017300364987481307 -0.013088953272408027
000670 78 f9 e2 a9 cb 64 95 3f 22 a5 fb 98 2e da a6 3f
       0.02089231705098757 0.04463334672420617
000680 73 d4 38 3f db c2 ac bf a5 47 c7 0a 44 57 b5 bf
       -0.05617413660767392 -0.08336282027383264
000690 a8 ce 7c 46 e9 1a b3 3f b6 3f 9a 48 eb d0 a4 3f
       0.07462938280951426 0.040656426060308545
0006a0 b9 a7 b8 7c ed ff 75 bf 73 4a cd f4 7e 9e a8 3f
       -0.0053710247844182485 0.04808422792725233
0006b0 69 fc 9f 9b b8 3b b4 bf 3e c2 11 c8 d0 fb b4 3f
       -0.07903627204358234 0.08196740040308101
0006c0 ec 9e b7 90 30 0f 93 3f 3a 0f 17 10 97 00 a3 3f
       0.018612631638375385 0.03711387702381193
0006d0 6c a9 a1 ff 9c 7d 9f 3f a3 d9 6e e1 80 a0 b2 3f
       0.030752614119060537 0.07276158813224369
0006e0 ac 9f b4 ee 87 2c 9f 3f 6c b6 d7 02 97 ad 9d 3f
       0.030443309730941046 0.02898250536775608
0006f0 16 eb 6e e0 bb d6 aa bf c2 0a 3f c3 09 84 b5 bf
       -0.05241953959144589 -0.08404599205736488
000700 5b 05 d7 14 3c ca a3 bf 1e c2 ab 38 b6 0d a7 3f
       -0.03865230326074239 0.04502648774894545
000710 92 0b 59 3d b1 df a1 bf 2e aa 95 22 31 ea a3 3f
       -0.03490976213335907 0.038896117660290094
000720 ae fc 6d fc c3 fa ac 3f 85 34 0a 89 a1 de a8 bf
       0.05660068947235551 -0.048573539713381776
000730 73 48 06 88 50 4f a4 bf a0 07 f0 6b 7d 7c 6e 3f
       -0.039667622189100714 0.003721470798610363
000740 52 75 31 83 f1 87 ab bf 86 ab 5b cb 59 7a a5 bf
       -0.05377154089431237 -0.04194908721350203
000750 d0 a1 c1 a3 ea c4 7b bf e0 65 e6 db 9e de 67 bf
       -0.006779591141914357 -0.0029137709345376933
000760 c6 da 5f 95 ed 03 a5 3f 3c ff ba da 7d 86 a5 bf
       0.041045593723472204 -0.042041714621062515
000770 54 01 e8 29 0d 73 b4 bf 32 de c4 6f 6e c5 a1 3f
       -0.07988054535963346 0.0347094069897448
000780 80 13 a1 c0 09 35 6a bf 6d 79 39 ba 02 6c a1 bf
       -0.0031991186597530308 -0.03402718089340593
000790 42 d4 f8 1e 3b fd b2 bf 6c a7 69 86 ef 55 a4 bf
       -0.07417649751808233 -0.03971813693790591
0007a0 ce de e6 1a 87 7c aa bf f1 ee 6b 74 8e 95 b2 3f
       -0.05173132136718338 0.07259455053639009
0007b0 7a 2b c5 7e d2 74 b3 bf df 63 4b bc 0c 26 b7 3f
       -0.07600131602263885 0.09042434308084023
0007c0 40 a1 de 6b 95 3c 51 3f 58 99 58 65 24 8b 8a 3f
       0.0010520419304872047 0.012960705130421843
0007d0 12 85 f3 91 a5 a3 a4 3f 20 88 9a ba 6a 5e 68 bf
       0.04031102568274937 -0.0029747089909770846
0007e0 dc 4b 45 93 84 ee a7 bf 0c 8e 3c c9 c2 08 9e 3f
       -0.046741621949557305 0.029330295116905034
0007f0 fe 95 b8 a5 58 a8 ae 3f db 9e cc 41 4e fa b4 3f
       0.05987813017808817 0.0819443617480106

fc1.bias f8 [128]
000000 0a 05 77 17 5d f0 70 bf 5f 41 3b 76 3f f5 a7 bf
       -0.004135478629394793 -0.046792967970420866
000010 66 ed b5 61 99 4f af bf 61 c2 7f fd da d6 b5 bf
       -0.06115416829831126 -0.08530968369428528
000020 14 80 a3 82 34 93 b7 bf b6 00 f2 52 7f b5 a3 3f
       -0.09208992185040216 0.038494089961206
000030 90 9b 9b 74 87 91 90 3f 21 4e d8 f8 be 27 41 3f
       0.016180149547746547 0.0005235369187083818
000040 04 f2 5a 1c 1a 66 a7 bf 18 37 c9 d4 1f 63 b0 3f
       -0.04570085140355576 0.06401251740427616
000050 80 9e e9 be 6f 51 43 bf dc c5 78 fb 5f 99 a7 bf
       -0.000589541972499455 -0.04609203285907501
000060 c6 42 08 21 46 d4 b7 3f 89 02 08 11 14 45 ac bf
       0.0930827932973087 -0.05521452625180696
000070 27 90 fa aa 25 51 a0 bf 33 6c 65 06 ad a3 9d 3f
       -0.03186910354750721 0.028944686427490218
000080 9e 63 f7 74 20 66 a1 bf 7c eb e0 87 12 95 b3 3f
       -0.03398229053318079 0.07649341409061877
000090 d5 a2 5a c5 94 4e a2 3f 7c 07 3c a8 9d 5f 92 3f
       0.03575577649218579 0.01794287051507791
0000a0 ed 1a c6 2b 9c 8a a5 3f dc 94 38 d7 fb 8b b2 bf
       0.042073135703551624 -0.07244848255557507
0000b0 55 4b a8 a7 fb 4a b6 bf fe 74 ef 66 1b f8 83 3f
       -0.08708165019224386 0.009750570372427433
0000c0 05 14 7f 7d 1b 51 af bf 7e 37 2f 23 e4 64 a6 bf
       -0.06116567522943942 -0.04373848847863736
0000d0 24 ef a1 80 42 d7 98 bf 80 20 07 02 df 42 72 bf
       -0.024258650876148327 -0.00445830452412832
0000e0 fc 90 7e 6e 15 db ab bf 27 e9 c0 ad 23 ec 8b 3f
       -0.054405851114355 0.013633993854558725
0000f0 f7 e0 f3 03 0a a2 a0 3f b8 81 39 4e 79 48 87 bf
       0.03248626039743557 -0.01136870164845126
000100 57 25 cd 2d eb f8 a5 bf 6b 71 b3 1e 44 8f 81 3f
       -0.042914723721490126 0.008574039637488004
000110 12 61 b6 b0 a4 6e b1 3f 83 70 80 f1 6e 5b 79 bf
       0.06809453310268435 -0.00619071328403831
000120 ca 74 0c cc af f5 b4 bf 36 87 d4 bc 8a 90 9b 3f
       -0.08187388164192835 0.026918571257858313
000130 b3 9a fe 4c 79 26 9c bf d3 fa 71 1e e1 29 a7 bf
       -0.02749051601827075 -0.04524138924261014
000140 79 79 1d 50 27 56 ae bf 71 8b 33 23 e5 79 b8 bf
       -0.05925104954688982 -0.09560997113616822
000150 0f b8 a7 94 3f 59 a8 bf 5b 19 9c 09 1a 6e a2 3f
       -0.04755591096532907 0.035996259377543104
000160 56 29 79 90 b0 31 a9 bf 74 0a ca 8c c5 8d 4c 3f
       -0.049207227359675684 0.0008713926886943627
000170 2b a8 57 82 00 bb a5 3f f3 bc c3 76 9a 5d 98 3f
       0.04244233695119733 0.023794568537536653
000180 40 22 8d c0 70 3d bc bf e8 42 cf 7e 9c 5a b6 bf
       -0.11031250668487136 -0.08732011886537416
000190 6a 63 83 76 17 50 b3 3f a0 7a a8 27 31 7a ad bf
       0.07544085162534278 -0.05757287606342243
0001a0 58 f7 c2 26 b1 5c b9 bf 0b 8f 98 17 5f 04 3d bf
       -0.09907061764076042 -0.0004427654417631244
0001b0 58 d6 e2 86 de 7f 81 3f 2b b9 8d 18 5f 81 7c 3f
       0.008544672480961399 0.006959315746696763
0001c0 3c 7c 19 67 0d 13 b4 bf 00 b2 bf 0b 31 c4 a6 3f
       -0.07841571585730461 0.04446557300966347
0001d0 ea bf 85 3a 82 df a7 3f a0 07 72 b7 cd 65 b1 bf
       0.04662711109529012 -0.06795964935920873
0001e0 1f 77 59 04 6f 79 b2 bf 22 38 4b 76 53 43 a8 bf
       -0.07216543060482337 -0.04738865679756567
0001f0 6b ae f3 d2 de 8a a5 3f d9 af 04 28 a6 ff a4 bf
       0.04207512211891359 -0.04101294744972934
000200 a3 3f 63 5f 01 6d 95 bf a4 dd 08 34 79 4d b0 3f
       -0.02092363495540862 0.06368215103508718
000210 f8 23 fc a2 d8 19 8c 3f 58 4a 69 a8 9f b2 9f bf
       0.013721172784714838 -0.03095483270073837
000220 e2 34 dd 59 06 9b b0 bf 28 d4 66 e9 ef f4 78 bf
       -0.06486549085566964 -0.0060929652740258425
000230 20 f7 cf 17 24 09 7d 3f fe b9 d8 01 b3 6e b0 3f
       0.007088795650813912 0.06418913645823207
000240 34 8d 28 18 3e 64 91 bf f8 09 85 d0 6a 9b 9b 3f
       -0.01698395750476074 0.026960057236701446
000250 7b 5a 25 ae 73 1e b7 bf c2 8e 87 33 d5 03 ae 3f
       -0.09030840875252892 0.05862299207708822
000260 6f a1 a7 59 71 62 ad bf 35 c4 ef cf 13 0f b4 3f
       -0.05739168376368552 0.07835506273819777
000270 9b 98 47 02 0d a1 b4 bf fa a1 96 1e fe 48 b8 bf
       -0.08058244043022215 -0.09486377951419192
000280 f5 87 68 a8 af f9 b6 bf 5d 2c f6 2d aa 7d a2 bf
       -0.08974740850001679 -0.036114996061848294
000290 50 a9 b3 a2 50 59 b2 bf 2e f2 b4 bc 64 52 8c 3f
       -0.07167533848010987 0.013829028138041623
0002a0 75 d0 b0 fc 8b 46 af 3f a6 ec 8a e9 f7 b3 a1 bf
       0.06108510455706632 -0.034576174982669
0002b0 65 cb 42 31 69 af a3 bf 2d 81 64 f3 cf 51 b6 bf
       -0.038447654021544854 -0.08718585674478581
0002c0 91 8e dc 82 42 a2 b7 bf f3 1f 26 e5 a1 30 b4 bf
       -0.09231963820325918 -0.07886707157570054
0002d0 60 93 c3 41 0e 00 ae 3f 1a 04 dd 5c c9 23 93 3f
       0.05859417488844687 0.018691202443054868
0002e0 70 40 b6 79 42 43 74 bf 5c 6b 96 7d 21 24 99 bf
       -0.00494695631950047 -0.024551890650040917
0002f0 ec 85 00 e3 a0 ea a1 3f 20 d8 8a d9 ab 05 a7 bf
       0.03499319811841048 -0.04496514349504843
000300 0c 2f ca df 21 c1 b1 3f 17 ce d0 5b 6a 8e b2 3f
       0.0693532153474587 0.07248558751671684
000310 30 35 93 21 d6 55 ac bf a5 f6 53 11 af 63 9d bf
       -0.05534238014079518 -0.028700576241127113
000320 80 14 d1 2e bd 4d 47 3f e9 b3 0c 96 12 5b b8 bf
       0.0007111715073128272 -0.09513965762444311
000330 30 cf 78 ed b2 ac ae 3f da 85 5d 81 65 f8 b3 3f
       0.059911338318129004 0.07800897987683389
000340 28 60 03 07 d6 a5 ac bf dd 75 0e 88 41 c2 b0 bf
       -0.05595272861108952 -0.0654641110581546
000350 5a 0b 8d 6f b6 38 a2 3f 3f b7 a0 9c 9f ea b7 bf
       0.035588933102664824 -0.09342382024689487
000360 1f 60 50 db bd 87 a9 3f 51 4b 2f 44 29 21 83 3f
       0.04986375143215604 0.009340593713124486
000370 38 a4 cd dc f7 fc 89 bf 64 4e b7 09 b8 a6 97 bf
       -0.01268952982509762 -0.023096919625301374
000380 b0 77 5f 0a 8e 5a b6 bf 90 9d 65 43 14 98 b1 bf
       -0.08731925729031675 -0.06872679372246737
000390 60 de 20 4e c9 a6 b8 bf 3c 7b de 13 62 3a b3 bf
       -0.09629495770865892 -0.07510960564694086
0003a0 2c e1 9b 40 2f 20 b8 bf 88 89 8b 97 23 ce 64 bf
       -0.09424109771123729 -0.0025397009998055532
0003b0 55 52 84 01 17 f6 a5 bf 56 bb d3 10 c6 f6 a9 bf
       -0.04289314168469064 -0.05071085887344988
0003c0 3c d5 c0 8e ce e8 b0 3f 7b 19 4b 8b 9d 2b aa 3f
       0.06605235085665567 0.051114009145339666
0003d0 71 a8 26 33 dd af b1 bf 81 95 79 d5 c4 21 ab bf
       -0.06908972262195491 -0.05299201112647279
0003e0 d2 e3 ae 04 d0 20 af bf fe 3e bc 8b 9e 2b b0 bf
       -0.06079721505324866 -0.06316557799823028
0003f0 0d 46 94 2d 1f 01 b3 bf d0 e6 33 45 1f b0 b3 3f
       -0.07423586714528359 0.07690616073150669

out.weight f8 [4, 128]
000000 10 f4 d3 d7 cb ca a0 3f c3 39 99 bc 73 80 a8 3f
       0.03279721269243663 0.04785501172283404
000010 b8 a7 83 ec 87 f6 97 3f 11 66 19 af be 99 b4 3f
       0.02340137845104781 0.08047096037753244
000020 71 e2 ba dd 71 e1 94 3f 51 15 cd 3d 19 27 6f bf
       0.020391253622366216 -0.003802823352460884
000030 e8 d0 fb 43 3b e8 b2 bf 64 bf 83 9b a8 da a4 3f
       -0.07385607156522023 0.0407307329022604
000040 de 0b 4d 5e 0a 38 9a 3f 76 55 4c c6 bd c3 97 bf
       0.025604402547525378 -0.023207631328735677
000050 42 50 63 90 59 08 aa 3f 9c 83 63 d6 b0 e7 a0 3f
       0.0508449543719114 0.03301766030359163
000060 9a ca 99 d9 48 6b a6 3f 18 fb b5 eb 3e 6d 9e 3f
       0.04378726631411674 0.02971361459412511
000070 69 f5 d9 97 6d f2 ac bf c6 90 6d aa 0b 8f a3 bf
       -0.056537079607532466 -0.038200726083944356
000080 61 4a 49 19 fd 50 ad bf a8 ec 34 47 77 6a 92 bf
       -0.05725851949377581 -0.017984260293115867
000090 48 a6 f4 97 bd 6a 97 3f c0 4a 0b 3e 01 98 9f bf
       0.02286812057460555 -0.030853289996978672
0000a0 32 1a d6 8b 29 08 97 bf bc 4c 66 c2 b4 1f a0 3f
       -0.022492074165280047 0.03149189827959151
0000b0 f8 9c 8d ef 2a 00 92 3f 11 ff a6 5b 8c 06 9f bf
       0.017578764792600204 -0.030298417181028606
0000c0 88 b4 f7 e4 af 97 68 bf e8 39 ec e7 ab 3c b3 bf
       -0.0030020175397483286 -0.07514452373673175
0000d0 eb 38 d1 c4 dd a4 b1 3f f8 1d 0e 8b 78 7d 98 3f
       0.06892190985783812 0.023916133391621103
0000e0 a8 55 5f 89 23 d5 97 bf aa 49 35 11 7b e9 a3 bf
       -0.023273997554346032 -0.03889069161472787
0000f0 0d b5 a3 7d be bf a3 3f 72 c2 74 07 11 92 ac 3f
       0.03857226642308307 0.05580189910904644
000100 6d ec fb 88 1f 30 95 3f bd 31 93 0f 85 9e b0 3f
       0.020691387878269674 0.06491881971596221
000110 97 15 d6 fc 7f fa b0 bf 79 78 d0 ba 73 9c 64 3f
       -0.06632232592354224 0.002516008410125056
000120 00 d3 83 53 14 c5 7c bf 24 00 8f 6f 81 e9 4c 3f
       -0.007023887061440304 0.0008823282251952985
000130 91 45 ec dc cd aa 88 3f e0 a3 da 26 4c 44 7c 3f
       0.012044533066304182 0.00690107104097934
000140 4f 02 ef a1 ec be a7 bf 36 ce 25 bc ea 50 ad 3f
       -0.04637851216057653 0.05725797220921118
000150 34 df 8c 4e 21 23 9f 3f ce 74 4b 77 43 48 af bf
       0.030407448214844382 -0.06109820204958681
000160 00 e2 34 35 e2 8d 3a 3f 08 e5 82 92 2c 51 a1 bf
       0.00040518543865489254 -0.03382243431537729
000170 e0 cd f4 2c 85 16 b0 3f 27 44 18 5f 46 49 62 bf
       0.06284363124432657 -0.002232205814614935
000180 52 90 47 f5 d5 c6 b4 3f 00 45 5d 9b e9 e3 95 bf
       0.0811589931323067 -0.02137722979324952
000190 a0 5b be f4 e6 3d b5 3f f8 fc 28 b7 17 61 9a 3f
       0.0829758021849174 0.02576100402279466
0001a0 6a 08 9d 3b 2f e6 a3 bf fd e2 10 cf 4c df a0 bf
       -0.03886554339125399 -0.032953644062621
0001b0 00 13 72 07 fe a4 a2 3f fc 32 8b 3d f7 6f ae bf
       0.036415041359793676 -0.05944798113123359
0001c0 9d 61 29 76 29 21 95 bf 87 08 63 ab 2a ed b3 3f
       -0.02063431533528758 0.0778376263070034
0001d0 03 c6 01 72 8a 8e a4 3f 4a 34 0c ec d0 b1 a6 bf
       0.04015000001608018 -0.044325379194653694
0001e0 1b 2d 21 61 2d e5 a5 bf c6 95 bd 01 c2 2b a9 3f
       -0.0427641087595367 0.049161970818015585
0001f0 6f 0c 6c c8 25 58 b2 3f 3d 76 1c 98 02 df 9b bf
       0.07165752547375502 -0.0272179036465927
000200 cc da 2f 63 b5 f7 a3 bf 82 e9 a3 fe 99 a5 a5 bf
       -0.03899924121644957 -0.04227906449701192
000210 ac f9 1f c9 1e 5f ac bf 9a e3 1a b1 5b c3 a9 3f
       -0.05541320996416074 0.050318589562670726
000220 1e 21 86 05 23 7c ad 3f 19 78 39 64 a3 27 90 bf
       0.05758771364623015 -0.01577620791646703
000230 00 6f 61 75 d1 72 73 bf d2 2c 8c 78 7f d6 b2 3f
       -0.004748171040855231 0.0735854787164272
000240 e4 e3 db 89 7f b5 b0 3f 65 4b 2c 76 5c cc b1 bf
       0.06526944270798613 -0.06952455411037091
000250 8f 60 1b a4 6e bb 8d 3f 50 f2 04 6d c2 61 98 bf
       0.01451765478434222 -0.023810422805796982
000260 d2 e1 bf 66 7b 49 b6 bf a2 ce 44 c0 83 93 9f 3f
       -0.08705874689611129 0.0308361612416791
000270 65 cd c5 cc a3 fb a3 3f 42 c2 54 49 20 30 b1 bf
       0.03902923464456868 -0.0671405962973575
000280 59 24 ee ab bf 32 b6 3f 98 90 f9 23 43 cd af bf
       0.08671186397090604 -0.06211290182253143
000290 f2 8b 9a 3e 30 7a 9f bf db 02 11 35 55 60 a1 bf
       -0.030739549466158374 -0.03393808625015079
0002a0 2f 33 f0 7f 72 97 a5 bf a0 be a3 c8 19 b5 76 bf
       -0.042171075932947104 -0.005543804853217843
0002b0 48 08 f8 26 c6 91 96 bf 47 97 63 7d 41 41 b1 3f
       -0.02204045880171915 0.06740197478538078
0002c0 7c 7f 6e aa 7e 17 b0 bf ac a6 fa 45 fa 8c b3 bf
       -0.06285850201538595 -0.07636989792322407
0002d0 fa fd 98 bb 9c 18 ae bf f3 88 bc 49 25 c0 94 bf
       -0.05878152647028041 -0.020264227509991305
0002e0 9b 0b 55 49 6a d5 a5 bf 90 38 72 48 b4 f6 8a bf
       -0.04264385361832198 -0.013165863476640532
0002f0 d0 f0 6a 17 71 f6 b1 bf 22 d8 4f 9e 36 f2 a3 bf
       -0.0701666528866014 -0.038957316231901254
000300 51 5c 53 69 01 c3 a8 3f 1d b4 b7 79 3b 88 b2 bf
       0.048362773997432947 -0.07239124032612705
000310 cf b2 89 4f 2a de ae bf 03 4e 2f ab 2e e0 91 bf
       -0.06028873654290622 -0.017456750105180784
000320 50 f6 68 d9 9c 10 91 bf 5c 91 87 0d b6 a3 a0 bf
       -0.01666493489232429 -0.0324990169063166
000330 67 5d b6 c4 55 f2 aa bf 8e c6 1d db 58 01 81 bf
       -0.052630119574298466 -0.008303350626849306
000340 ea bc 23 48 25 73 8d 3f 66 c2 e8 e9 4e d1 a2 3f
       0.01437977911379425 0.03675314526879418
000350 bb b8 b8 80 04 be ac bf 1d 46 ac ad 80 75 b6 3f
       -0.056137219155389904 0.08773044815122728
000360 c1 31 f8 04 2b 38 a6 3f 87 ec e0 70 4c 5b ac 3f
       0.04339727817213968 0.05538405301964482
000370 3c 8c b0 73 d1 57 94 bf e2 78 c2 40 d5 95 9f bf
       -0.019866249738822214 -0.03084500510942057
000380 e2 bc 3d df 22 59 95 3f 04 81 97 f2 42 15 91 3f
       0.020847840190467155 0.016682668739918874
000390 0e 34 71 9c 78 00 8c 3f 01 ba 9a c7 bf 1b a2 bf
       0.013672773622738912 -0.035367959132930345
0003a0 95 80 5a 5a 98 cc 91 bf 51 e7 8b e9 c4 3d b2 3f
       -0.01738203097795628 0.07125502301997001
0003b0 8d cd 12 ef 52 35 88 bf 0e fc 85 48 f6 33 ab 3f
       -0.011820457383101135 0.05313081393523343
0003c0 47 fa 55 be 34 d7 8b 3f b1 df e5 19 1b d7 b1 3f
       0.013594066675748041 0.06968850500368153
0003d0 91 17 6c 1b 08 1c b3 3f 56 b8 9f ad 04 a7 a0 3f
       0.07464647931564473 0.03252424830849125
0003e0 cf 88 4d 20 f3 72 b6 3f 2b b0 55 14 85 40 b4 bf
       0.08769149340290315 -0.07910949465230092
0003f0 30 b3 21 b6 59 73 95 bf 97 4c 65 35 fc bc 8e 3f
       -0.020947839490349895 0.015008898143298572
000400 2a 7a 36 c6 c2 a3 67 3f 3d 21 eb 2c 13 82 7b bf
       0.002885704439634003 -0.006715845970298337
000410 0c 8e 9c 60 1c 9c 91 bf 4e c6 9d c2 33 6e a9 3f
       -0.017197078129482832 0.0496689009731993
000420 42 60 94 58 1e 7e af bf ee 0c 67 15 e2 eb 89 3f
       -0.06150908309263105 0.012656942632821768
000430 b1 4f 82 5f 23 2e a0 bf 29 b2 5a b8 61 26 aa bf
       -0.03160200634843536 -0.05107407927912206
000440 89 62 28 3b 46 c6 91 bf f5 59 59 72 fc e4 98 bf
       -0.017357919083311777 -0.02431101272517285
000450 73 60 b1 26 c4 f9 b4 3f 15 67 64 e5 11 2f b2 3f
       0.08193612999582615 0.07103072977443177
000460 80 a6 9a 75 39 fa 6d bf d1 fa 1d e9 45 bd b5 3f
       -0.0036593553785067567 0.0849193281301084
000470 77 b8 47 35 c0 49 86 bf c3 1f 9b 38 6b 98 98 bf
       -0.01088285601232662 -0.024018931703522883
000480 45 be db 2d 6f 17 aa 3f e3 dc 8d 85 41 0a b3 3f
       0.05096003947062092 0.0743752432880345
000490 b5 a0 56 d8 b6 39 b6 3f 28 28 8b 44 f7 0c 85 3f
       0.08681814939211814 0.010278636721881965
0004a0 6d e2 4f 6d 53 81 ac bf b1 25 92 ac d9 92 98 bf
       -0.05567417821288676 -0.023997689397708025
0004b0 5c b8 69 53 44 4f ab 3f ba e0 23 0f 33 45 a7 bf
       0.053339133436438785 -0.0454498249036432
0004c0 68 18 6f f9 5f 42 b5 3f 58 a4 c4 19 31 54 95 bf
       0.08304405059524955 -0.02082897872711373
0004d0 44 75 ad 5d 15 88 b0 bf a0 58 cd be 5c 2d 61 3f
       -0.06457646882104934 0.0020968257362411064
0004e0 4c b9 50 7c d0 bc b2 bf de 4e 87 aa 96 02 9c bf
       -0.07319357905428098 -0.027353624494778177
0004f0 f4 c0 01 16 f6 29 af bf 11 0d 4a a2 4e ae ac bf
       -0.060867014109023204 -0.05601735812254039
000500 4a 08 e5 bd 76 bd 97 3f c5 e7 30 9e 82 05 a4 3f
       0.023183684673547846 0.03910453969042708
000510 ad 1a ec 3c 77 cf b1 bf dc bc 57 d9 cf b3 94 bf
       -0.06957192647323991 -0.02021717800192567
000520 5e 22 bf ae c7 00 a9 3f 57 32 c6 00 75 35 8e 3f
       0.04883407600533894 0.014750398718001252
000530 a3 61 ca 88 6e 08 a6 bf 1c 7c 38 e2 5c 22 92 bf
       -0.04303307933622882 -0.017709208781635608
000540 d0 c0 72 9a af 0c 83 bf d5 37 1c a6 86 5b ad bf
       -0.009301540280234027 -0.05733891275131923
000550 f0 3d a9 f2 0b ea af bf 0f 09 da bf 50 0d 97 3f
       -0.06233250939532897 0.022511731824587374
000560 de d8 be 4b 5f 08 ab 3f 2a 45 d8 b1 b4 60 aa 3f
       0.0527982501948132 0.051519056996890036
000570 90 71 a6 60 20 3d 94 3f 21 3e b0 e8 15 78 a5 3f
       0.01976442899614167 0.0419318052810207
000580 40 ad 45 54 5a 53 81 bf e8 64 d1 42 c5 f2 87 3f
       -0.00845976419142025 0.01169351682817639
000590 f3 37 3b 9b d6 02 a2 3f 2b 0d 79 63 81 8d b3 3f
       0.03517790455735783 0.07637795141731789
0005a0 8d b8 d1 cd cd bc a3 bf a6 c3 d0 fc d3 d1 b2 bf
       -0.038549834608475476 -0.07351422235730229
0005b0 1e 4e 60 c4 5a b5 ae 3f 41 dc fd f8 c1 73 b0 bf
       0.05997737548036873 -0.06426632241151344
0005c0 4d 6e 8a 8f 6c 3c 79 3f 80 37 7f 05 93 6b 86 bf
       0.00616114050412937 -0.010947369199040713
0005d0 25 2f d5 11 ed f2 ab bf d8 c1 13 5d 7b dd ae bf
       -0.054587753702973786 -0.0602835227126694
0005e0 9f af 57 e6 60 73 ad 3f 51 4c bf 72 27 59 b5 bf
       0.057520893209441974 -0.08339163352438674
0005f0 c2 d9 eb 30 2d ab af bf a7 a9 eb 42 a1 6f a9 3f
       -0.06185284826453909 0.0496797937574514
000600 8b 7e 3b 05 c0 a0 86 3f a4 25 dc 73 5d fc b6 3f
       0.011048793945007481 0.08978828505146069
000610 ae 64 1c 8f 49 46 ad bf 14 29 b0 f3 09 88 b3 bf
       -0.05717687484702459 -0.07629453849236639
000620 80 dc b0 54 13 08 59 3f 3e db 0f e1 d4 85 67 bf
       0.0015278042581153006 -0.002871433047853782
000630 3c 0c db 5c 1b 44 92 bf 93 1e 87 b2 51 67 b7 3f
       -0.01783793215032524 0.09142027481640928
000640 4f e8 46 c2 ad f1 a5 3f 80 41 87 6d 53 27 71 bf
       0.04285948750062173 -0.0041878947162817814
000650 93 ac 0f 32 ea 8b 75 3f 59 e5 b5 d1 ff 49 a4 3f
       0.005260386301397041 0.03962706980650905
000660 16 53 de a0 36 67 a8 3f 02 26 0c 40 a5 3b a2 3f
       0.04766245568968068 0.0356113091166428
000670 16 d4 2e aa 4e 1b a8 3f 6d c3 e0 d5 3a db 8c 3f
       0.04708333804538982 0.014090022708929084
000680 c4 43 15 82 22 95 b1 bf b7 38 91 ab f2 b6 a5 3f
       -0.06868186641555868 0.042411406939764466
000690 d8 4e 83 56 64 66 8b bf a3 6c 44 c3 58 ae b6 3f
       -0.013378890886463976 0.08859781996982234
0006a0 d5 a8 97 1e 6d 88 82 3f 0a 71 0b a2 dd 51 9d bf
       0.009049274917704167 -0.028632605567382043
0006b0 09 2a a2 8d b6 91 b3 3f af 6e 67 35 95 d2 b5 3f
       0.07644215543601986 0.08524448922929183
0006c0 57 82 7f bb 47 45 a1 3f 08 c5 2b 02 3e 6c 8c bf
       0.0337316910151954 -0.013878330651524454
0006d0 e0 c1 b4 60 41 2b a0 3f 21 1c 8d e9 a9 a5 b1 bf
       0.03158001237386876 -0.0689340777581582
0006e0 3c a0 7a 53 86 4a b3 bf c4 56 0f 31 f5 47 93 bf
       -0.07535590684949595 -0.01882918464601492
0006f0 0c f2 bc ad c1 95 99 bf d6 11 31 99 06 3a 81 3f
       -0.024985338429575107 0.008411456632651342
000700 71 6c 1c 1a 86 e6 91 3f 93 c0 31 f5 c1 6f a2 bf
       0.017480941146555688 -0.036008893185568124
000710 f8 b1 f4 bf 40 18 92 bf 96 b9 b8 bc 63 2e 80 3f
       -0.017670642581991886 0.007900981137109391
000720 43 e6 ba a2 1c 02 b2 3f 6a c7 b4 29 e5 6b a1 bf
       0.07034472439672705 -0.03402629980190748
000730 45 34 ce 5f d8 10 b0 3f 7f 8c 72 68 c3 83 ae bf
       0.06275703753472424 -0.05959902429574359
000740 d6 49 31 49 58 de a4 3f 25 f1 c8 72 18 a7 b4 3f
       0.04075885671103989 0.08067467501036114
000750 13 de 2d 56 89 67 a1 bf f0 a7 f3 23 c0 3c a0 3f
       -0.033993045587461655 0.031713489903111625
000760 fe 57 ae 1c 5d d9 a6 3f 98 01 ed 40 86 a7 a3 3f
       0.04462710356817466 0.03838748495627725
000770 3b a7 82 4f 82 e0 b2 3f e1 ab c9 8d 23 e4 6e bf
       0.07373823586627008 -0.003770894471292405
000780 d6 2f 0b a5 4c 37 88 bf 5d d0 2f 95 46 3b b3 3f
       -0.011824225222333878 0.07512322561507419
000790 19 6a 84 2a f7 db 75 3f 57 4f f5 ef 44 6e a6 bf
       0.005336728565704018 -0.04381003789117582
0007a0 4e e1 73 68 7a e9 ab bf d9 0a 7c a8 33 06 ad bf
       -0.054515671969002186 -0.05668794089981128
0007b0 ee 96 aa 99 ce d1 b5 3f 58 73 8e 8c 86 d0 9c bf
       0.08523265124912502 -0.02813921196831201
0007c0 42 41 f0 81 c3 27 a1 bf 8b 95 bd 7c b5 cc 4c 3f
       -0.03350649796641615 0.0008788953941631245
0007d0 fb 5c 5b 71 24 d3 98 bf b0 aa ea f5 d1 40 97 bf
       -0.024242944163089124 -0.02270820678192348
0007e0 30 8f e5 91 44 f8 88 3f f2 d2 f8 9f 9f 70 a9 3f
       0.012192283346571381 0.04968737437994787
0007f0 b4 c0 4d fe cc ce 90 3f ea ad fb 2b fb 40 b5 3f
       0.016413882276027095 0.08302278350645734

out.bias f8 [4]
000000 44 bd 55 1d a7 86 9a bf 85 92 bb a3 1b 6d 8f 3f
       -0.025904284635030153 0.01534482568190155
000010 e1 2d 91 4c 8b b3 a4 bf 79 25 1e a3 35 eb aa 3f
       -0.04043231305748996 0.05257575622733674
