pygame_env/code/rlhf_dqn/dqn/model.pt (torch, 255379 bytes, 4 tensors)

fc1.weight f8 [128, 243]
000000 f4 0b 38 fc 2a 82 83 bf ee c7 93 94 7a 0d 9f bf
       -0.009525619337187742 -0.030324855154454093
000010 f8 b0 10 8f 77 f3 84 bf 28 bb 93 c0 67 a6 83 3f
       -0.010230001500609806 0.009594736637578885
000020 10 80 00 45 ce d2 73 3f a0 54 2c fa 98 77 66 3f
       0.004839711895357382 0.002742575439138209
000030 f4 cb e4 13 38 ce 9a 3f de 02 98 75 64 bf aa 3f
       0.026177288259713508 0.052241458277426864
000040 e4 43 2f e4 e9 f8 90 bf 50 da 64 49 81 86 7b 3f
       -0.016574530174526717 0.006720070863869568
000050 32 83 28 1d b8 7f c0 bf e7 d3 22 d2 f5 f6 c2 bf
       -0.12889768050902145 -0.14816162834691157
000060 38 58 de dc f0 59 ca bf d0 b3 5f 8b 45 a4 8f 3f
       -0.20586977753254287 0.015450042072154974
000070 fe cb 93 99 9a 61 c8 bf 91 56 e6 93 3a 3d a5 bf
       -0.19047863482373367 -0.04148276381890271
000080 84 32 d6 dc 3a a2 c3 3f ee 76 35 77 b5 1c ab bf
       0.15338836463014982 -0.05295340614496334
000090 48 a1 c5 6d fd 58 a8 3f cf 05 66 3b 75 9f 70 bf
       0.04755393948545589 -0.004058320939635831
0000a0 2f 6d c8 d3 2b 9d 97 bf f7 4d 3e a8 16 be a4 3f
       -0.023060498048022623 0.040512760198136925
0000b0 7b 0b c6 4e e8 51 a8 bf 09 b1 f5 04 bc d0 bf 3f
       -0.04749990426628067 0.1242787849529955
0000c0 b4 f7 18 d5 5b cf 87 bf b4 33 f5 e7 e7 f7 dd 3f
       -0.011625974121780881 0.46825597431307675
0000d0 e8 c2 1a 33 51 93 a2 bf cf 62 91 11 4c 17 ab bf
       -0.03628019093355822 -0.05291211809589457
0000e0 aa e7 56 17 b4 ae b1 bf 92 c9 b6 e3 da 45 a5 bf
       -0.06907201356707895 -0.0415485766383369
0000f0 4d 9c 67 bf 7a 9e c5 bf f2 82 40 33 dc 76 92 bf
       -0.16889891000684756 -0.01803154051606532
000100 26 8a 33 cf b2 ca 95 3f 9c 0a 2d d7 73 06 ae bf
       0.021281045815053322 -0.058642978684038755
000110 1d ae 8f a8 a9 a3 c9 3f c0 8f 6d f6 ae 73 af 3f
       0.20030709009675798 0.06142946966318119
000120 7e 87 69 f7 66 5c aa bf 64 05 da f2 e5 da a4 3f
       -0.05148622293633219 0.04073256101129166
000130 72 8a a4 fe 27 69 ad bf ac 42 57 e5 f1 6b 98 3f
       -0.05744290336067061 0.023849277136664668
000140 cb d8 7c 76 20 07 a4 bf 10 24 24 a1 92 fc 67 bf
       -0.039116873229816905 -0.0029280532700153364
000150 78 ad 9c 96 e1 ad c3 3f 00 21 13 0e 2b b2 5f 3f
       0.15374393323996194 0.001934568448904328
000160 47 75 f9 1a 0e cd ac bf c8 de fa de 23 b0 ac 3f
       -0.05625194625165846 0.05603134247706759
000170 94 e9 00 2f 3b 9c 9e bf eb 33 8e 26 32 6a b9 bf
       -0.02989284967791546 -0.09927667084976093
000180 c4 cf 62 ca 44 70 b8 bf 00 54 2b 3d ad de 1f 3f
       -0.09546308461250336 0.00012157375685302452
000190 c4 9c 8f c6 f4 c4 bf 3f a8 96 e6 c3 1b 8a b0 bf
       0.12409906242065732 -0.06460736782772847
0001a0 6b 5a 0e 9e a0 46 be 3f 38 72 56 04 13 56 a2 3f
       0.11826518877783491 0.03581294467878532
0001b0 7c 61 48 f4 7d d0 99 3f 7d 39 bf 75 96 9a a5 3f
       0.025209396395525982 0.04219503581372217
0001c0 e4 b2 a4 5b 17 50 ad bf 77 5a cf 5b 1f 46 b9 bf
       -0.05725167268460554 -0.09872623435453841
0001d0 31 1f b7 39 e8 be b4 bf 33 12 48 60 8f ea a8 bf
       -0.08103801163735792 -0.04866455126105897
0001e0 6f fa a8 d4 00 2a 9e bf 1e bd 5c 9f 68 b8 71 bf
       -0.02945710466360157 -0.004326256448435898
0001f0 92 c4 cc 18 e4 32 a3 bf c2 d6 be 75 df 49 a0 3f
       -0.03749764254315226 0.03181360542604984
000200 79 c1 9f 62 d3 31 b1 bf 71 8f 49 34 a3 91 b7 bf
       -0.0671665302068102 -0.09206600214525708
000210 01 3f 48 5d 3f f9 c5 bf 14 93 e8 9e 66 a6 94 3f
       -0.17166893057628133 0.02016601891422727
000220 26 9d 26 ed a4 c4 b0 bf a9 40 2f 9e 17 a8 ce bf
       -0.06550055303397481 -0.239504768599095
000230 e9 9d ba 60 d2 54 ac 3f 4c 93 cc 15 c5 d3 98 3f
       0.05533463888906082 0.024245337920677998
000240 97 31 96 4c e7 58 af bf ae f6 1d 23 04 70 a2 bf
       -0.06122515497108621 -0.03601086548495168
000250 f8 67 5c 41 80 33 79 bf 40 3f d0 f7 c9 0c 7d bf
       -0.006152630803422092 -0.007092274606307403
000260 7a 74 ca eb 99 b4 aa 3f 86 a8 6f df 4a c1 a4 bf
       0.052159128220616816 -0.04053720452778102
000270 a0 7d b7 a4 77 72 6b bf 08 68 24 90 3a 76 9b 3f
       -0.0033504807267800835 0.026818194434874015
000280 ac 61 de 6b 0a 16 91 bf 86 2e 77 6b 47 19 af 3f
       -0.016685641130239112 0.06073973833880779
000290 58 94 6a 3a 26 48 89 3f d6 95 22 31 bb 12 a3 bf
       0.012344645173764032 -0.03725228285592734
0002a0 e4 f0 44 f3 28 b0 97 3f 40 04 13 a8 d6 fe 7a bf
       0.02313293442533472 -0.006590689184293785
0002b0 3e cd e3 9c fa 44 b0 bf 74 ed 00 78 d6 e5 8d bf
       -0.06355253534620872 -0.01459853700372691
0002c0 e2 fd 36 28 c9 00 b0 3f 64 e0 c2 dc 94 70 90 3f
       0.06251198989684029 0.016054464315601882
0002d0 2d 9a 60 27 0b 1a a1 bf 00 d4 b9 53 f9 78 73 bf
       -0.03340182166748593 -0.004754041608625137
0002e0 70 27 e2 58 36 07 96 3f 28 f8 84 2d c2 95 7f bf
       0.02151188771725948 -0.007711180216857051
0002f0 3e a6 6e 49 2b ae a8 3f 40 f9 c7 d4 dd 9d 71 bf
       0.04820380469693618 -0.004300943878204955
000300 da ac e9 75 3a c3 a1 3f 40 55 84 84 c8 bf ae bf
       0.03469259919514807 -0.060056940246946855
000310 26 bd cd 50 61 ad a3 bf 40 05 47 79 18 0c ac 3f
       -0.038432160485962805 0.054779782108662634
000320 88 48 55 e8 cf ec 89 bf 9c 83 a8 93 50 36 a5 bf
       -0.01265871455931157 -0.041430013680162164
000330 ee d1 b5 af fd 0d 98 bf 50 70 a1 ff d8 c5 a7 3f
       -0.02349087128591692 0.04643133278361289
000340 6b 3a 20 11 66 5e a0 bf 29 2b 4b ba b9 7d 73 3f
       -0.0319702049165372 0.004758573054185069
000350 74 04 78 23 dc 2b a9 3f f8 55 21 f0 b9 a8 9b bf
       0.0491627496048829 -0.027010827332864168
000360 2c 1d 19 08 ae 54 af 3f f0 be 25 e8 2c 13 ac 3f
       0.06119293068746354 0.0548337968237983
000370 26 44 36 6d 48 82 ab bf 00 17 60 29 16 99 72 bf
       -0.053728354770221906 -0.004540525978887322
000380 c0 11 79 f2 a8 89 7f 3f 78 62 eb 77 6f 53 ab 3f
       0.007699642133563278 0.053370936764342625
000390 97 ab 9b 21 87 8d a8 bf cc 74 35 d0 82 94 8d bf
       -0.04795477185492485 -0.014443418482807856
0003a0 90 0c 99 e9 0a bd 78 3f f8 63 79 72 16 11 9b 3f
       0.006039660097999847 0.02643237184233624
0003b0 4c f5 1f 79 af 3b a7 3f 8e 7f a7 fc bf a3 94 bf
       0.04537723878454844 -0.020155906482500145
0003c0 f2 65 39 3a 9e 18 98 bf c0 fe eb 1c f2 07 9b 3f
       -0.023531410506938806 0.02639749814534187
0003d0 6c 52 b0 c1 f4 75 a1 3f 20 19 fd 98 19 10 b0 3f
       0.034103058475157905 0.06274566636156864
0003e0 48 e9 12 51 cb 4d 88 3f fc a0 c0 22 18 4e ae 3f
       0.011867130672147966 0.059189562074893204
0003f0 d2 4a f1 21 36 0a a8 bf c4 8d 1e bd 04 97 a4 3f
       -0.046952907222154075 0.04021467979989837
000400 c0 91 03 b2 7a d2 74 3f fb 8d d1 e2 0e a2 ac bf
       0.005083541182305529 -0.055923905551733065
000410 f8 4b 4d de 3f b6 a0 bf d0 d5 97 3c f6 4c 74 3f
       -0.032640453230349864 0.0049562090512060425
000420 00 4e b1 44 83 0e 46 3f 1c ad ca 29 37 81 ae 3f
       0.0006731167753834533 0.05957958588745724
000430 b0 35 b6 6f 52 22 99 3f ff e0 b1 b5 5b f8 aa bf
       0.0245449906047292 -0.052676073007150485
000440 f8 a0 08 58 da f3 87 bf 50 a6 11 0e 63 15 6d bf
       -0.011695581256461626 -0.0035502371470570795
000450 7b c8 e4 ef d0 75 ab bf ea d5 a2 1a b9 f5 a1 3f
       -0.05363324097051333 0.0350778431906454
000460 80 e8 88 b1 05 eb 5c 3f 80 9e 78 02 c7 48 43 3f
       0.0017650180435695717 0.0005885097243138598
000470 32 12 91 31 11 87 99 bf 12 30 48 3c c6 63 ae 3f
       -0.0249293028357604 0.05935496793617302
000480 00 e3 51 c8 f0 8b 30 bf a8 11 ee 27 cf f4 97 3f
       -0.00025248173216811665 0.02339481049740902
000490 4a 04 b4 02 5c 43 95 bf ca a4 e5 80 c2 65 a3 3f
       -0.020764768280973102 0.037885740503790524
0004a0 b4 94 a8 e0 6a 95 ab bf 58 24 ba 71 ac 0b 82 3f
       -0.05387433998502314 0.008811328144718342
0004b0 e0 8e eb ae 47 98 86 3f 82 29 9f c8 d7 89 98 bf
       0.011032638574256237 -0.023963328952768766
0004c0 78 d5 70 f3 85 36 a9 bf 32 aa f3 70 ab f3 ab 3f
       -0.04924410435379917 0.054593427217544024
0004d0 84 52 ba 85 63 1a af 3f 90 e2 42 88 49 75 8f bf
       0.06074820525569627 -0.015360426398147525
0004e0 dc d0 ee 2d e1 f8 a3 3f 80 0a 1b 36 35 3a 6b bf
       0.03900817571357759 -0.0033236541065389535
0004f0 a4 f1 43 84 a3 e4 97 3f 30 49 66 e8 15 36 87 3f
       0.023333125064696994 0.011333628802081636
000500 6e 11 1a a8 8b 7c a4 bf 2e ac 70 ac f6 b4 aa 3f
       -0.04001270701431535 0.05216189246160528
000510 99 d8 d2 3f a2 d6 94 bf af 71 2d 35 88 63 7b 3f
       -0.02035001291798064 0.006686718045639513
000520 1e d8 5d 81 50 83 87 bf 06 6e c4 2e 7a 2f a3 bf
       -0.011480931232409172 -0.037471597870730775
000530 ac 4a 96 d5 15 7c a5 bf 99 f1 7f 02 f0 a6 80 bf
       -0.04196232063545344 -0.008130908085143317
000540 bb d1 29 70 e2 61 a2 3f 19 1e ef 95 12 51 94 3f
       0.03590304965192411 0.01984051742672763
000550 18 b8 9c 40 3a 2f 9a 3f 45 f5 da 38 d5 3f a0 bf
       0.025570783799757718 -0.03173700636896596
000560 98 d8 53 3f a2 f2 af 3f ec c4 2e 8f e6 fe 9b 3f
       0.06239802382508336 0.027339556206872936
000570 50 16 ca 6a 1a 0f 7c bf 99 65 54 e3 dc 48 a0 bf
       -0.006850341026284193 -0.0318058993818326
000580 f0 89 0d 2a a4 15 97 3f 64 89 ef c5 c5 0d a1 3f
       0.022543492380814045 0.0333082012291637
000590 e0 2a d6 77 26 29 a5 3f 96 d4 0c 47 f0 e9 81 bf
       0.041329576614847374 -0.008746983688619186
0005a0 7a 3f ad 49 3b db 46 3f 50 4f 5a ba 46 e8 8c 3f
       0.0006975211611947995 0.014114906847033787
0005b0 b2 8d 42 09 36 04 9a bf 32 a9 3d bf 5b 05 9c bf
       -0.02540668899076843 -0.02736419062368007
0005c0 b4 79 f1 c0 3e e5 90 bf c8 d1 71 64 87 ad a6 3f
       -0.01649950077659819 0.04429267026071987
0005d0 e4 c9 ee 57 c6 43 8e bf f0 73 1b 1e 74 18 ae 3f
       -0.014777707632537003 0.05878031604309075
0005e0 07 12 e4 00 1f 2f a8 bf 0b 72 ee a1 21 d3 a7 bf
       -0.04723450551867719 -0.04653267957403181
0005f0 e4 06 2b 18 fd d5 97 bf d8 af 3b 10 7c e5 80 bf
       -0.02327723941812722 -0.008250207181354982
000600 da e0 06 c3 52 24 a3 bf 6b 1b 54 97 f7 9e 94 bf
       -0.03738649969767645 -0.02013766156326417
000610 87 55 71 b0 9b 7c ac bf 30 c2 33 d4 0c 88 8c 3f
       -0.05563818482248011 0.013931369996925985
000620 9f 28 3a ab 60 85 a7 bf 50 2e 7a 75 29 b1 98 3f
       -0.045939465429073005 0.024113319201701622
000630 1e 76 64 74 94 ac a4 3f 49 4a 1d 4f 28 44 a0 3f
       0.040379180152950264 0.03177000013115056
000640 34 48 79 4a 1e 85 a4 3f 7f 30 31 55 f0 5d ad bf
       0.040078112212214384 -0.05735732116645042
000650 60 94 bd ed 18 28 92 3f b4 e3 b8 65 7f 43 72 3f
       0.017731084356814697 0.004458902021320311
000660 02 59 c8 f3 07 94 96 bf a9 ec cd 05 11 c1 9e 3f
       -0.02204906869345625 0.030033365229866025
000670 cd eb 2f 31 21 12 86 bf a2 10 77 25 f3 a4 5d 3f
       -0.010776767076086014 0.0018093466259055187
000680 40 b4 73 b4 7c 5f ae bf 54 5c 30 3f 92 54 ae 3f
       -0.05932225897581889 0.05923897763585076
000690 a6 61 fa 1d 21 55 ab 3f b1 39 05 04 f9 90 9b bf
       0.05338386050169967 -0.02692021452940602
0006a0 9c 27 f5 4d 4a 6c a8 bf c0 d0 84 2f e7 e7 6e bf
       -0.04770118905669493 -0.0037726893753192436
0006b0 aa 48 48 56 25 98 ab 3f 83 c9 79 c4 39 98 a2 bf
       0.05389515569926691 -0.03631763957391156
0006c0 a6 a4 1d 12 f3 e2 aa bf 0f 38 21 19 a0 8d a0 bf
       -0.05251273723735865 -0.03233051592597757
0006d0 26 ca ca d6 0c 02 a9 3f 06 c6 9d fc 33 6f a6 3f
       0.048843766422028076 0.04381716211981872
0006e0 96 b4 4c cb 04 65 a3 bf c6 a9 e5 e2 4d 2d ad 3f
       -0.037880086724137715 0.05698626894703156
0006f0 d0 a1 b1 97 6c 05 74 3f d8 e2 99 24 c1 b0 8d 3f
       0.004887985410370679 0.014497288636662928
000700 58 df 04 09 c6 74 b0 bf 9f 4b 12 3b 32 f7 9a 3f
       -0.06428182335082278 0.026333603721080952
000710 d8 7b 9f e8 da 5d 96 3f 30 5f 9e f4 db cb 7b bf
       0.021842403839283125 -0.006786212159475544
000720 2a 00 b5 6c 14 79 ac bf f8 9a a4 92 55 54 b4 bf
       -0.05561126543989332 -0.07941183881903757
000730 0c 90 9f e2 a9 c2 91 3f 92 62 d8 db fc 54 a6 3f
       0.01734414525698473 0.0436171549192227
000740 ba c7 29 0b 59 f3 a6 3f 0d 54 9a ad ee 80 99 bf
       0.04482534657735422 -0.024905900331379672
000750 bb a0 e3 c7 eb 86 b3 bf f2 24 2e 10 5f 3a 7a 3f
       -0.07627748136622163 0.006403323498383561
000760 ec ff 1c 84 56 c8 b0 bf 00 4c d7 79 81 8a 9f 3f
       -0.06555691457197071 0.03080179506453007
000770 69 08 eb 7a b3 5a b3 bf 79 8e e8 7f 56 9a 81 3f
       -0.07560273886613945 0.008595157412009545
000780 ff 7e 13 ec 06 b0 ad bf f1 45 13 ef 6f ab 81 3f
       -0.05798360473431607 0.008627771838663785
000790 ee db d6 18 d2 c1 92 3f 96 27 30 bf eb 57 9e bf
       0.0183174922619535 -0.02963226656360226
0007a0 b7 f0 4e f1 a0 c2 ad bf 7e e2 10 30 46 e3 a1 3f
       -0.05812552400263498 0.034937089316774625
0007b0 40 56 81 38 c5 0a 64 3f c0 19 7c 2d 80 d0 6a bf
       0.0024465419738060323 -0.003273249003430595
0007c0 2e 38 d1 d0 4b 07 90 bf b8 8b 57 0b 3c df ae 3f
       -0.01565283262271338 0.06029689444019176
0007d0 d0 fd 3d 2c 50 52 91 3f eb a1 12 0f f9 55 aa bf
       0.016915562343909063 -0.05143717106813369
0007e0 72 e0 ea 77 b7 86 a9 3f 2b 3a f1 a3 13 00 b5 3f
       0.04985593165241732 0.08203242065904053
0007f0 b5 b0 2f 17 4b d9 c5 3f 5d c2 da b1 cb ab 8d bf
       0.170693765946799 -0.01448783051032015

fc1.bias f8 [128]
000000 56 ac 78 b6 63 4c 9a 3f e5 c6 c5 dc 1e df b4 bf
       0.025682027828377883 -0.08152954950289944
000010 17 73 bd ab 91 d8 ae 3f 77 36 e4 36 b6 33 ab 3f
       0.06024604054866794 0.053128904533974834
000020 88 e5 d2 d1 e0 64 83 3f 0c 3f f7 45 00 19 90 3f
       0.009469753650011695 0.015720371504186523
000030 57 5c 05 8f 18 fa 7a bf 9f 5d 6d b5 4b 2e 9b 3f
       -0.006586166317297324 0.026543791721761797
000040 40 e2 de 23 1d e8 58 3f a8 98 ed f4 3a c1 83 3f
       0.0015201839992028537 0.009645901298153639
000050 84 65 02 0e 1d 2c a1 bf 09 26 6a 94 bd 36 af bf
       -0.03353968425762857 -0.06096451222135719
000060 1c 06 3e e4 f4 0c a4 3f 70 94 2b e3 9f 83 af bf
       0.03916135107193616 -0.06155109069894926
000070 e8 3b 80 5f 58 29 91 bf b2 5d 43 0a de 4a ad 3f
       -0.01675928194896051 0.057211817505670295
000080 6c c0 d4 44 bd 10 a4 bf 46 30 f6 90 2a 7e 75 bf
       -0.03919021096442141 -0.005247274660529716
000090 2d fc 9b f4 3d d7 9a 3f 3b b1 e7 93 18 e3 99 3f
       0.02621170812107836 0.025280365016372413
0000a0 9c c6 a4 d3 06 8a ac bf 1a ec d3 cd bd 3e a5 3f
       -0.0557405598978111 0.04149430406138084
0000b0 a0 35 69 af b3 64 75 bf 71 76 4e 10 a6 f4 a9 bf
       -0.005222989936169681 -0.050694646349467194
0000c0 5b 48 bd 8f 41 7a ab bf f8 57 67 f8 f3 dc ad bf
       -0.0536671150172345 -0.058326362679210264
0000d0 81 1f d1 bd ce ff 9d 3f 9f 0a 17 c2 55 b8 95 3f
       0.0292961409907373 0.021210994693101722
0000e0 0e 7f 9e 93 b8 f1 ac bf f9 f7 9e 3e 9d bf a3 bf
       -0.05653168489447867 -0.03857127561012414
0000f0 10 fe 8e e0 e2 9b b6 bf 9c f4 0a ba b0 8c ae bf
       -0.08831613523852178 -0.05966713210134708
000100 f7 eb 9a 52 86 98 a0 3f 10 07 34 0d 8c ef 85 bf
       0.03241367109645659 -0.010710806038790405
000110 4f 17 45 59 83 19 98 bf 75 8c a0 08 0b e3 b1 bf
       -0.023534824679948326 -0.06987065277694333
000120 20 27 3f c7 1a f7 a7 3f 16 9b c8 26 94 c9 ab 3f
       0.04680713350496846 0.054272298559501816
000130 78 25 a9 1b 7e 0c 9e bf 06 98 96 ae ed 2a 86 bf
       -0.0293445305235642 -0.010824067011366633
000140 c2 09 4e 3c 4e 99 a7 3f 2c 65 4d f4 87 b1 8c bf
       0.04609150396483443 -0.014010488646521845
000150 93 2e b1 58 a1 5f 7a bf 7f a2 0b 37 c4 9d ad bf
       -0.006438856372436813 -0.05784428760472781
000160 c4 4b a8 e3 30 50 9c 3f 5c 0c 14 61 b3 93 ad bf
       0.027649654288392403 -0.057767491913204266
000170 60 35 2f 6c 01 4e 98 3f d2 80 78 89 49 a4 a0 3f
       0.023735067585041292 0.032503412276356905
000180 53 ef 4d 38 69 bd aa 3f 37 84 a8 97 cb 56 a1 bf
       0.05222634136495565 -0.033865320456478214
000190 7a 01 54 3f cd 13 77 3f 14 85 fb 1f b0 6e 96 3f
       0.005634118793068738 0.021906616165215345
0001a0 71 6f 72 5d 4b f8 b0 bf 50 9a cb da d0 39 84 3f
       -0.06628867179318633 0.009875899960616469
0001b0 5d 2e 23 9c 16 4a af bf e8 23 57 62 e6 6c a2 3f
       -0.06111212402319375 0.03598709059185251
0001c0 46 a7 fe 43 2c 3a ae bf e4 b3 b5 e9 1d e8 a5 bf
       -0.059037574100627085 -0.04278653600599805
0001d0 18 e5 1f 56 2d a9 8b bf e8 3d b8 7a 52 61 b0 3f
       -0.013506273451627623 0.06398501869283957
0001e0 39 12 90 73 69 5c 9d bf e8 5d 25 78 eb cb a7 bf
       -0.028672835997001853 -0.04647765962243594
0001f0 b6 58 5f c4 83 09 ac 3f e0 41 8f bf 71 4b af 3f
       0.0547600915157757 0.06112246955274592
000200 3f 19 1e 05 72 43 ae bf 20 13 1c dc ed cf 7a bf
       -0.05910831749410982 -0.006545952930314042
000210 b8 f4 48 4e 4b 40 af 3f 81 dc 22 fc ba ee a0 bf
       0.0610374005377507 -0.033071368482915815
000220 3f 43 e7 d6 7c 12 aa bf 85 6a b4 f2 cb 70 a6 3f
       -0.050922299607583536 0.043829320313496324
000230 8c 78 9a c0 aa 62 90 bf c0 d4 34 ab e8 52 99 3f
       -0.016001384740427713 0.02473033471070063
000240 c1 48 9d 00 9f 75 ae bf 31 bd 02 94 bc ad 88 bf
       -0.059491127800940465 -0.012050126330307083
000250 6e 13 e6 91 d9 a4 9c bf a9 8d 22 a7 c1 fe 92 3f
       -0.0279726023959656 0.01854994375811506
000260 5b 5a 11 a2 60 0f a8 bf ee f0 13 af 7f 43 7e bf
       -0.04699232080809131 -0.0073885905887858105
000270 39 67 29 ff d8 c0 ad bf ea f5 35 21 4b 76 a8 3f
       -0.05811193575637081 0.04777750759511064
000280 76 f0 5d 41 fc 4b 87 3f db e8 71 fb e1 c2 a1 bf
       0.011375399346200004 -0.034689962333645595
000290 48 4b 26 21 d4 0b 9c bf d0 94 7e bd f3 d1 4b 3f
       -0.027388872645654844 0.0008490028512723406
0002a0 18 a6 79 f8 58 13 a4 3f c9 a1 60 2a c0 80 a3 3f
       0.03921011002678315 0.03809166447928509
0002b0 a2 07 2e 2b 64 2e b0 3f 28 89 43 ad af 32 95 3f
       0.06320787481493409 0.020701165151771367
0002c0 98 2b e9 90 55 a3 93 bf ea 81 b5 dc 6b cf 9b bf
       -0.01917775818791831 -0.02715843710518754
0002d0 04 65 f6 7c ad 4a 8e bf 4a 1d 09 4b b1 39 a3 3f
       -0.014790873886158191 0.03754953423463776
0002e0 99 7e 25 63 de be aa bf 47 59 21 ab 0b 17 a2 bf
       -0.052237462618674964 -0.0353320738219503
0002f0 2f 3d 4f f0 f1 ae 9b 3f 16 c1 8e fa ab 3f 77 3f
       0.02703454999192195 0.005675956527668077
000300 96 54 ef fe 3d e9 88 3f c0 35 99 29 d2 91 5a 3f
       0.012163624136443379 0.0016216804855447714
000310 46 50 de ed 7b 5d ab bf 28 d7 47 17 cf 66 a5 3f
       -0.053447602068587716 0.04179999503314341
000320 f8 ea ed 72 1e 11 b2 bf 80 19 c7 6c 19 15 b0 bf
       -0.07057371431248416 -0.06282195001322144
000330 a8 0f e1 35 e3 8e a2 3f 7a de 03 a6 c7 5a a8 3f
       0.03624639542297753 0.047567595496670514
000340 df 86 37 c6 34 72 94 3f ae 2b 0c 71 59 7e 8e 3f
       0.019966911886405533 0.014889429819523983
000350 a0 4d ab 17 2f 74 84 3f 8c 6e 99 28 17 96 95 bf
       0.009987228307557328 -0.021080362179744003
000360 7c f6 6e 3f 71 93 69 bf e4 f2 5c 09 01 6e a9 bf
       -0.0031220638151968055 -0.049667389290766
000370 6a 9f 1f 9b 30 17 96 bf 10 52 2a 98 25 a5 9c 3f
       -0.021572837322224293 0.027973735248979337
000380 44 8c ba 31 b5 bf 9e 3f 80 60 52 23 d6 6b 9b 3f
       0.03002818218250193 0.02677855101191584
000390 12 ac 0e 9c b5 d3 2a bf cf 98 49 3c 6d 0c ae 3f
       -0.0002046736899762041 0.05868855820590257
0003a0 ea 79 6e 88 bf a9 86 bf 8e 4f 08 82 b4 f7 a2 bf
       -0.01106595645051996 -0.03704609000501967
0003b0 6e 3d 0a aa 22 47 b1 bf d6 66 22 43 d1 5b 86 3f
       -0.06749169017188247 0.010917315350798356
0003c0 a8 e5 6f 69 3f 5e 9d bf 5c 05 fc 1c d7 e5 b1 bf
       -0.028679838953370812 -0.06991333444240894
0003d0 3f f4 b7 ce e7 e3 a8 bf 48 ad 62 cd 56 8e 97 bf
       -0.04861378096027424 -0.023003917966588433
0003e0 60 38 ff e5 a6 53 6a 3f f7 dc c2 69 78 22 a5 bf
       0.00321371648167372 -0.041278613004971314
0003f0 47 a6 74 61 1d 44 a2 3f 66 09 9b 43 f1 e2 79 3f
       0.03567592444080652 0.006319944799260879

out.weight f8 [4, 128]
000000 2a 98 5a 47 f5 1a 84 bf c1 06 c9 13 89 1f 78 bf
       -0.009817043533370724 -0.005889449556492899
000010 77 13 de ba 73 96 bb 3f 1c d0 df 1d 76 4a b8 bf
       0.10776446640200087 -0.09488619069435383
000020 a0 95 b3 0a da 2d 99 3f 38 97 d0 81 ce e0 9e 3f
       0.024588972953002775 0.030154444382922224
000030 a4 4a bd 46 a5 91 bb 3f 0e f6 78 90 59 f9 71 3f
       0.10769112565075517 0.004388189182973358
000040 37 09 33 de ba f5 b1 3f 2b 1b 64 a0 3d 7b b3 bf
       0.07015579151906058 -0.07609925428196777
000050 0a ce 85 dc 79 c7 b3 3f f5 a2 08 1e 28 d2 b0 3f
       0.07726251252989172 0.06570673688169022
000060 fb 43 3f 5a 0f 18 a3 bf d5 9b 87 5d a8 4b b1 3f
       -0.03729293800973462 0.06756069453659504
000070 5f 97 8e e9 f5 09 95 bf 60 af ef 0d 9a d1 b3 bf
       -0.020545809154689617 -0.07741701927414857
000080 a8 8f 01 4a be 2b ac bf b3 fa fd d2 90 d3 a6 3f
       -0.05502123502154116 0.04458286834323157
000090 f9 57 47 49 bc 00 a3 bf 9f fd 19 15 7e f3 a6 3f
       -0.03711498636737071 0.04482645042025556
0000a0 f0 7a 80 84 0f 51 93 bf 9a 2f 35 cb 85 71 b2 bf
       -0.018863909208557794 -0.07204471789481062
0000b0 93 55 16 2f c9 a4 b0 bf 16 10 46 c6 74 93 9d bf
       -0.06501443290320301 -0.028882813073792667
0000c0 6c d2 47 90 f6 ba 81 bf b9 f9 85 30 c5 be b0 bf
       -0.008657385137646766 -0.06541092333461664
0000d0 0a 99 d8 43 4c 24 a0 bf 30 29 3e 8a fb 2c 83 bf
       -0.03152693107795031 -0.009363141208969056
0000e0 42 30 6b 09 4a d1 ae 3f 33 a4 e1 f1 af 17 a3 bf
       0.060190499925369526 -0.03729009463933899
0000f0 cf ed 8e 69 e8 20 75 bf d8 7d 3a 2b 03 21 88 3f
       -0.005158336506549912 0.011781716114739035
000100 0c dc ca 48 69 b0 80 3f ae ff ef c2 e3 fa a6 3f
       0.008148977788875932 0.044882886453705736
000110 2d ea 55 92 d9 86 99 3f dd 3a cb a2 cd 2b 7e 3f
       0.02492847400342606 0.007365992799079205
000120 8b b0 55 a1 97 82 b5 bf 03 c2 2e 4e 4c a2 a6 bf
       -0.08402393044315397 -0.04420698599222208
000130 1d 47 90 a6 32 03 b5 3f 45 90 fd f4 fa 0d a9 3f
       0.082080045380533 0.048934786230149054
000140 ee ce a0 98 fc 51 ad 3f b2 c1 d8 89 a8 e0 a0 bf
       0.057266133910529024 -0.03296400721262972
000150 20 6b 01 8a 37 e3 ac bf 61 46 bb 89 8f be b6 3f
       -0.056421027752284525 0.0888452254542016
000160 08 0b e2 52 d6 4a 95 3f 84 76 b9 12 15 f8 b0 bf
       0.020793293770576177 -0.06628543574466944
000170 b0 60 9b 51 89 c0 71 3f 50 50 2c b9 1d f5 8b bf
       0.004334007646058222 -0.013651115621122895
000180 a7 2f 97 d3 46 a1 a3 bf e6 d6 c4 d1 b0 fc a9 bf
       -0.03833981831448279 -0.05075600205092971
000190 14 60 8f 5c 9f 29 71 3f 74 2a a5 be a6 a2 ad bf
       0.004190084940056255 -0.05788155629359873
0001a0 f6 22 bd 6c 00 15 92 bf eb 65 43 1e 3d 32 b3 bf
       -0.01765823997201018 -0.07498533238267384
0001b0 ac c0 03 f8 47 de 98 bf f0 32 af 49 1f f8 96 3f
       -0.024285435211766668 0.02243088614686689
0001c0 76 ba 94 e3 35 6f 92 bf 57 c3 1e 28 bc 0f b1 bf
       -0.01800235940498359 -0.06664634685035985
0001d0 c5 5b 81 e1 9d a8 a8 bf cd 10 7f cf e5 de b2 3f
       -0.0481614434981377 0.07371364894703732
0001e0 0f f6 1c b7 ab 18 50 3f a7 00 58 22 71 dc a9 bf
       0.0009824444682203814 -0.05050996345744468
0001f0 04 fa 82 5a 1a 10 a5 bf 3e a1 61 f4 6b 34 81 3f
       -0.04113848070982232 0.008400767703463981
000200 7b 39 14 d5 ee f2 a4 bf bc d6 81 ec af 91 b1 bf
       -0.04091593123495137 -0.0686292602930178
000210 4d 4c 88 77 c4 e8 b2 bf a3 57 4a 78 b7 df b2 bf
       -0.07386424940368493 -0.07372614561822259
000220 e0 e8 a1 90 58 e0 a1 bf c1 57 a5 65 e3 64 a9 bf
       -0.03491474881680445 -0.049597841413443707
000230 d8 45 cf e3 17 2e b1 bf f4 4d a5 dc 6d d5 94 3f
       -0.06710957824477448 0.020345417587419548
000240 8c 67 b3 5b e8 fd a0 bf 81 cb 86 33 d6 d2 ab bf
       -0.033187161630578194 -0.05434293154703252
000250 41 f1 2c 4a b8 b6 89 bf 2f f3 42 dc a3 13 7c 3f
       -0.012555541766794522 0.0068546677395573815
000260 69 4b c3 da 36 da a3 bf 5f 63 32 43 60 dc 8a 3f
       -0.03877421780057128 0.013115646410641167
000270 e2 3c 66 76 d6 0d a0 bf 5e 3e 89 e9 35 07 ac bf
       -0.03135557360939757 -0.05474251247198646
000280 a5 11 83 f1 78 1c 93 bf e7 f8 db 9e 77 ed b5 3f
       -0.018663301220628665 0.08565471294784609
000290 b0 14 5a a0 23 eb b2 bf 6b 94 ba 90 5e f5 a5 bf
       -0.07390043892708564 -0.04288764492711369
0002a0 f8 d4 db 19 c0 9c 9b 3f 0f 23 ad f9 56 65 55 bf
       0.02696514280156223 -0.0013058995597978217
0002b0 8c 44 ed 1d 33 a5 b1 bf b0 48 8c 5b 02 91 71 bf
       -0.06892699700007848 -0.0042886821836580075
0002c0 5f c8 cb ef de 74 b5 3f 9c f2 49 b6 ab 57 91 3f
       0.08381455759425326 0.016935999871281568
0002d0 5a 6d 2d 16 c1 c4 aa 3f ac 5f 8d fd de 1a a8 3f
       0.052282365758140784 0.047080009890748314
0002e0 a0 7e 61 bd ff 69 91 3f fe 30 10 ba 89 4b a8 3f
       0.01700591653241068 0.04745130916862371
0002f0 15 eb 39 31 d2 3e b0 bf 28 36 d7 4b 52 ff 8d 3f
       -0.06345857335865575 0.01464714330623014
000300 db e4 f8 f9 75 ee 93 3f a0 b2 61 7d 25 f0 77 3f
       0.019464343435377934 0.005844255871221421
000310 36 5d ba bf 7a c4 a4 3f 10 26 e8 c7 08 a6 b0 3f
       0.04056151953153135 0.06503348236596929
000320 50 ee f9 9a 79 68 af bf 61 52 94 55 7a 26 ad bf
       -0.06134395615387389 -0.056934187838270096
000330 3f ba 61 99 cb 52 b0 bf 51 29 53 f4 9c 09 aa bf
       -0.06376335615798555 -0.05085459215622968
000340 0d c9 75 a9 53 7e b4 bf f1 50 a1 e9 95 e9 62 3f
       -0.08005259406289529 0.002308647916871569
000350 d3 32 31 5d 8e cf b1 3f c1 f7 4f 7a be d2 a7 bf
       0.06957330489349127 -0.046529724531850565
000360 6b 52 72 aa 7b 39 ac bf 7c 17 35 c6 c8 29 af bf
       -0.05512606101652725 -0.06086566371463584
000370 a7 c0 10 1a 80 7e aa bf 33 33 be 3a 83 7a b1 bf
       -0.05174637144261967 -0.0682756441512538
000380 e4 22 93 b0 88 f6 90 3f 22 9e 73 00 9a 7e b2 bf
       0.016565452363269353 -0.0722442866423241
000390 09 71 f7 f9 3b e6 b0 bf a2 d0 07 fa 62 13 bd 3f
       -0.06601309635829379 0.11357706646214408
0003a0 e8 7b 4e 6b 3c 55 68 3f 25 18 05 fb 78 9d 78 3f
       0.002970331197914334 0.006009552555331897
0003b0 fc 76 1e 91 13 fb a7 3f 5f 37 6c 65 78 ec 7d 3f
       0.04683743616554456 0.007305593774402513
0003c0 53 58 ca 8c 4e f7 b4 3f c8 f7 f1 a4 8f cb 90 bf
       0.08189860284105181 -0.016401524012046115
0003d0 c1 ed 77 72 53 52 b4 bf ae d6 93 e3 e5 85 b5 bf
       -0.07938119454040928 -0.08407437139598059
0003e0 d9 40 71 6d 60 43 b6 bf 6b 80 37 63 84 23 9b 3f
       -0.08696558639462938 0.026502674632752504
0003f0 7a ab f5 69 d9 f1 82 3f f9 d9 6e 5e 1b 3d 91 bf
       0.009250353380328969 -0.016834666861280188
000400 c2 93 4f cb 59 cb 8c bf f0 d3 a8 89 a2 7b 7f 3f
       -0.014059735791258524 0.00768626681615546
000410 b0 9d 9f 7f 64 b3 af 3f b3 38 5f 7b eb 61 bd bf
       0.06191553171066333 -0.11477538835535732
000420 88 2a 7a 9b fd db a5 bf 20 83 3c 6b 47 ca 75 bf
       -0.04269402048983745 -0.0053198613930199035
000430 9b 40 4a 24 1a c0 ba 3f 59 bb 83 e0 e8 b8 a9 bf
       0.10449374567019946 -0.050238873869480734
000440 e0 d2 44 3d 07 c2 85 bf 9c 58 4a 17 e0 a8 92 bf
       -0.010623985821987814 -0.018222333356412976
000450 3f 6a 08 67 ba 50 c1 3f 37 96 d7 9a 63 5e b2 3f
       0.13527612715627588 0.07175276308370192
000460 68 5a ee cf 70 03 a6 bf c0 42 6d 51 d6 0a 9c bf
       -0.04299500025006325 -0.027385090560815284
000470 eb 14 fa f8 87 10 bb 3f e8 1a b7 6b 4b a7 84 bf
       0.1057209952214923 -0.010084714150150956
000480 49 b1 a4 a7 67 e2 8a bf f6 b6 9d 26 36 0e 53 bf
       -0.013127145579880166 -0.0011630562607609063
000490 f3 14 9d 93 80 c6 b3 bf b8 02 51 b4 3c f4 a9 3f
       -0.07724765399787596 0.050691506396565555
0004a0 b8 8a 93 ee 50 d2 9c bf 37 d9 f0 c5 1d d6 8e 3f
       -0.028146042405647193 0.01505683193509509
0004b0 d0 e0 af 2a 0e 0b 9f bf 80 e9 a8 62 ef ca 83 3f
       -0.030315610270890414 0.009664411733969258
0004c0 a2 ff 35 26 87 1d 7d bf 12 2b a2 dd 3a 47 a0 3f
       -0.007108238150408315 0.03179344134794894
0004d0 93 64 16 19 12 ae 91 bf dd 0e 48 3e 68 f9 87 3f
       -0.01726558950540331 0.011706175232581934
0004e0 f0 5e 43 d6 c8 3e 7c bf aa 1c eb 35 a0 2c a6 3f
       -0.006895813483616328 0.04330921800788563
0004f0 fe 24 e0 68 e5 25 70 3f fe 31 a2 94 5a 4e a9 bf
       0.0039423905673257025 -0.0494259172856779
000500 f2 e4 13 7d 17 93 77 bf ab 10 ac 44 99 8a b0 bf
       -0.005755512001308848 -0.06461484839025171
000510 8f 22 35 68 ef 35 a9 bf e9 8e 7b e2 ef df a8 bf
       -0.04923961779656338 -0.048583504101569926
000520 5c 78 64 9d f0 58 a6 bf 28 c5 06 ca 08 4b 9d bf
       -0.04364730759901711 -0.028606545763698282
000530 d0 a8 d0 83 23 5f 73 bf ba fd 99 d1 44 89 8f 3f
       -0.00472940323838085 0.015398538252383232
000540 46 e8 5c f7 28 29 9c bf 90 78 a4 d7 2f 48 73 bf
       -0.027500763032755303 -0.004707514652436143
000550 32 04 06 9c bd d6 9b bf 4b cc 5b 66 36 fb 93 bf
       -0.027186358116072458 -0.01951298713443021
000560 c0 74 4b 6e 98 ca 8a bf ea b7 0b a4 a9 fb 80 bf
       -0.013081732622078568 -0.008292508429317242
000570 a4 c4 f0 01 ca 46 b0 bf 94 e9 f9 8c 95 79 a7 bf
       -0.06358015582442761 -0.04584948869610908
000580 3c 0a 81 c2 71 77 95 3f ae b7 25 97 d7 1e a3 3f
       0.02096345662745079 0.03734468193111638
000590 4f 80 1c a4 9b 7b 72 bf b6 a4 fb 01 60 e1 9f bf
       -0.004512412999048434 -0.03113317501166498
0005a0 94 d5 6f 3c 7b 7f b4 bf bd d9 73 8f 16 37 af bf
       -0.08007021165379619 -0.06096716405038503
0005b0 85 cd 5e e0 00 0e 99 bf d0 9f d6 38 6a 43 af bf
       -0.024467481321790458 -0.061061210096624685
0005c0 42 9b e7 0c 1d 47 9f 3f 9e 30 16 dc da f5 af 3f
       0.030544713890687143 0.06242259918789837
0005d0 af 28 32 60 47 e3 b2 bf 26 69 47 60 6a 22 aa 3f
       -0.07378049944432762 0.051043819668580334
0005e0 cf 22 ca d4 c2 ce 81 3f 5a d3 74 73 e4 eb 9a bf
       0.008695146673987434 -0.02629048304261814
0005f0 b6 fa 32 bd 01 db a3 3f 73 46 af 35 28 31 aa 3f
       0.03878026423034468 0.051156288674644744
000600 4b 85 41 46 70 88 ae bf f8 42 e1 83 41 80 8a bf
       -0.0596346936952253 -0.012939941250949868
000610 ce a9 b5 95 63 31 a3 3f cd 53 b3 50 44 c2 6f bf
       0.03748618319044149 -0.003876813343234953
000620 9d fc 9a 31 6c 47 ad bf d8 d0 92 5b 9a 48 ba 3f
       -0.057185536437367214 0.10267033324891217
000630 58 36 8c 91 4b de 8d 3f c0 69 bf d1 10 e1 b0 3f
       0.014584150676024851 0.06593423004907262
000640 60 31 8a c3 f6 3e 71 bf 63 58 a0 82 e3 ef a2 3f
       -0.004210437699509434 0.03698645562705918
000650 50 e2 18 8e 14 31 87 bf c8 75 35 6e 8c 6d 7b bf
       -0.011324081980192663 -0.006696270519879595
000660 38 95 23 df ca 1d aa bf d4 eb b2 f5 52 cf 90 bf
       -0.051008548487326555 -0.016415878530761166
000670 70 e6 e3 9e cf 51 9a bf b2 db 93 04 f3 ef a6 3f
       -0.02570270926751167 0.044799417790208365
000680 fb b2 7a 83 5e fa b5 3f 69 59 dd 75 91 9e b4 3f
       0.08585158071464243 0.08054455878786872
000690 96 04 23 20 19 19 a6 3f a5 75 ad a7 aa 0d 98 bf
       0.043160233662555544 -0.023489634021975587
0006a0 e0 52 e0 42 f6 ee 95 bf ff 50 b7 2e db 7f 70 3f
       -0.021419380027583368 0.004028183156567388
0006b0 4b 0b d7 54 b0 de 97 3f 5c da 86 3a 9c e1 a1 3f
       0.023310427835677754 0.034924394745236426
0006c0 d7 3f 15 e5 04 fa b0 bf 15 0e e5 20 bd d2 a3 3f
       -0.06631498902174769 0.03871718431994623
0006d0 b7 4c 67 b0 b2 4f b5 bf 62 0d 75 5d f7 d3 87 3f
       -0.0832473450348513 0.011634762324894413
0006e0 f2 54 28 69 0f e5 b2 bf 19 8f 71 fc 45 70 a0 3f
       -0.07380768124888329 0.032106577936046495
0006f0 66 bc 04 25 1e 84 9a bf 53 e9 4b 30 12 12 8b 3f
       -0.025894614228658595 0.013218061541455361
000700 f4 e5 47 e1 78 d0 84 bf b0 66 3a 03 f0 64 7c 3f
       -0.010163254141832369 0.006932199048287721
000710 9b ed 22 f3 c3 78 a3 bf b0 a2 bf b4 3b d9 b2 3f
       -0.03803074210142229 0.07362721598441158
000720 6e b0 c3 06 0f 39 ac 3f f1 00 3f 21 68 67 88 3f
       0.05512282331059813 0.011915982737150861
000730 40 b0 34 33 3e 58 b6 bf 61 48 74 e4 51 c6 9d 3f
       -0.08728398084775879 0.02907684285043677
000740 ec a5 71 aa af fd a3 3f 7d a8 8c 51 82 ea b0 3f
       0.039044847065109994 0.06607832423165579
000750 20 1c 62 7b 90 fc a3 bf 3b 66 71 8f f5 f3 b4 3f
       -0.03903628831999861 0.08184752227807561
000760 aa e6 3a 8a be bb 9f 3f 76 6b 93 32 7a 91 a2 bf
       0.030989625155348456 -0.03626615397816739
000770 f4 1f 99 4d 62 25 96 bf dc dd 9d bb 1f f6 b5 3f
       -0.021626983629431565 0.08578680353627227
000780 a2 ae ed 32 ed a5 a4 3f 60 3e b2 cd cd c3 60 bf
       0.04032841917691356 -0.002046491584742502
000790 b2 3e 69 4f 8f 5d b4 bf a3 17 2d 5e c3 09 c3 3f
       -0.07955260933635591 0.14873544786877088
0007a0 6e 6b b5 8b da 2a 83 3f bf 57 66 f9 84 0a 9f bf
       0.009359080685205714 -0.030313565942911454
0007b0 e2 97 79 4a 39 be b4 bf b1 2b 52 76 f3 40 7a bf
       -0.08102758472668328 -0.006409598373589385
0007c0 9e 8f f2 19 41 e6 a5 3f b5 07 92 cc 52 1d b0 3f
       0.04277232591382972 0.062947440093949
0007d0 91 00 7c 54 e4 1c a6 3f 88 10 86 dc 1f 5d 8e 3f
       0.043189177811656106 0.014826058308934145
0007e0 b4 33 87 8f f2 11 a8 bf 47 72 d6 f0 40 df 8f 3f
       -0.04701192857792283 0.015562541341574433
0007f0 80 a0 82 60 bc 5b 9a 3f 81 ff bb 42 16 16 83 3f
       0.025740569487112896 0.009319471274920723

out.bias f8 [4]
000000 bb 63 30 af dd 52 c7 3f bb 56 0c 65 38 13 b8 3f
       0.18221636823798612 0.094043278379412
000010 19 08 ba 42 9e 6b bf 3f a2 e1 c7 d0 55 3a c1 3f
       0.12273587349957928 0.13459274954199169
