pygame_env/code/rlhf_dqn/dqn/model.pt (torch, 255379 bytes, 4 tensors)

fc1.weight f8 [128, 243]
0	0xbf9440c64a80496a	-0.019778345391452325
1	0x3f606f1699287fe0	0.0020060960171264103
2	0xbfa0a565ecdb9070	-0.0325118877060796
3	0xbfad717616870d9d	-0.05750626587862515
4	0xbf0102cf69a5b800	-3.244586442262276e-05
5	0xbfacd8c0715c8bc5	-0.05634118446166484
6	0x3f2f89cb9388f000	0.00024061784803730557
7	0x3fb04d0f6c7be7e8	0.06367584608588539
8	0x3fa30296c67c8746	0.03712912724428334
9	0xbfac6f6305a87d22	-0.055537313881581576
10	0x3faea7c8e74b6a08	0.05987384627743003
11	0xbfaf705235b715ba	-0.06140381723120521
12	0xbfa6d15286f92880	-0.0445657529604242
13	0x3fa7e6ae49b3192e	0.046681829926045956
14	0x3f962bb3ad92253c	0.02165108439343054
15	0xbfa2bcf7b8c6ea0a	-0.03659795885637969
16	0x3fa09f0071e8d36a	0.03246308699127705
17	0xbfa01b3a113adb83	-0.031457724192867985
18	0xbfab9baf4bc06cc0	-0.053922155377415404
19	0xbf98443ffd371968	-0.02369785292628404
20	0x3fb021051443eb6c	0.06300384278067178
21	0x3f742f8e4d0361c0	0.004928165304783183
22	0x3f9300769025ce24	0.01855645422751996
23	0x3f539a09c8ee08c0	0.0011963935428132427
24	0x3fa84c635d67b120	0.047457795288069926
25	0x3f90609c6ba4db0c	0.015993541784349793
26	0xbfa7ea9182cc47b8	-0.04671148988394641
27	0xbf966f70572b0ff2	-0.021909480400395816
28	0xbf939dd669f7c5e4	-0.019156789987340064
29	0xbf8444964eadd49c	-0.009896444583981805
30	0x3f79ce55ad9d8430	0.0063002917102901596
31	0x3fa46f94d33572d6	0.039913798124620634
32	0xbf9b556278415608	-0.02669290408115013
33	0x3f9284d4def08860	0.018084837062027126
34	0xbfa254703f3d4daa	-0.035800464362775244
35	0xbf9ee61dc2706e0a	-0.030174698822618175
36	0x3f97e85b354048a8	0.023347306370916115
37	0x3f93cbab02b9766c	0.019331619302070654
38	0xbfac2a290b3279e2	-0.05500915776905281
39	0x3fab84c867b11fc0	0.05374742761392737
40	0x3f90179e439a31b8	0.01571509635555099
41	0x3fab5741319c0b9c	0.05340007525048593
42	0xbfa3aa8b9e6a9944	-0.03841053303522071
43	0x3f73b36b30070600	0.004809778882589821
44	0x3f6cab185fe0f540	0.0034995533051459804
45	0xbfab3bdc1fd0e388	-0.053191069492135645
46	0x3fa68c64f024f850	0.044039873423103004
47	0x3f9ad022967a1d0c	0.026184597429645115
48	0x3fad21b3e8b51c7a	0.056897756725953166
49	0x3f820d820b77a410	0.00881482694144789
50	0xbf8db561a565df04	-0.014506113872570399
51	0xbf9a8997aa4d430c	-0.025915498513600574
52	0x3fa1563594b85226	0.033860849766061116
53	0xbf8390ed9f2f668c	-0.009553772373624335
54	0xbf95c559889896a6	-0.021260642015610863
55	0xbfa8bb29af4bd308	-0.04830293907972388
56	0xbfa323a67baa8628	-0.03738136539074005
57	0x3fa180493580a4f6	0.03418186929804705
58	0xbf912124fdf1d566	-0.016727998733093406
59	0xbf8bf968484d1200	-0.013659300524190066
60	0x3f23b8079f79ea00	0.0001504430108417304
61	0x3fada4119272da96	0.05789236939147206
62	0xbfabebbbd51a5c8b	-0.05453288055758162
63	0x3fae256d74aab8c2	0.058879299632609086
64	0x3fa25c2a080143c0	0.03585940692631295
65	0x3fa93c3d5eb57cce	0.04928771763911187
66	0xbfaec5460dd560ed	-0.06009882849565593
67	0x3fa532de75697210	0.04140372451067631
68	0xbfaf4438e969940c	-0.06106736993096015
69	0xbfaa3ad7eda9a051	-0.05123019004969421
70	0x3f8dd49e1384ebc0	0.0145656919199747
71	0x3f6729eddf383660	0.0028276105820228964
72	0xbfa79f33b5ee1d40	-0.0461364898283656
73	0x3fa548c3026d9352	0.0415707531417754
74	0xbfaea6de33f5623c	-0.05986685165652658
75	0x3fa33ba2c55d4798	0.037564360229807636
76	0x3f70b06b60128140	0.004074496683785178
77	0x3f9d3f3280419c24	0.028561390951292634
78	0x3f9e8e510d7fd20c	0.02983976979153806
79	0x3f8b30f67c6a62e0	0.013276982948171534
80	0x3f9703990897fe28	0.022474661969679982
81	0xbf748f51997b1a38	-0.005019491909200861
82	0xbf988f36d363b790	-0.023983818676178326
83	0xbfadc059a92add76	-0.058108140850374676
84	0xbf33e378be61b700	-0.00030347535937989834
85	0xbfaa492f4aae3971	-0.05133960520389536
86	0x3f984e025284c8a8	0.023735080992260876
87	0xbfa2d469a5cfd4c3	-0.03677683018751445
88	0x3f880412ddabe370	0.011726519956469977
89	0xbf9aa4d5e46dbf02	-0.026019422595196857
90	0xbfaef7e0ba37de7a	-0.060484907848089756
91	0xbfa554ebb45b0d72	-0.04166351868254993
92	0xbf9731373ce14a06	-0.022648680773565764
93	0xbf952673ae998bbe	-0.02065449479267633
94	0x3f80a30dbc8c28a0	0.008123500172150522
95	0xbfae364e88559372	-0.05900807775723295
96	0xbfa93124551cdd7d	-0.04920304812406593
97	0x3fa6216adf4895ee	0.04322370505932925
98	0x3fa45831eaaac75e	0.0397353743513935
99	0xbf908bcd5516854a	-0.016158302610738397
100	0x3fa92d01c4226a68	0.04917150038928214
101	0xbfaf17f8bc7bf12c	-0.06072976399261373
102	0x3f9f529925100ce4	0.03058852471077679
103	0x3fae8500806b2424	0.05960847442253961
104	0x3fa3c1b7b6ecda32	0.03858732326482474
105	0xbfb02c327dc3aec5	-0.0631743962327916
106	0x3fb02a70e52a31b0	0.06314759821743254
107	0x3f894616644fec18	0.01234071248653916
108	0xbfb01aadbe884893	-0.06290708448094255
109	0xbf764660e0d81aa0	-0.005438211851930191
110	0x3fb04f232a9edc40	0.06370754042187432
111	0x3fa87353a79c25f2	0.047754873476218665
112	0x3f8f03d209449c08	0.015144005687558262
113	0x3f9ba12f22561690	0.026982056112976383
114	0xbfa2739d38e6f722	-0.03603831595999753
115	0xbf85d49c90ed1a90	-0.010659430668636533
116	0xbf842d5257460d78	-0.00985206917608282
117	0xbfa127e01315bf2a	-0.03350734932871398
118	0x3fa980f9cbcad07e	0.04981213200281419
119	0xbfa38de1cdf1ff84	-0.038191849126632454
120	0xbf8b45316bd904a8	-0.013315569022895282
121	0xbf9a30a119c9397c	-0.025576131056646897
122	0xbf82682703e0d604	-0.008987717443328165
123	0xbfa89a56bf554c9a	-0.04805251203165391
124	0x3f6a6bc784006740	0.0032252213277502995
125	0xbfa99e64fb89d59a	-0.05003657885110187
126	0x3f463102641e5b00	0.0006772290873751918
127	0x3fa1128571d9be50	0.03334443106438967
128	0xbf9f0c98fb74b0e8	-0.030321493480344325
129	0x3f7f669047bba6e0	0.00766617164092917
130	0x3fa3952467026478	0.03824723966062832
131	0x3fadde1794f37e08	0.05833505337954753
132	0x3fae95cb4761df36	0.0597365879665958
133	0xbfa6d97033cfae16	-0.044627672505012025
134	0x3fa455925073892a	0.0397153590399902
135	0x3f9fad5034176154	0.03093457525196304
136	0x3face7380f6c7342	0.05645156086231974
137	0x3faa82ae75bc99ec	0.051778270599516535
138	0xbfa5160a8dc8b4f9	-0.0411837862087427
139	0x3fab75ed7909021c	0.05363409140091255
140	0x3f8e58f009af6158	0.014818072600903662
141	0xbfa976d3c0e98572	-0.049734704302646274
142	0xbf8fb6b934aac658	-0.015485236091396334
143	0x3fa4d1e8819012dc	0.04066397267891883
144	0x3f9a857025d38f44	0.02589965086816838
145	0xbfa9a14eaedcaa2a	-0.05005880245729018
146	0xbfa03adceac6d17d	-0.0316990887253352
147	0x3f8c90380c476220	0.013946950792999735
148	0x3fa34b6c5e5637f2	0.037684809222909524
149	0x3f86b5dc5da747b0	0.011089059455944156
150	0xbf63247735f1cac0	-0.0023367241224659663
151	0xbf764b70e9cbbd18	-0.005443039958421346
152	0x3fab8be86c802868	0.05380178760977189
153	0xbfa7f03f75e73888	-0.046754820959550136
154	0x3f6c7ed9a7e800a0	0.0034784556476098044
155	0x3f935449a76fb5f8	0.018876219601159122
156	0xbf544ea13e630240	-0.0012394499440661205
157	0x3f51ff1aad275a00	0.0010984192382373914
158	0x3fab667fd4b3ac06	0.053516382898884315
159	0xbf9cf67c617badec	-0.02828401894559633
160	0x3f9a743f24433050	0.02583407076672045
161	0x3fab4c9070a65348	0.05331851363295087
162	0xbf45263746d7d700	-0.0006454248338616242
163	0x3fa6039f8f3fd994	0.042996393429279994
164	0xbfaffecf6f653ed1	-0.06249092325981354
165	0x3fa9ef1d79360b62	0.05065242867114851
166	0x3fadf2c1982b7842	0.05849270803968
167	0x3f92f3e3946c3278	0.018508487638472876
168	0xbfa4289bbef51b96	-0.03937231737159334
169	0xbfa510b6b2d483c9	-0.04114314015374238
170	0x3fa08080e7cf5bde	0.03223040418350086
171	0x3fae0509c3ff5d3c	0.05863218801067169
172	0xbfa748acfc5ddc77	-0.04547634678504491
173	0x3fa0a25876967b18	0.032488598323871354
174	0xbf6c57be27dd7690	-0.0034598077753987336
175	0xbfabf0aad2fb74c2	-0.05457052064387248
176	0xbfabdf0e5983ed94	-0.05443615763393975
177	0xbf68a7fd805e14b0	-0.0030097914886391894
178	0x3f9a147192de1b00	0.025468611325346835
179	0xbfa69694d8038a54	-0.044117595070720356
180	0xbf9097a040d588a6	-0.01620340724674265
181	0xbfa8e17bb1573848	-0.048595300100359895
182	0xbf58859cc3d5aec0	-0.0014966994197846278
183	0xbfab595f2025043f	-0.053416226076031574
184	0x3fa7d909b99089f6	0.046577743436745964
185	0x3f98358f7f4f4644	0.02364181723152671
186	0x3faeeafb0c5b545a	0.06038651014174752
187	0xbfa27d41702d84cc	-0.03611187452657702
188	0x3f91278fde6b3668	0.016752479505888124
189	0x3f847bd3921c8298	0.010001805206742362
190	0xbf8fccf3ca1c3038	-0.0155276342443572
191	0x3fa2e931030c9ef8	0.036935359594563566
192	0xbfa35eb5a1c9f89a	-0.03783195114100231
193	0xbfafde2dd84eed69	-0.06224196687204648
194	0xbfa258cb233f0a02	-0.03583369069339783
195	0xbf9699c1e5fe110a	-0.022070912993073434
196	0x3fa5ce5884322e0c	0.04258991826744926
197	0xbf98a5662098149c	-0.02406844686449415
198	0xbf76ece89cc94080	-0.005597027437559743
199	0x3f84e69aed6519d0	0.010205469484060453
200	0x3f918b3a16a07f50	0.017132671004332523
201	0xbf9dd48d2731f6dc	-0.029131131665500173
202	0xbf9b62e1e2cac80e	-0.0267443937943384
203	0x3faca262615884dc	0.055926393874196484
204	0xbf965c9cf407d37a	-0.021837665934032448
205	0x3f9a2c09272ed8e8	0.02555860807088886
206	0xbfa7d3289586b40e	-0.046532886746128196
207	0x3f507a2b915f5a80	0.001005690142383081
208	0x3faf705f370237b8	0.061404204811978
209	0x3f561ecf995137c0	0.0013501193364109237
210	0xbfb006b94856329b	-0.06260259643586112
211	0xbf81ac238e2ea600	-0.00862911012321188
212	0xbfa01e87de44494b	-0.0314829310247143
213	0x3faa161197b0d178	0.05094962097828931
214	0xbfac829eda72c17d	-0.055684055486724816
215	0xbfa707b45e1c8c8c	-0.044980656135771374
216	0xbfa7c0ab5891a515	-0.04639182525790823
217	0xbfa2b33d8404ca2c	-0.03652374493176
218	0x3f9bb2243a8dbfa4	0.02704674346335846
219	0x3fa255776c432624	0.03580830761491097
220	0xbfa670bb199a77d8	-0.04382881820241352
221	0x3fb04acaadcb7710	0.0636412309936214
222	0x3fa6547fd79410e8	0.04361342913219507
223	0xbfaecf999fb71767	-0.060177613016590574
224	0x3f88d0bff6838b40	0.01211690875101612
225	0x3fac4400dae330e8	0.05520632430997968
226	0xbfae8779ae44d59b	-0.05962734463029592
227	0x3fa708dc68f7ec84	0.044989478887111495
228	0x3fa8108a4d21164e	0.047001192012015566
229	0xbfa8d42122017d63	-0.048493419076062215
230	0x3f956f752bbf7878	0.020932989878808844
231	0xbfa7f49ef8d68042	-0.046788185001105834
232	0x3f76311df0108270	0.005417935318320674
233	0xbfa9049ab3d2a585	-0.04886325306990628
234	0x3f78bafde464b6d0	0.00603770424485868
235	0xbfa84b438c383f50	-0.0474492176691671
236	0xbfaf39434a88c3a8	-0.060983755920808236
237	0xbf8c24bfe0b08c00	-0.01374196915100434
238	0x3faf83123100f698	0.061546867830185537
239	0xbfb03afcf663625c	-0.06340008750283616
240	0x3f814d37cff7f570	0.008448062929341943
241	0xbfabc6c0195529a4	-0.05425072011219648
242	0x3fa1a546d1244992	0.03446408560752724
243	0xbf8c47f436a87c20	-0.013809116285356693
244	0x3fafc84e36b48420	0.06207508485591284
245	0x3fa3c43163640c44	0.03860620821253538
246	0xbfa8d7d43be83c24	-0.048521644890677146
247	0xbf66f9b224e1aa00	-0.0028046111465773738
248	0x3fa590c8fe3a5bf4	0.04212024787300797
249	0xbfa03136012608a0	-0.03162544979115123
250	0xbf9bfb6e0137aa32	-0.027326315712267575
251	0x3f941cc2336c0ddc	0.01964095534186848
252	0xbf99d7fbf732392c	-0.02523797699228074
253	0xbf9071b85bee10ae	-0.016058807955702185
254	0xbf980e61a95500c4	-0.02349236103077669
255	0xbf9d89cb4ba3283c	-0.02884595536378519

fc1.bias f8 [128]
0	0x3fa6afa51c3fb3c2	0.04430881471476013
1	0xbfaa2196fb916058	-0.05103751965424469
2	0xbfa76ef94aec35f4	-0.045768537898862066
3	0xbf89a96ba5de62e5	-0.012530175208483605
4	0xbfab9527a33f0cc6	-0.0538723360800986
5	0x3f77f5606eb0cda0	0.005849243821148958
6	0xbfa3a06e3614b8eb	-0.03833336267631345
7	0x3fa47d071363981a	0.04001638518984425
8	0xbfa75109e004cf2a	-0.045540150257151815
9	0xbf791321b58a5560	-0.006121761013351573
10	0xbfa3d5a889fc2d80	-0.03873945888889363
11	0x3fa3c8a578f87dc8	0.038640185372283364
12	0xbfaeb4fefc3f2b65	-0.05997464017089874
13	0x3fa553bd5ae5f26a	0.041654507966971746
14	0x3f6b7fed0156bcbc	0.003356898213233343
15	0xbfa45be8e94e188f	-0.0397637162014216
16	0x3f70eb73dc1b9c42	0.004130795075730611
17	0x3f9e9209faf3f000	0.02985396951861219
18	0xbf7cfad102fec223	-0.007075134708359107
19	0x3fafe77b54be2f90	0.062312940687745955
20	0x3faec93cb3b7e8cb	0.06012906736209941
21	0xbf91c51a87fac142	-0.017353453206568455
22	0x3fab617350fea909	0.053477862965637675
23	0x3fa1907ccd8d7ace	0.03430547722995457
24	0xbfa0444f11523f05	-0.03177115522805533
25	0xbfa369a42b4b112e	-0.03791535404664824
26	0xbfa04d0505cb6772	-0.031837613065092266
27	0x3fad1243c70a0c4d	0.05677997402838084
28	0xbf82561cdb1a9414	-0.008953309475439077
29	0x3fa41f0ced1cb290	0.03929939646181879
30	0xbfadc01418321404	-0.0581060676131884
31	0xbfac66b88eed19c6	-0.05547119850830344
32	0xbfa71656e17c8be4	-0.04509231092949742
33	0x3f82982d400e8c25	0.009079316632613363
34	0x3fac48388038d3d4	0.05523850026330704
35	0xbfa4264851e28048	-0.03935457229204126
36	0x3fae84794498fea0	0.0596044441449497
37	0x3fa85d434f279923	0.04758653966182382
38	0x3faf690e7e684508	0.06134839337404158
39	0xbfaeff4ee762fe94	-0.060541597123571794
40	0xbf49d2f410053aa1	-0.000788087054425752
41	0xbf96dafd7098338a	-0.02231975555155289
42	0xbf7344366347dd5e	-0.004703724338916386
43	0xbf9d011818af013e	-0.028324486261909636
44	0xbf8441e3a35aa4b0	-0.00989129869715763
45	0xbfa33a00e6418c4f	-0.037551906688144336
46	0x3fab39723c3e17d2	0.053172654966189406
47	0xbf74d92407a0ba10	-0.005089894048110569
48	0xbf978c87f4b4227a	-0.022997021017575815
49	0x3fafe95adc0a1e36	0.06232723175076808
50	0xbfa77b7453616284	-0.045863757303497926
51	0x3fa7b6275827c631	0.046311597357896146
52	0x3f9bae95deb5adfa	0.027033178060646514
53	0xbfaa0ba841121d5d	-0.050870187705238414
54	0x3fac86481c1179ed	0.055711987901975714
55	0xbfad98cad4143882	-0.05780633772711587
56	0xbfa907f90876bd0e	-0.04888895252531188
57	0xbf8a758946a75e81	-0.012919495075876643
58	0x3f9e5881348ffbb4	0.029634493668705367
59	0x3f9385dc06227719	0.019065320848873222
60	0xbf61b0c9a388770e	-0.0021594942338784067
61	0xbf930be1627c42fe	-0.018600007663795097
62	0x3f86b57bb51c80ad	0.011088339294986172
63	0xbfa568634a573ca0	-0.04181204111557091
64	0xbfac15efb0908da3	-0.05485486059503877
65	0xbfb19f37a2d43f2a	-0.0688357136280017
66	0x3faa928dcada5487	0.05189936734419925
67	0xbfa74d0424c77c7d	-0.045509461869863245
68	0x3f763d60c2dbe230	0.00542962834673992
69	0xbf8e7953c097e778	-0.01487985068796481
70	0xbf9a97e76ad991c6	-0.02597009267482677
71	0xbf9a307f9e121fd0	-0.025575632117153024
72	0x3f810d7183d33dcb	0.008326422534451169
73	0xbfac11eef750ebd5	-0.05482432145114272
74	0xbfa8e7cd9809b9a2	-0.04864351731235962
75	0x3f76bf8fe6405eed	0.005553781611545833
76	0xbfb005c3f071ac8d	-0.0625879728337841
77	0xbfaac2072899207d	-0.05226156588156614
78	0x3f9c5ad8393d7f8c	0.027690294736543872
79	0x3fae84c59f8bff8c	0.05960671970933537
80	0xbfa413802524843a	-0.03921127751733207
81	0xbf91ca3769aada6b	-0.017372957062173826
82	0xbf6e1531572fe540	-0.0036722148593041626
83	0xbf8bc386f23d7ef4	-0.013556532161316671
84	0xbf944efb3d9533a3	-0.019832540162770262
85	0xbfaa61ea9155b5c7	-0.05152829193216806
86	0xbf9dafc9decd8411	-0.028990892623713963
87	0x3fa66a0fe5405ec3	0.043777939543529175
88	0xbfa9930a842e76ee	-0.04994995940726975
89	0x3f76a446da6cdb24	0.005527760286716785
90	0x3f9a7de24ba22ac2	0.025870834223080015
91	0xbf8c4aee5dba1e47	-0.013814794764825623
92	0x3fa99509644a27ed	0.04996518468131215
93	0xbfa67b13c0b4339d	-0.043907754205157114
94	0x3fa2d640ae77d294	0.03679086808907531
95	0xbf9bf974706a7266	-0.02731878219730035
96	0x3f987941423fe0df	0.023900050800848113
97	0x3f9dc0586a3496c3	0.02905405185915445
98	0xbf63362878d52c0e	-0.002345160529022567
99	0xbf5287ce6c46cd91	-0.001131011567036964
100	0x3f61dda1662c7851	0.0021808769537435065
101	0xbf651ba4003de4c4	-0.0025766566413350806
102	0x3f9ecdae79dee415	0.03008148783530736
103	0xbfa73a89cfea925d	-0.045368487005622106
104	0x3faaab893061880e	0.05208996501529849
105	0xbfb06dd38551e3cc	-0.06417581562881408
106	0xbf995044e0609e59	-0.02472026462069574
107	0x3fa4d25b01a193fe	0.04066738505279231
108	0x3fa1b82f28cc1392	0.03460833905231832
109	0x3f919170de86ff98	0.017156375486365144
110	0x3f909776c149d214	0.01620278887499367
111	0xbfad883e6da3a996	-0.05768008316393318
112	0x3fab6d4c1c7a59ec	0.053568247295675636
113	0xbf964995f227d2f6	-0.021765082268717394
114	0xbfa2cca1a6b5cb3f	-0.03671746406589315
115	0xbf814696121cc898	-0.008435413768527675
116	0xbf971d39ff20edee	-0.02257242793733199
117	0xbfaed23ade789c13	-0.06019767728530936
118	0x3f96ec6eb39061a4	0.02238629313441866
119	0xbfa3546f4acbf194	-0.03775356090588669
120	0x3f8155bc7102776d	0.008464309881954535
121	0x3f821525b64f72f3	0.0088293977987006
122	0x3f99b71c64a33845	0.02511257519000078
123	0xbfb05d9ec3e6bd31	-0.06392853052851845
124	0x3faca221a96f4732	0.05592446511549411
125	0x3fa0ad533650567c	0.03257236516962522
126	0xbfa7ffca0a399953	-0.04687339186493724
127	0xbfa8b123459180e1	-0.048226454012139326

out.weight f8 [4, 128]
0	0x3f73129f5f7d5bb0	0.004656431723410501
1	0xbf64c07779071c7d	-0.0025331815197407446
2	0xbfa1ff1e5b9b9791	-0.03514952533968974
3	0x3fac256144a5b340	0.054972686414521466
4	0x3fa98ee98b4ac9b6	0.04991845918029318
5	0x3fa1e8db1f37e734	0.034979674874149685
6	0xbfae32b831e1c6a6	-0.05898070916090363
7	0x3f7f181ada773d60	0.007591347595237025
8	0xbfb3239e01c153c2	-0.0747622255597227
9	0xbfacfc4dd43556a3	-0.05661242690500259
10	0xbf729b31c99c0222	-0.004542536242070601
11	0xbfb16647318db4f5	-0.06796688995173723
12	0x3f7e72113410e42a	0.0074330017096651355
13	0xbf6834c844cc9440	-0.0029548560618360142
14	0xbfa62f4f34d83e28	-0.04332969207836995
15	0xbf9ed91c9fa2998f	-0.03012509083114306
16	0x3fb62a4203e6cc2d	0.08658230395558127
17	0x3fad20fc6d5b60ca	0.05689228854106572
18	0x3fb8553ccc7b7204	0.09505062095872324
19	0x3fa132699fe982a2	0.03358774258663756
20	0x3fa6bb772c48cd6e	0.04439899840908877
21	0x3f79d5716c8078e1	0.0063070707911079
22	0x3f7284d53e9619c2	0.004521210657350174
23	0xbfb44496eee8600d	-0.07917159397800351
24	0x3fb2567d2313e091	0.07163221460712267
25	0xbf7fe615235ce2f0	-0.007787783213466723
26	0xbfb86a53a27087b0	-0.0953724166470511
27	0x3fb43ba95c0d8a51	0.07903536317238859
28	0x3fa4ad595bc47d1e	0.040385048343745775
29	0xbfb12c5f2c9a26d2	-0.06708330954475208
30	0xbfa7c6890b4b95ce	-0.04643657935029531
31	0xbf98b62c86a5b23f	-0.024132438390937812
32	0xbfa0cc9bda8bb161	-0.03281104128641022
33	0x3fac3403a01a74e1	0.055084336561074705
34	0x3fac4a445b388f2e	0.05525411237274934
35	0xbf9092086b4ea8b0	-0.01618207125617549
36	0x3f5c16163a109b40	0.0017142502840756385
37	0x3fba9d3a3cb28b37	0.10396160108443274
38	0x3fb116d60a7d3e83	0.0667547011955723
39	0x3fa35096dc65f06e	0.03772422256858553
40	0xbfb2f294bd52bee2	-0.07401399252080013
41	0x3fb5b845aedd810d	0.08484302062197831
42	0xbf8a43879aaa082f	-0.01282411518809931
43	0xbfacd5fa5d95ce1f	-0.056320022510501604
44	0xbf9883803c37d5f0	-0.02393913619558491
45	0x3fb055d80191ffde	0.06380987203920038
46	0x3fb18f2c536027c3	0.0685908988527038
47	0xbfad6651c0a48026	-0.0574212596568489
48	0xbfa587156f5ffae0	-0.042046232076236256
49	0xbfa0c123644c61b9	-0.03272352790208139
50	0xbfb7d2d78676cec1	-0.09306094200911287
51	0x3fb0259619c4e336	0.06307352189186308
52	0xbfa81e8aa993510b	-0.04710801429760821
53	0x3fa79146eb8580e2	0.04603025078790936
54	0x3fb08c7557fb159d	0.06464322469681467
55	0x3fb354eef789f54b	0.07551473182134776
56	0x3fb7717975fedd2b	0.09157523279906303
57	0xbfa6e5f03b973a5f	-0.04472304084230382
58	0xbfb7a7c56197900d	-0.09240373261087616
59	0x3fa35b1093eb317d	0.0378041439595078
60	0x3f7517903966db7b	0.0051494249113862535
61	0xbfa0260485415af9	-0.03154005171443503
62	0x3fbabdf73c37df7c	0.10446114750072683
63	0x3fa31c799a573a7e	0.037326622095510395
64	0x3fc04360879e1b93	0.12705618497804191
65	0x3fbbe0d1673695a1	0.10889920015195866
66	0x3fb2d32323b32707	0.07353419896676537
67	0x3fb6c406ef0ce106	0.08892863594235587
68	0x3fb1aa82e1663c87	0.06900804522432412
69	0xbf9b69919a797728	-0.02676990037286156
70	0x3fb3218ebaaf3d27	0.07473079736449915
71	0xbfb2f9cb3c5e2946	-0.07412405227492966
72	0x3f95efa756be9d3f	0.021422018689603247
73	0x3fa0b52ea24f8995	0.032632310212437655
74	0x3fb3d60ea5067a93	0.0774850037473505
75	0xbf971e7256dcdd63	-0.022577082206422527
76	0xbfa9e29821d1f6be	-0.05055690205425155
77	0xbfb4f62b278bbf57	-0.08188123431659498
78	0x3f9411fca5a9f64c	0.019599864589045432
79	0x3fb400363d0a6030	0.07812823286292381
80	0xbfb11e9901512e24	-0.06687313348918927
81	0xbf8cc6729fd9150d	-0.01405038404767336
82	0x3fb4d851ea5986bb	0.08142578097752111
83	0x3fa5814e5478527a	0.042002151309280714
84	0x3fab5913be7e38d8	0.053413979533716904
85	0x3fa5867699a3d262	0.04204149842727102
86	0x3fa2f0c2322c07ba	0.03699309217883191
87	0x3f847ebdbf11d400	0.010007364648325634
88	0xbf770e3404bbd860	-0.005628779599410633
89	0x3f9db31e43b2dac2	0.029003594285962782
90	0xbf9e38ba045ee69d	-0.02951326991726565
91	0x3f808bea45f951f6	0.00807936693232934
92	0xbfa420f1886335ba	-0.03931383886229463
93	0x3f69299a1f4249c0	0.0030715952107780164
94	0x3f8d2b62b4502181	0.014242907645908744
95	0x3f9ff5c7ee991740	0.03121101754938782
96	0x3f9ce74e8fe0597c	0.028226115733639187
97	0xbf9930b773abc9e1	-0.024599901614189682
98	0x3fb0bed2d39eb565	0.06541173616888825
99	0xbf9c4a88a04fcd76	-0.027628073486949366
100	0x3fb6a6d4288f94c4	0.08848310461287939
101	0x3fb60b00d1e9afce	0.08610539555382887
102	0x3f9339063f27e3d5	0.018772218327260354
103	0x3f9c832b8141ea10	0.027844123615503646
104	0xbfaf7a007b5656ca	-0.061477675491159525
105	0xbfa1354f5ed7d65d	-0.033609848334816596
106	0xbfa1edef8fac756d	-0.035018430984773065
107	0x3fa75e1be0d9e4d3	0.045639868924760706
108	0xbf5052494d46d28b	-0.0009961810911650905
109	0xbfa98bffd9394453	-0.049896235720219416
110	0xbfaa6ef5568dfb0b	-0.05162779504370548
111	0xbfaf867cc19c1ef3	-0.06157293189431625
112	0xbfad333fbd7aa718	-0.057031623725675995
113	0x3f8036fa25d8bc00	0.007917360572802679
114	0xbfa4d2b778fca1ec	-0.04067014076128203
115	0xbfad168df9ecef4f	-0.05681270290230477
116	0x3f9756f2799fc7f9	0.022792614625309657
117	0xbfb08f2f1082b6f1	-0.06468481209841649
118	0xbf84372f2f8f4002	-0.009870880736258417
119	0xbfa66756bf104918	-0.04375716287917636
120	0x3fb3ba3e5f170096	0.07706060239343268
121	0xbfa60e6dafa260d7	-0.04307883042310017
122	0x3f804da46bdb7096	0.007960590879001733
123	0xbf828131d293edb8	-0.009035481680703991
124	0x3fbb4c9f213999b6	0.10663790284306782
125	0xbfadc152c6ec6c14	-0.05811556509271312
126	0xbfb32f24b4f2e48d	-0.07493810098357497
127	0x3f8ea8972d0107de	0.014969998417772187
128	0xbfb450a970986e5f	-0.07935580252563444
129	0xbfa330801e21bd59	-0.03747940414256829
130	0x3f9bf7acc10566df	0.02731199195964151
131	0xbfb11d488e59f485	-0.06685307956100146
132	0xbf86c3270f581e9f	-0.011114411502617215
133	0xbfb58082d4e8ac9d	-0.08399217317553327
134	0xbfa2973e9d679ce2	-0.03631015464252997
135	0x3fb054f094500207	0.06379607792769813
136	0x3f9defc84f9909d8	0.029235010011925272
137	0xbfafda125a9dd96f	-0.06221062999877602
138	0x3fac53c4cfeeaa7d	0.055326605207786074
139	0xbfb2a6994b074044	-0.07285459596391869
140	0xbfaaf082c4038da9	-0.05261620180842936
141	0x3fb4a14cd705bae1	0.08058624505586522
142	0xbfa08cc76d92111d	-0.03232405865222374
143	0x3fb2e8a5ba1e1b7b	0.07386241716277013
144	0x3fbaa21ad97317c6	0.10403602417781518
145	0x3fa702736dcbec3a	0.0449405738381405
146	0x3fb1209bb90be9c8	0.06690381305444426
147	0x3f8aa9d922d844f8	0.013019272209052066
148	0x3fb5e08e2ccba772	0.08545769303932874
149	0xbfb5f057062588c9	-0.08569854641021658
150	0xbf9b3f576910cf20	-0.02660881594438458
151	0xbfada657a68f3b71	-0.05790971668431311
152	0x3f9d673b1816c868	0.02871410688903389
153	0xbfa344d2a7bbfac1	-0.037634451842668344
154	0xbf705a5eab870035	-0.0039924333618160295
155	0x3fa6c3ca72fb7c5d	0.04446251538842525
156	0xbfa5a734775c5534	-0.042291297502894315
157	0x3f250dac6c93be00	0.000160624788157801
158	0xbfa5d48a8850b0d1	-0.04263718523029215
159	0xbfaa772ba31ef04f	-0.05169044843884817
160	0xbfaad8ecebed741a	-0.052436260032415485
161	0x3fa7bfae50d213d5	0.04638428436832213
162	0xbfb565d32745236a	-0.08358497341863616
163	0xbfb261d0ad207c0f	-0.07180504061442171
164	0xbfa72a289a4f51a3	-0.045243519627237626
165	0xbfa4ba4a968211ad	-0.04048379027611602
166	0x3f92acaecba3dc30	0.01823685758514787
167	0x3f65a24bf57397e0	0.002640865666410072
168	0xbfb2109908a88f56	-0.07056576215160013
169	0x3f484786fb2a4800	0.0007409485900373713
170	0xbfb34cc6c73ce47e	-0.07539026607709506
171	0xbfb5ecbefe19c34d	-0.08564370826367203
172	0xbfb1e8d692bc9aa6	-0.06995907862129033
173	0x3f9a07a19f0f49bf	0.025419736226305775
174	0xbfb0df9efb9eecaf	-0.0659121860798446
175	0xbfaaa8efe5857ee2	-0.052070137756116144
176	0xbf819c0fddc71c68	-0.00859844585001053
177	0x3f76fb7f6105df0d	0.005610940527155395
178	0xbf7296543e5f7691	-0.004537896229491204
179	0x3f9335f6e623d751	0.01876054553664314
180	0x3fb30386ee2c19da	0.0742725688433902
181	0xbf841b72162b5b30	-0.009817973424487286
182	0x3fb98b3343003c97	0.09978027711643943
183	0x3fa00cdf799664fb	0.03134821280691288
184	0x3fad2b32187e8db4	0.05697018193248074
185	0xbfaba8252253b7da	-0.0540172199633699
186	0x3fb33e92ce615133	0.07517354525163426
187	0x3f853b735c4c47e2	0.010367299322329108
188	0xbf8d7bf899544953	-0.014396612338292291
189	0x3f66e574b5c17fcc	0.002794959973513733
190	0x3fb6151cadce8a41	0.08625964396791465
191	0xbfafb3bececa7a6c	-0.06191822313598014
192	0x3fa0e40f9f5eae19	0.032989967541052496
193	0x3fa004648fb7f6a1	0.03128351454141166
194	0x3fb811ccdcc021ae	0.09402161015908092
195	0x3fa6983907cd720d	0.04413011760945915
196	0xbfb1adef5f67f7e0	-0.06906028823138355
197	0x3fb02b5572cbfea3	0.06316122105271886
198	0x3fab37fc76ebd37e	0.05316151572870974
199	0xbf9bc80927bf3d88	-0.027130263377157543
200	0xbf9894135ce7310d	-0.024002363725046872
201	0xbfad84f71d5ee1a9	-0.0576550696709462
202	0x3f9ada55f85a52dc	0.02622351005864486
203	0x3fa1e87655a7c0b1	0.0349766711768792
204	0x3fb2d949cf33de9a	0.07362805660874941
205	0xbfa3318c0b27f35f	-0.03748738895590153
206	0x3fa3e644bbdc1f82	0.03886618416987543
207	0x3fb790b3c0765d78	0.09205172966755082
208	0xbf84aa6e00e4be68	-0.010090693857448943
209	0x3fb7c3f5c2828a7b	0.09283386229302863
210	0xbfb491d099066798	-0.08034995780908927
211	0xbf9ba39ede81efaa	-0.026991350489410294
212	0x3fa00045eec4b68f	0.031252084156546116
213	0xbf771e70cdc0a3b9	-0.005644264831098527
214	0x3fa0adbe77a46f01	0.03257556162335896
215	0xbfb1c00b8833be0e	-0.0693366248631195
216	0xbfaf84f4695535e6	-0.06156123910714566
217	0x3f8c2a165f7b56cd	0.013752150334237179
218	0xbfb0d09b30e31189	-0.06568307822732868
219	0x3fa9aaba085a3f07	0.05013066627463841
220	0x3fb33f8e7f4e5ef7	0.07518854721126532
221	0x3f8637a36e4b6138	0.010848309329433023
222	0x3f9f3d8ea7273793	0.030508259727688957
223	0xbfa7705518d341f5	-0.04577890327493953
224	0x3fbb4a491d220640	0.1066022583127273
225	0x3f94e2c60a9cfeb1	0.020396322629720746
226	0xbf9c72073159e102	-0.027778732669021096
227	0xbfab4b81a992db42	-0.053310443830403745
228	0xbfa7cc6920e587c0	-0.04648140455789429
229	0x3fa4ad09dcb283ed	0.04038267916735792
230	0xbf5c97bfaa64ffa7	-0.0017451640829477617
231	0x3fa620c6715fc679	0.04321880468331769
232	0xbf9f29762950c750	-0.030431600829792516
233	0x3f98ea7076ab540c	0.024331814997669496
234	0x3f9b6898688c233b	0.026766187077586805
235	0x3fac87535d1a3a0b	0.055719952693028395
236	0xbfa1eb702635ea19	-0.03499937502325085
237	0x3f9a02e7250999a7	0.025401698718633316
238	0xbfb07724660ce56a	-0.06431796542610405
239	0x3fb624fd5f44b707	0.0865019185627852
240	0xbf95ab6c633fd344	-0.021161740834901424
241	0x3f999228869bbedc	0.024971612182468003
242	0xbfa85a4d53843cb8	-0.04756395000924257
243	0x3fb48529bce74473	0.08015690671824575
244	0xbfb10fa4dd250a0b	-0.0666449584869399
245	0x3fb2efd748ed2e2f	0.07397218256408487
246	0xbf96d343e166c432	-0.02229028762093694
247	0xbfade6df9f87fe0f	-0.05840205023195832
248	0xbf9c0a07b3f640de	-0.027382011755947448
249	0xbf7a9f0cf0f7cebe	-0.0064993386763380605
250	0xbfaf87077118bd40	-0.06157706504415694
251	0x3fb2cc7b701ed955	0.07343265044514642
252	0x3fa271d0aff499d7	0.03602459094900084
253	0xbfaa6234680fc172	-0.05153049249918497
254	0x3faed528ec194522	0.0602200306135592
255	0xbf98e2cb986b91b2	-0.024302655389776447

out.bias f8 [4]
0	0x3fbdb0b66837739d	0.11597766918516901
1	0xbf80296b5414ea92	-0.007891500953168849
2	0x3fba38383d529c44	0.10242034432541042
3	0xbf84651641cf66b1	-0.009958433040014954
