pygame_env/code/rlhf_dqn/dqn/model.pt (torch, 255379 bytes, 4 tensors)

fc1.weight f8 [128, 243]
000000 06 59 9e 4c 0e cb ad 3f b8 3d 6b 2c 6e 69 8a 3f
       0.058189818241929855 0.012896404963071414
000010 40 7c a6 f3 d2 00 60 bf 82 28 31 0a b1 03 96 bf
       -0.001953517928270837 -0.021498457190582083
000020 e0 bc dc 31 e2 3d 9e 3f 7a bb 9f 4b 91 86 a5 3f
       0.029532942097998283 0.04204229400772071
000030 5e bb e8 9b 66 1d ab 3f 24 4d 01 42 73 cc 95 3f
       0.052958685428498894 0.0212877282177263
000040 b0 db 17 39 8a e4 77 3f 46 a8 f6 90 5b b3 9b bf
       0.00583318704001716 -0.027051382754202068
000050 99 bf 5d f4 91 5e a4 bf d4 21 02 ce 77 bf a6 bf
       -0.03978401287065409 -0.04442953481435877
000060 d0 10 2c 82 ce a5 9f bf 98 d4 cf 71 58 f6 95 3f
       -0.03090593976504935 0.021447545954249664
000070 64 61 ce f1 12 09 ac 3f 5c b3 5c 25 93 b7 9e 3f
       0.054756729142527744 0.029997157245066006
000080 83 d5 ba 8a 04 72 a5 bf 62 9c a9 a3 4a 93 a7 3f
       -0.04188551133612874 0.04604562042077799
000090 c2 95 43 17 78 b9 ac 3f 34 2f fc 07 e8 74 9d 3f
       0.05610251697525427 0.02876627491700319
0000a0 08 00 30 45 c0 03 a8 bf 1c 12 f4 df 76 57 a5 bf
       -0.04690361828397732 -0.04168292506986779
0000b0 ac 79 a1 7a aa 33 93 3f 28 77 95 12 16 a3 ae bf
       0.01875177739599969 -0.05983799912313109
0000c0 30 d9 79 05 53 26 ac 3f 3f f2 44 9f df 07 a3 bf
       0.05497989122243252 -0.03716944522100051
0000d0 30 cb e2 01 e7 b6 7d 3f 80 14 ba f0 47 e8 61 3f
       0.007254507420088527 0.0021859555325272617
0000e0 ee 68 0c b4 6d 16 a9 3f 24 29 58 0e c3 17 86 bf
       0.04899924109322905 -0.010787509799247426
0000f0 60 6c 87 4c 4f fb 85 3f 40 18 de ed 0f 56 7b 3f
       0.01073324157999006 0.006673872206993947
000100 20 67 74 8a 5a 12 62 3f a0 3b 09 6e 11 6d a8 bf
       0.0022060173393016053 -0.04770712345327088
000110 1c 01 df ec a9 6c a2 3f ee ab ce ca 97 46 a3 3f
       0.0359852887772851 0.037647956377746414
000120 0e 81 a9 8a ab ab aa bf 01 1e 8c 16 8a 80 ab bf
       -0.05209098880436801 -0.05371505284534451
000130 18 17 f6 b1 35 0e a0 3f d0 e4 5f 18 1a 59 89 3f
       0.03135841176394488 0.012376979702809626
000140 34 6d 33 38 34 21 98 3f a0 13 33 e7 9b 95 9d bf
       0.023564163141469766 -0.02889102553014633
000150 10 7d e8 90 97 fa 90 3f ce 8a dd 85 e2 18 af bf
       0.016580932826511463 -0.06073673137759315
000160 a6 40 75 e3 75 0f 98 bf 6d cc 93 60 55 0b a5 bf
       -0.023496477134643222 -0.04110209278032859
000170 fc e4 7b 8b fa 58 83 bf b8 ce 5b 61 01 0f 84 bf
       -0.009447057134354335 -0.009794245513581643
000180 68 c8 ad 4c 89 22 a6 bf 73 c4 0a 53 c6 ad a9 bf
       -0.04323224125882136 -0.05015392078110716
000190 9e 2b cb 7f 21 65 a9 bf d0 ad 3b 77 5b 01 a6 3f
       -0.04959969220143211 0.042979105286430674
0001a0 26 ca f6 6b 1b 41 93 bf 1d 74 2d db 80 d5 af bf
       -0.018803051437951045 -0.062175776248047245
0001b0 70 e6 0b 3e e9 f5 78 3f b4 f1 dc 8d fa 59 8d bf
       0.006093894103054262 -0.01433177705222808
0001c0 0a 47 86 2b cb 88 9c bf 60 15 10 bd 6e 5f 61 3f
       -0.027865576297307938 0.002120701109108822
0001d0 f8 a8 04 53 65 22 af 3f 64 73 b8 a3 4f 0c aa 3f
       0.06080929411321451 0.05087517617741957
0001e0 80 5e 90 48 3a e1 80 bf 54 4e e7 da 09 50 93 3f
       -0.008242087687946098 0.018860010133563712
0001f0 94 7d 5a c3 54 f2 a7 bf 36 a2 25 5c e9 2b ae 3f
       -0.046770714613781156 0.05892876863328349
000200 9e 7d e2 dc 90 0d af 3f f4 24 5f bd 59 e8 a0 3f
       0.06065037437769692 0.03302269398370497
000210 c0 86 4c 1c e7 f5 91 3f 86 6e db 35 67 ad af bf
       0.01753960714552849 -0.06186983616291024
000220 c2 b6 89 46 0c 25 ad 3f c8 cc 3b e7 53 62 a2 3f
       0.05692327843722246 0.03590643117595388
000230 c0 48 6a b0 3a a6 71 3f a4 18 06 26 7e 9c a1 3f
       0.004308919195539385 0.034397070066050334
000240 07 45 e3 b9 96 1c a3 bf 1a b6 bf 3e c1 6b a1 bf
       -0.03732749003541796 -0.03402522936799475
000250 5c b9 8f 96 aa 64 a5 bf 58 3a a9 97 1a 7c 9e 3f
       -0.04178364837558732 0.02977029371896331
000260 c3 8c 61 38 0a 6d a5 bf ec 5f 30 41 15 5b ac 3f
       -0.041847533590748685 0.055382408340108075
000270 20 98 09 e9 11 7d 93 3f fc d9 49 6e fe 41 b0 3f
       0.01903179154250989 0.0635069865473738
000280 58 e7 08 a1 56 2c 9a 3f 2c 8c f9 fc 35 84 a1 bf
       0.025559762553008042 -0.034211814051353734
000290 b8 55 82 6e de ea 9e 3f 2c c4 37 69 80 42 a5 bf
       0.030192828650418696 -0.04152299198529649
0002a0 e0 cb 76 ae 16 e0 5d bf f4 fe a9 2e 17 47 9d 3f
       -0.0018234464167619022 0.02859150144877183
0002b0 9c 8b 83 4f 91 b7 ad bf 9c 9f b4 bf 5a c5 87 bf
       -0.05804113479259529 -0.011606892562283914
0002c0 80 e7 2f b6 5c 14 99 3f 52 6e 93 b3 ff ae 9f bf
       0.024491737956828796 -0.0309410050730164
0002d0 20 7f 24 6e 97 11 7f 3f 0e 02 10 63 97 4e a8 3f
       0.00758513595999924 0.04747460445651451
0002e0 24 05 cd 1a 57 45 90 3f 2c 96 9e 2f b3 1b 9e 3f
       0.015889512072367343 0.029402541905844057
0002f0 5f 0e ed 35 cd ee a9 bf 92 67 00 98 2a a7 97 bf
       -0.050650036652339685 -0.023098626639785964
000300 94 30 f3 4c 22 38 ac bf 92 50 a6 d1 ef 17 ab 3f
       -0.05511576833086554 0.05291699823570285
000310 00 2c 6c ea 47 47 66 bf 88 10 b7 ef b8 ed 84 3f
       -0.0027195362666865286 0.010219044509433908
000320 40 c8 b2 43 0c 17 59 3f a8 2b e0 5f 66 ec 87 3f
       0.0015313739557254596 0.011681365776913769
000330 24 bb 46 cc 26 10 a5 bf e0 ee bb d4 f2 25 93 3f
       -0.04113885158164113 0.01869944976259219
000340 66 e8 7b 20 a7 70 9e bf ff de 3a 43 c2 9c ae bf
       -0.029726611478487895 -0.05978972502401624
000350 12 70 2f 6e 97 97 a5 bf f4 0e 3b 75 fb bc a5 bf
       -0.042172176552156895 -0.04245744520224362
000360 e0 b8 54 3b bb 0a 9b bf a0 8e f6 14 0e 25 a4 3f
       -0.026408124443315084 0.039345207270597315
000370 50 9b 37 29 26 61 93 3f 70 62 e8 8a e7 34 73 3f
       0.018925281778048586 0.004689125502885902
000380 78 d8 75 cc 17 ea 99 3f ae 4e a6 81 9d 4d b0 3f
       0.025307056288021518 0.06368431487345091
000390 44 63 57 dd 9e df a0 bf 51 ae 05 a2 42 18 ae bf
       -0.03295608951493148 -0.05877884128389311
0003a0 bc 75 00 5d 27 3b 85 bf 18 30 4c b7 43 85 98 3f
       -0.010366733098687735 0.023945863783453175
0003b0 a2 58 4e d5 a8 25 9e bf 90 0c c9 50 34 b1 74 3f
       -0.029440534609954334 0.005051807744680961
0003c0 98 59 53 c4 8f 1c 86 bf d0 a8 f2 35 69 b3 a1 bf
       -0.010796664408570675 -0.034571922145305245
0003d0 8c 80 45 57 c2 94 93 3f b0 91 e0 17 43 c0 83 3f
       0.019122158600453562 0.009644054571318644
0003e0 74 b4 62 45 4f a3 89 bf 40 3d 48 a0 37 1b 57 3f
       -0.012518519692401343 0.0014102977012305368
0003f0 14 b5 32 18 69 f0 95 bf e8 2c da 09 91 e7 9a bf
       -0.02142490587418873 -0.026273981310208777
000400 f1 84 0f 5d 13 6b b0 bf 0e 1c 44 1d 9f 70 ad 3f
       -0.06413384458530282 0.05749985916377663
000410 38 09 ef 12 a5 af 82 3f a6 e1 6a ac 08 d8 a6 bf
       0.009124078407584876 -0.04461695770936851
000420 9e 43 cd 63 30 a5 a6 bf d4 76 14 a1 0e 00 ae 3f
       -0.04422904222759104 0.05859418598468627
000430 48 25 ab 68 a9 c4 af 3f 29 51 1a 3a 27 fa af bf
       0.06204728510563001 -0.06245539268744189
000440 f8 29 6a 26 ba d2 76 bf a0 49 e3 01 4b 13 7b 3f
       -0.005572058819448326 0.006610196111255823
000450 37 c1 97 07 99 56 a9 bf 18 0b 03 02 29 ad 82 3f
       -0.04948881356893014 0.009119339345834684
000460 e2 fb 47 86 91 5d 9a bf 3c b4 24 db 42 f0 ad bf
       -0.025747560330270043 -0.05847367215242413
000470 34 51 ce d1 5d 43 b0 3f 52 43 38 58 09 28 a1 bf
       0.06352793094840054 -0.03350857927228525
000480 1e 7f 40 6b 8f 33 a7 3f 73 22 4e 42 7c 00 a0 bf
       0.04531524833896426 -0.0312537032069188
000490 92 f8 05 54 89 27 ad bf 9c 30 15 ff 00 1a 9b 3f
       -0.056942264086488184 0.026466384476677804
0004a0 4e f8 1b 36 ef fe af bf c0 5c 45 c5 4c bb 94 3f
       -0.062491870265134794 0.02024574235960297
0004b0 38 51 35 0e 05 a5 a0 3f a0 f4 fb 1c 05 8a 79 bf
       0.03250900076332858 -0.006235141728891197
0004c0 08 ab 35 b6 fc 3e 7c bf b2 e7 f3 fe 3c 5a a2 3f
       -0.006896006732271649 0.035844713327562686
0004d0 90 a9 c9 6e b4 cd a9 bf c0 5d 78 9c c8 cc 76 3f
       -0.05039752819432686 0.00556639064554737
0004e0 58 ba 5c 60 fb c4 a9 3f 38 a6 59 8e f4 3b a2 3f
       0.050330977929082976 0.035613672615749825
0004f0 a0 12 28 19 17 6e 97 3f be dc c8 6e 22 e3 a9 3f
       0.02288089839022922 0.05056102373458192
000500 72 be 63 e6 2b 27 a5 bf 16 30 96 d6 93 3e ae 3f
       -0.04131447970746373 0.05907117838350488
000510 04 1b 43 94 20 3f a3 3f 00 e0 0b 50 2d 2a 63 bf
       0.03759099778976885 -0.0023394474995903636
000520 ba 41 c6 e2 78 03 b0 bf e0 b0 4b 89 ab 28 6e 3f
       -0.06255298172459947 0.003681502372606102
000530 60 0e 75 94 9c 44 b0 bf 5c 7c 5e fa 32 98 99 bf
       -0.06354693054623217 -0.0249946561158335
000540 5c 97 5a 21 b7 c5 a2 3f 20 07 f4 d5 e8 de 96 bf
       0.03666469843055495 -0.022334707316083002
000550 80 b2 9c b6 da d8 99 3f fa a6 16 6f bb fd a5 3f
       0.025241296191938378 0.042951447783094523
000560 a0 1d 48 35 47 58 9c 3f 43 91 02 44 ae 51 ad bf
       0.02768050444322301 -0.057263799478536125
000570 f0 a5 5a 0d b3 2f 62 bf 66 dd 33 67 e1 49 a1 3f
       -0.002220010482081085 0.03376678833768203
000580 38 28 a1 09 2e c9 82 3f f8 ab f7 f3 9a bc 9b bf
       0.009172782582158687 -0.02708665956553699
000590 2a 2f 00 44 7f f5 ab bf 8c d7 f4 3c 4f 36 9b 3f
       -0.05460736947142515 0.02657436189220834
0005a0 78 59 10 22 bf 9f 8c 3f 52 1a bf 4b 96 26 b0 3f
       0.013976567484900157 0.06308879231719658
0005b0 50 23 54 12 84 75 71 bf 58 e9 6b 51 f4 53 a5 3f
       -0.0042624625250560905 0.041656145991469884
0005c0 8a 33 84 da 21 c6 9d bf 3e a5 e5 4e 8d e2 a0 3f
       -0.029076127016242327 0.03297845447634494
0005d0 68 e1 0d 52 54 4c 82 bf 98 e8 18 2d 35 2c a7 bf
       -0.008934649232956018 -0.045259153132478136
0005e0 b8 d5 1b 12 be 19 af bf 1c 7d e4 df 9b 5c 95 bf
       -0.060743274412668524 -0.020861087360683248
0005f0 fe 40 be 4d 6c df 91 bf 90 cd 1c 28 bf 91 8c 3f
       -0.017453853840891924 0.013949864780079563
000600 d8 6f 8a 38 ce 13 ab 3f 0e 5a 2c a1 eb e1 94 bf
       0.052885479356717446 -0.020393068039164013
000610 7a 33 70 fe 6c 33 9c bf 5e 91 52 29 14 98 a2 bf
       -0.027539923696213255 -0.036316518825773456
000620 67 1a f4 7b b1 31 a7 bf 16 14 7f 1c 56 88 a8 3f
       -0.04530100477318371 0.047915163973392946
000630 21 c4 5e 0d 82 5f a3 bf 18 b6 1c 3d 14 b0 8c 3f
       -0.03783804333887298 0.014007719149584694
000640 00 89 0d ad 68 a9 78 3f d4 b6 7f 78 62 db 9d bf
       0.006020935907914415 -0.029157198528927022
000650 cf 51 15 fc e9 5a ab bf 90 e0 40 e6 3e 0d 71 3f
       -0.05342799379528495 0.00416302270974013
000660 62 66 8f 24 15 e1 a3 bf 38 00 e2 d1 39 38 b0 3f
       -0.03882661887446372 0.0633579385194033
000670 b0 d0 65 a7 1b 1e a1 bf d6 9c 94 56 0d ce 98 bf
       -0.0334328309863009 -0.02422352639146371
000680 0c c5 60 2b 6a 89 a5 3f 4e 56 d5 4e c5 f4 a6 3f
       0.042064016146818956 0.04483620250054497
000690 0e 05 40 21 c7 e6 ae 3f af 70 a0 64 25 33 b0 bf
       0.06035444527516108 -0.06328042704302804
0006a0 f0 b9 a3 b8 30 84 9e 3f e2 b0 11 11 a1 19 b0 bf
       0.029801141042236468 -0.0628910700485821
0006b0 fa 1a 96 fd c2 df a9 3f 8a 8d e7 e3 99 b2 9d bf
       0.05053529115234841 -0.029001621756731967
0006c0 60 8d 51 80 d1 5a af 3f 20 9d f9 46 b9 aa 9b 3f
       0.06123976413143839 0.027018446881268976
0006d0 c2 35 8c 6f 9a 3b aa 3f 88 a1 b3 81 2e bf a8 bf
       0.0512359868208523 -0.04833360036156181
0006e0 3e 96 19 f7 e9 08 af bf c2 92 bc 92 9f 30 aa bf
       -0.06061488286358639 -0.051152216589149826
0006f0 d0 07 69 b3 2e 4e 72 bf 0a 7e ce 32 09 d1 aa 3f
       -0.004469091820796536 0.052376067592600675
000700 2a 94 a2 a9 25 68 a1 3f 74 90 18 c9 36 90 a7 bf
       0.0339977044653 -0.04602214054855916
000710 3a 34 1a 8f dd 21 9e bf 30 d1 d8 16 3a e0 af 3f
       -0.029426061496043078 0.062257590569432586
000720 ee e5 f8 7d 07 4f aa bf 16 fa 03 ed ab e6 a6 3f
       -0.05138419544932647 0.04472863453155555
000730 f0 ff 49 3f be 7d ae bf b2 d6 bf 9e 83 fc a9 3f
       -0.05955309412547638 0.050754655006966756
000740 c2 fa d8 86 69 54 ae 3f d8 40 e6 9f 80 47 9a bf
       0.059237764082799696 -0.02566338516186381
000750 78 29 56 c1 1a ba a4 bf ee 1f 1c a2 20 20 a4 3f
       -0.04048236475053363 0.03930761317138819
000760 84 93 2a 2b e9 c7 95 3f c6 00 98 e7 59 a0 a2 bf
       0.021270411739027675 -0.03637963249275482
000770 28 ea b1 d7 fb 98 aa bf 7f ed 88 04 2a f9 af bf
       -0.05194842346186973 -0.06244784646375034
000780 6c 0f 13 19 e3 9d 9d bf 44 a3 60 06 fe bf 89 bf
       -0.02892260399381945 -0.01257322747194823
000790 94 94 bc ea 5f 82 93 3f 16 36 00 26 70 fb 96 bf
       0.019052027418315534 -0.02244353515566474
0007a0 96 7c 31 a9 3c c9 a0 3f 50 5b e7 d0 49 b1 9c 3f
       0.03278531613681783 0.028020051360580667
0007b0 a0 a5 35 bc 2e 9a 61 3f 78 b3 cd 89 ee f1 8d bf
       0.002148715285944916 -0.014621604519300155
0007c0 c8 80 59 56 22 fc a5 bf cc 3b 19 e7 98 e7 a1 bf
       -0.042939255753255134 -0.034970071993135926
0007d0 a0 77 a2 06 a2 af a6 bf c6 f2 c9 11 8b c2 91 bf
       -0.044308722791569055 -0.017343686066385165
0007e0 00 78 b9 52 50 7c a5 bf 4c 0d 90 fb bf e0 9f 3f
       -0.04196406373806383 0.031130790452164533
0007f0 86 9e f8 ba 8d 8e a1 3f 77 de 3b 8e aa bf ae bf
       0.03429072291720296 -0.06005604730847563

fc1.bias f8 [128]
000000 d0 4c 00 fb 33 28 6e bf c5 07 fb 73 8b 0f 7a 3f
       -0.003681279682504625 0.0063624808678372545
000010 46 fe ff 69 4d c2 a4 bf c6 b3 a4 4a 69 51 b2 bf
       -0.0405449096579074 -0.07155473778102736
000020 b9 80 11 52 62 0c ab bf da dd 17 42 c0 52 73 3f
       -0.052828857915984746 0.004717589386465682
000030 fc 74 18 8c 91 f1 93 3f 8a 3d d9 be 1c 93 93 bf
       0.019476198364022132 -0.01911587633941062
000040 24 9f 41 5a e1 67 9d bf b2 31 d7 e3 1a 68 95 3f
       -0.028716584333238107 0.020904941707884546
000050 a2 8c 27 33 ca 02 ae bf bb 0b cf a4 3e e5 a0 bf
       -0.05861503481335119 -0.032998998277910606
000060 49 02 90 be 99 ff 79 3f 9a 57 0c 49 0c 8f a5 3f
       0.0063472753181491115 0.042106994549768476
000070 80 51 a8 8f fc 83 4f bf aa 5e 5f 0b 77 3f a7 3f
       -0.0009617789467620125 0.04540607465577058
000080 95 70 f0 e0 2a dc aa bf 90 98 76 4e cb 9d 9d 3f
       -0.05246099468078672 0.028922249473588624
000090 5a 15 99 2e dd 3b 97 bf c3 8e b8 60 fe 2c 89 3f
       -0.022689300507655254 0.01229284985226487
0000a0 9a ff 0f e4 c8 0e 9a bf 0c bc 66 58 a0 52 58 3f
       -0.025447024268941833 0.0014845434067003475
0000b0 fb 5a ff dc 89 4f af bf 9e b2 3a 66 a7 8f 64 3f
       -0.061153705813628854 0.0025099057691789347
0000c0 9f 4c 65 d0 03 e6 ae bf 22 1d f5 34 1b b5 ac bf
       -0.06034862440960719 -0.056069231237922304
0000d0 b5 45 96 bf 34 f7 ab bf 5a 7b d6 63 a7 e0 a6 bf
       -0.054620407473645306 -0.044682722985490655
0000e0 fc dd de 12 89 ea 95 3f c6 fe 11 95 92 55 a3 bf
       0.02140249421765182 -0.03776224202829108
0000f0 a4 19 ee 6c a0 f9 ab 3f 8c f6 f0 5b 88 bf b3 bf
       0.054638875290993455 -0.07714130634937016
000100 66 57 f4 65 01 bf a7 3f d5 f2 77 28 74 a0 a1 bf
       0.04637913102685225 -0.03442728990555614
000110 01 69 e3 67 8e 08 9f 3f 3f 1e c1 c1 6d 81 87 bf
       0.030306077090110687 -0.011477334475912147
000120 b6 84 ca 62 ba 6d 60 3f d5 4f 5d 48 bd 98 7c bf
       0.002005447421041663 -0.00698160112900222
000130 ab b3 98 65 33 6f b3 3f d0 1f 34 98 c5 93 82 3f
       0.07591553907759756 0.009070914943109104
000140 bf d3 c0 74 3e b3 98 bf f8 f6 b0 4a c6 cb 88 bf
       -0.024121261478473374 -0.012107419161221142
000150 47 36 4c e1 a9 67 63 bf 1f e2 65 fc 5a 8c a9 3f
       -0.002368766591081681 0.04989895182638215
000160 3a af f5 89 65 57 a7 bf fa 4d ca 02 90 89 ae 3f
       -0.04558865841940336 0.0596432689100332
000170 a2 9c ba 83 09 09 aa 3f 88 60 83 29 f2 c3 af 3f
       0.05085019810695114 0.062041823928383144
000180 7a de 86 96 1d 2c a8 3f f1 80 ca 9d de 57 ac 3f
       0.04721157515035386 0.055357891809082356
000190 c3 af 82 95 41 40 8f 3f 50 77 ed 31 68 a9 7c bf
       0.015259277701566881 -0.0069974966162059254
0001a0 fa 74 68 48 d3 55 93 bf 59 94 0f cd b8 6d a1 3f
       -0.01888208512729237 0.03404023650345129
0001b0 ae c0 1b 83 ba 94 a1 3f e0 cb db 06 40 8d 91 3f
       0.03433783388561672 0.01714038888799141
0001c0 5f e1 f6 14 15 32 85 bf fc ba ce 50 b6 40 98 3f
       -0.010349430753976816 0.023684357339955206
0001d0 a5 60 67 2f b5 08 a3 bf a0 0c cf ce 17 b8 6b 3f
       -0.03717580989513295 0.0033836808201797713
0001e0 0b bc 3f ad 6b 61 ad bf 38 4c ca 36 b9 8c 93 3f
       -0.057383885286860524 0.01909150502121923
0001f0 8d 8c 43 bb 55 8f 83 3f 40 31 88 d5 6c 8d 73 3f
       0.009550733353938657 0.0047735453922650994
000200 89 0f 4e 92 2a b3 aa bf 89 46 ba 41 3c 06 88 bf
       -0.05214818035076891 -0.011730643039558746
000210 60 d7 a0 4c 8a 69 86 3f a9 c6 82 2f c7 2a ab bf
       0.010943489516744342 -0.053060745763457824
000220 b1 24 b1 9d 16 c8 8d 3f 2d 4f 6b 58 fa 02 7e 3f
       0.014541794478775879 0.0073270587078757944
000230 cf be bd da 74 a7 ab bf 40 92 a9 35 f2 4f 5f 3f
       -0.054011966420942074 0.0019111504867847101
000240 25 bd 84 d8 76 54 57 bf ee e7 25 7d c8 8a 93 3f
       -0.0014239464381480907 0.019084103239471455
000250 00 69 c0 1b 26 f2 53 3f c1 6f f9 67 ef a0 7c 3f
       0.001217400756110154 0.006989417248032427
000260 9b 5f 85 8c 17 2a 7d bf b7 46 69 5a 34 b3 9e 3f
       -0.0071202201728154625 0.02998048593355548
000270 bf 87 b0 47 13 f0 ab bf ea db 70 6d a3 71 83 3f
       -0.05456600427738988 0.009494091775293218
000280 54 09 29 ff a7 7a 90 3f f2 d3 b6 5d 34 eb a5 bf
       0.01609289641260976 -0.04281009334537335
000290 4b 5d 0d 2f f0 93 a0 3f f8 ac 28 bb 6a ed 8a 3f
       0.03237867903106436 0.013148149334560419
0002a0 46 c1 e8 7f 95 11 77 3f e0 8f 22 80 68 b2 79 bf
       0.0056320037679572 -0.006273658948121125
0002b0 11 02 3c 03 0d 90 ad 3f 52 2f d4 85 bb 7a 96 3f
       0.05773964561922552 0.02195256237341365
0002c0 8c 87 f8 cf 09 e4 a9 bf 5e f1 a0 e5 72 69 ae 3f
       -0.05056791938501623 0.059398260622830476
0002d0 f1 e1 44 94 70 6b b0 bf 63 78 b1 82 10 3c 69 bf
       -0.06413940067148595 -0.0030803987952330732
0002e0 39 b2 79 f2 6e ad a2 3f f9 60 fa 2f 00 53 9f bf
       0.036479441737217795 -0.030590060165736486
0002f0 2a cf fe f5 da 8d a6 bf c2 4f 02 b9 82 9d ac bf
       -0.04405102017281444 -0.05588921078120236
000300 11 92 e6 5c b7 22 87 bf 28 40 fb ec f7 40 84 bf
       -0.011296684763530103 -0.009889542502975315
000310 d6 2e 90 ec b7 1f af 3f 97 11 f3 b5 41 dc 87 bf
       0.060788867595048465 -0.011650575032384576
000320 6e 9c 62 fc 01 bc 9a bf d8 b8 dc a8 a7 0c 9f bf
       -0.0261078176778508 -0.03032171219018029
000330 5b 07 af 3f 95 70 ab bf 0b 5b b5 fe 46 36 8e bf
       -0.053593315147294894 -0.014751963279804345
000340 ef 51 c9 00 ac 0e a2 3f 85 2e a4 9f 55 8c 99 3f
       0.035268187614437944 0.024949396008237663
000350 03 40 b3 14 44 38 ae 3f 28 93 55 22 ce 54 ae 3f
       0.05902302506149228 0.059240762416072734
000360 e2 60 de 5e c6 f7 ad bf dc d4 d2 d1 28 09 95 bf
       -0.058530997353217776 -0.02054275303517704
000370 52 3c 08 2c 16 c8 b4 bf f8 a8 a3 34 91 82 82 bf
       -0.08117807936672364 -0.009038099688457354
000380 f3 31 7c 12 f9 11 a0 bf a7 d9 6a 12 fa 66 b0 bf
       -0.03138712263725898 -0.06407130193370013
000390 27 19 2f a9 20 e4 b0 bf 6b 4e 3a 0c 67 af b0 bf
       -0.0659809506460972 -0.06517643021134638
0003a0 5f 62 40 69 8b de ab bf dc bb d6 fa 99 38 8c bf
       -0.054432255361636754 -0.013779833762638853
0003b0 10 e5 d9 c8 0d fb 71 bf 84 18 07 20 cc af a1 3f
       -0.004389814229960778 0.03454435244525292
0003c0 fc cb f5 e5 23 0b 92 3f ac 1e 85 4a a2 b4 86 bf
       0.017620621596005734 -0.011086719416780376
0003d0 da 1a e0 b6 4d be a3 bf 19 fa 46 e1 a7 91 a4 3f
       -0.03856127602926103 0.04017376542059398
0003e0 f8 bf 3c 58 c5 dd a3 bf b9 5b c7 4f 20 5a 99 3f
       -0.03880135252109079 0.024757866734798493
0003f0 54 5e 89 c6 ef 24 af bf de b8 70 e5 43 7e af 3f
       -0.06082867907087733 0.06151020217690627

out.weight f8 [4, 128]
000000 a2 ea a0 59 17 12 a3 3f 06 61 d7 ed 16 12 8e bf
       0.03724739998911743 -0.014682940610257333
000010 c3 27 9d 1b 93 17 86 3f a9 f3 ff 69 15 8c 90 3f
       0.010787152557572349 0.016159376711573668
000020 be e5 c5 6b 04 66 61 bf 89 c8 71 34 09 ad a4 3f
       -0.0021238409373693637 0.04038265958014715
000030 40 0c a2 4e 05 a2 68 bf 7e 4b 40 f7 6c b5 a7 bf
       -0.0030069450049850233 -0.046306042844796544
000040 3a 78 91 94 0a c4 af 3f 75 e9 f6 d3 2e 9d a8 3f
       0.06204255164696844 0.04807421052415154
000050 e8 d4 c6 55 c5 97 b2 bf 43 e3 b8 dd c8 f2 b0 3f
       -0.07262833923489931 0.06620459950580675
000060 7d e3 57 e9 45 e5 a4 3f af 52 ea d0 f2 fa b0 3f
       0.04081171487263811 0.06632917023155004
000070 ac 88 50 c4 6c 0f 96 bf d9 33 ec 81 33 34 b1 bf
       -0.021543216211406133 -0.06720277711811153
000080 1a c3 f7 d5 dc 9b b6 bf 1f c9 f1 ba 72 39 b5 3f
       -0.08831577514480352 0.08290783943246936
000090 c0 f4 e6 2a cc 96 8d 3f 3d da 36 7e 72 cd be 3f
       0.01444777971198119 0.12032237607386605
0000a0 48 82 ee e8 82 27 8a 3f 80 da 49 b9 d9 34 90 bf
       0.012770674451361277 -0.01582660859500118
0000b0 80 56 84 8a 16 b6 4a 3f d7 93 b9 b5 d2 2f 8c 3f
       0.0008151636184574179 0.013763090296558573
0000c0 47 60 38 00 43 d5 a1 3f b1 d3 fb f3 54 32 9e bf
       0.0348301828163931 -0.029488875762541947
0000d0 18 2e 38 e8 06 89 8c 3f d6 f6 50 ba 50 36 aa bf
       0.013933233224654493 -0.05119564318054663
0000e0 9c 90 0d 1d 8a e2 96 bf b5 fd 67 5d 42 0b b5 3f
       -0.022348554633382464 0.08220305233407184
0000f0 83 87 ce 61 85 8c b4 bf df c8 50 d3 84 8e ad bf
       -0.0802691806589149 -0.05772795753036219
000100 a0 e2 2c 05 12 cb 89 3f de e3 23 44 fa 60 af 3f
       0.012594357283533697 0.06128675538815974
000110 84 1e 86 44 da c3 b2 3f 85 b6 12 79 7e ca ae 3f
       0.073300973634213 0.06013865688269696
000120 01 20 1e ab 11 88 9f 3f 19 5e a0 b8 2c 0b 82 3f
       0.030792499608224947 0.008810376533843688
000130 69 1a ce 1c 2e 6a 87 bf 75 ea 3a 15 5b a5 b1 bf
       -0.011432991270124053 -0.06892937916101423
000140 88 b6 ab 93 1d 78 b6 bf 48 25 30 de 2e 92 9a 3f
       -0.08777031760447518 0.02594826918724394
000150 46 ea c3 f4 93 a1 a1 bf 51 c0 f8 04 42 3a 9d bf
       -0.034435866955352654 -0.02854254870743517
000160 52 04 9f 7e 34 ba b3 3f f8 9f 90 65 8d b7 81 bf
       0.07706001368843943 -0.008650879537597675
000170 9c d5 75 0d 1e 21 ac 3f ae 07 3d 4c 52 7b b4 bf
       0.05494016565618695 -0.08000673638619446
000180 a0 3b 93 ab 94 3a 74 bf 95 ac c3 66 0a ac b1 bf
       -0.004938679450062461 -0.06903138169188801
000190 c4 16 55 5c 1d 72 a1 3f 50 f8 fd e6 86 63 85 bf
       0.034073750992815316 -0.010443738865202473
0001a0 ce 73 80 99 22 01 a8 3f 23 90 c2 7b 16 bb b1 bf
       0.04688366054345004 -0.06926098367199578
0001b0 c0 26 75 81 1b e2 98 3f 14 81 27 46 66 4a b0 bf
       0.02430003144880888 -0.06363524639846602
0001c0 d3 9a fc 68 44 be 97 3f d0 be d7 72 aa 9d 8c bf
       0.023186749370462344 -0.01397259867641712
0001d0 ef e8 38 6e 52 ce ab bf 20 ec ab 5c a5 01 94 bf
       -0.05430848689543832 -0.019537528783058034
0001e0 9a 57 aa 23 41 28 a8 3f 3d 53 b6 fc e9 70 b0 3f
       0.047182117084204125 0.06422293109637862
0001f0 ac 23 74 4f 72 09 b1 bf 95 17 27 56 dd a5 aa bf
       -0.06655039253031586 -0.052046696440398645
000200 6b 7a 35 8d 11 68 9b bf 74 03 ee 03 35 47 a4 3f
       -0.026764177554805018 0.03960576699228727
000210 80 0b 2a 79 59 95 84 bf cf e4 2f 27 01 91 b7 3f
       -0.010050486574305628 0.09205634314266152
000220 cb 90 f3 81 56 c0 b4 3f 89 a7 78 ff 14 07 ab 3f
       0.08105984375612534 0.052788406548940854
000230 36 1a fd c2 d5 5c a4 bf 8a c7 06 9c b8 de a3 3f
       -0.03977077489121365 0.03880860237712998
000240 a0 d7 26 80 bc 5d a2 3f e3 90 00 dc 81 09 c1 3f
       0.03587140144683976 0.13310263864798974
000250 96 ae cb c9 7e b8 af 3f 87 54 2c 98 df 0e a0 bf
       0.061954462178474376 -0.03136347515661791
000260 06 b8 48 70 4b 7a a1 3f 49 7f ba 30 cc c1 b1 3f
       0.03413615937857632 0.0693633669820858
000270 4f 30 d7 27 62 07 a9 bf c1 70 b9 6e b1 65 a3 bf
       -0.04888445602736679 -0.037885231748732824
000280 8b 49 69 b2 70 cb 97 3f f4 f8 bc 94 24 2d ae bf
       0.023237000359878784 -0.05893816295291457
000290 f5 fb 01 df ff 21 a5 3f fa 2b e4 f6 b3 5e af bf
       0.04127502057325919 -0.06126940144357458
0002a0 9c 99 d7 42 a9 0d b6 3f 4a a4 3d 02 f2 62 aa bf
       0.08614595300568911 -0.05153614308694239
0002b0 58 d6 d5 03 5a 2b a1 bf 8c 16 b5 a5 b1 51 b5 3f
       -0.033533871620346545 0.08327780051794259
0002c0 90 3d d8 87 59 0d 76 bf 0d 27 55 97 25 e4 af 3f
       -0.005383825043750248 0.062287497256489834
0002d0 1b 0e 83 11 ac 2b a9 bf b7 a7 22 ce e4 05 b0 3f
       -0.049161317002951864 0.06258993179895254
0002e0 46 17 93 ce c9 21 6c bf dd 10 08 d9 86 87 b0 3f
       -0.0034340802709235422 0.06456797407742294
0002f0 d3 2c a2 a5 64 a3 b2 bf a0 8d fd 88 73 27 70 bf
       -0.07280568164621863 -0.00394387370019747
000300 9c 41 d5 93 f7 15 c2 3f e1 eb 54 c7 87 fe 99 bf
       0.1412953826752642 -0.025385018864863333
000310 0f 31 32 73 3a 40 b5 3f 0b 8e 44 b8 df e9 62 bf
       0.08301129639057002 -0.002308785393454254
000320 01 5f 65 8b c0 bd b2 3f 80 91 11 56 39 1b 7a 3f
       0.07320788768026533 0.006373619050553336
000330 40 99 b2 b0 96 9f 8b 3f af d5 c5 11 ab bc b9 3f
       0.0134879849122852 0.10053509887605715
000340 48 36 c0 f4 0d a3 b2 3f 2e ed cb 37 a9 88 91 3f
       0.07280051446306246 0.017122882872155624
000350 1b 88 5c 5c b6 10 be 3f af 77 8a 7b 19 ce b2 3f
       0.1174425101749254 0.07345732942709902
000360 a1 92 1e ae 2a 76 b5 3f 68 b7 d0 24 c3 c3 62 3f
       0.08383433104479333 0.0022906123545202613
000370 56 2c f3 c5 b0 23 9a bf c4 b7 92 64 fc aa b4 bf
       -0.025526773530867373 -0.08073403792761186
000380 b1 72 7d f6 dd c5 b3 3f bc 49 46 66 80 42 92 bf
       0.0772379614622405 -0.017831808321327122
000390 28 9f 96 a9 28 2b b2 bf 9a 83 a0 a3 b7 75 b2 bf
       -0.07097105160084693 -0.07210872406768801
0003a0 29 cd 98 0d 37 2b b2 3f 98 44 9d 3c e8 f1 8a 3f
       0.07097190935092058 0.013156713819315421
0003b0 58 2f 2c 27 aa 50 9e 3f 72 f0 0b bb 1a fe a6 3f
       0.02960458625879822 0.0449074128464141
0003c0 c7 01 ff 1d 46 7a ae bf 16 08 2e 88 33 51 a4 bf
       -0.0595266257873877 -0.03968201672888953
0003d0 48 26 24 55 28 aa 81 bf 21 33 97 4d fe b3 ac bf
       -0.008625331018737317 -0.05606074044371768
0003e0 fb f5 59 7a 48 11 ae bf 27 e4 98 26 82 86 a8 bf
       -0.05872560971782189 -0.04790121766240701
0003f0 6e 55 12 52 1f 12 b2 bf 93 09 45 e6 b5 ef a5 3f
       -0.07058902505590023 0.04284447132023952
000400 76 f1 4c e6 2e 66 9c bf b5 5b b0 ae d6 7e 90 bf
       -0.027733547979765537 -0.01610885087219645
000410 da 84 f6 73 9d 6b b1 3f 10 34 68 47 71 37 a1 3f
       0.06804832535864894 0.033626117674522615
000420 a5 c0 78 83 4a a7 a8 3f fb ef 54 f5 22 5e 78 3f
       0.048151329563894486 0.0059491506156597
000430 6c 5e d4 90 44 f7 b2 bf 5e 8a ee 97 2e 32 91 bf
       -0.07408550773504324 -0.016792991660290794
000440 9d aa 47 81 92 24 b6 3f 19 b3 59 73 12 6c a0 bf
       0.0864955487847205 -0.032074524479730644
000450 f8 fe 08 09 72 10 99 bf a7 d8 16 c5 02 67 70 bf
       -0.024476796914540494 -0.004004488773196402
000460 44 9e cf 0a f7 c7 a7 3f 18 65 75 12 66 af a3 bf
       0.04644748694391557 -0.038447561028713106
000470 e8 66 7e 6e 5e f1 87 3f ea a3 5f 76 b8 f0 a5 3f
       0.011690843340875515 0.04285217709531948
000480 33 92 a9 74 78 9a a3 bf 32 b6 b8 98 2b 84 a9 3f
       -0.03828789161778836 0.049836504357113745
000490 6c 01 6a bd 0a d6 9e 3f 2f 7d 77 fc b4 f3 a3 3f
       0.030113380251806474 0.03896871168012194
0004a0 61 c8 b4 36 2d e8 b4 bf 24 ee 7f 9a 3c 82 ad bf
       -0.08166773400879059 -0.05763425241454126
0004b0 8c 83 fd 84 b4 59 9b bf 78 08 08 b3 10 84 b3 bf
       -0.026709385506709135 -0.07623390551455766
0004c0 52 7a 23 13 48 56 b2 3f 07 f2 3f b3 da b5 5c 3f
       0.07162905184984794 0.0017523418182455745
0004d0 12 bb 35 4a dc 9f 9b bf a0 31 47 d3 ea 9e 99 bf
       -0.026977006940280886 -0.02502028383769217
0004e0 66 b3 dc c8 16 bc a5 3f 09 b9 a5 fd 76 4e b3 3f
       0.04245063020639499 0.07541602795183534
0004f0 8e 62 00 af fd 3d aa bf 98 f0 7c 3a e9 e8 76 3f
       -0.051254203426826725 0.005593215035158881
000500 54 84 49 87 6a 46 9a bf aa aa 55 28 b0 12 b2 bf
       -0.02565924120643033 -0.07059765801174459
000510 13 88 6b 9e ad f4 b6 3f c9 14 de c1 58 ba b3 3f
       0.0896709930198372 0.07706217511266113
000520 b2 b7 f5 06 c4 2e af 3f a5 e9 19 09 c7 fd 8c 3f
       0.06090366921385683 0.014155917134520754
000530 01 fd 52 28 20 63 b0 3f f2 da 65 41 9a 17 88 bf
       0.06401253685452347 -0.011763768311295195
000540 a6 f6 7a 12 18 37 7d bf 4f 1d 81 0b 1b 58 b1 3f
       -0.007132619888293645 0.06775063544147496
000550 2b 3d 5e e7 84 ab a6 bf 51 d2 18 ea 32 70 7e 3f
       -0.044277337306193175 0.007431219944511528
000560 20 8b 09 69 52 8d b6 3f 4e 2f f8 eb 73 d6 ac 3f
       0.08809390129458139 0.05632364516722409
000570 b9 c2 af f0 6f f8 8b 3f 21 75 d2 33 6d 8d af bf
       0.013657450230284739 -0.06162587411493293
000580 d3 1b c3 2f 90 1b b3 bf 38 9f 99 85 b6 c0 c4 3f
       -0.07463933149402573 0.16213113330308615
000590 59 dc 6f 96 94 ec 8a bf bb f4 16 ac 38 4b b5 bf
       -0.013146553841563756 -0.08317903710754397
0005a0 50 f4 b1 60 ed 9c 93 3f ce 78 c7 86 3a ef a1 3f
       0.019153317477038023 0.035028294518029676
0005b0 5e 19 a6 93 71 c7 a7 bf 80 b3 ae 54 a7 2b 7e 3f
       -0.04644350936273399 0.007365850101376803
0005c0 45 f6 db bd 1e bf 95 3f 12 6d ca 1c 53 49 b1 bf
       0.02123687776383167 -0.0675250954904423
0005d0 58 af 58 31 61 74 9f 3f d8 bd 31 4c cc 9d 81 bf
       0.030717390667788308 -0.008601757121339412
0005e0 29 31 b1 17 7f a2 a5 bf be 65 10 fd ef 19 9f bf
       -0.042255374567135746 -0.03037238103943251
0005f0 96 d5 13 1d 2e 93 7d 3f 02 92 85 79 71 f7 a6 3f
       0.00722044003599844 0.04485659225864326
000600 b7 55 c5 1f fc f6 a1 bf 1e ce e0 ec 7e d6 77 3f
       -0.035087469938541664 0.005819793512319231
000610 f3 fb fd b0 11 f4 b5 3f 78 c2 29 e4 60 e6 af 3f
       0.08575544901940173 0.06230452332682018
000620 b6 66 4f 85 89 11 99 3f b1 b7 e9 0a 9a 6c 82 bf
       0.02448096157227183 -0.00899620385936459
000630 fe 7b a3 3f 00 83 80 3f 34 3e 05 5c 76 66 99 3f
       0.008062364523025774 0.024804925314411544
000640 51 b4 c4 07 c5 34 a1 bf 25 14 d9 0e d8 76 b2 3f
       -0.033605725477493416 0.07212591516970741
000650 f9 65 63 b1 95 8d ac bf 61 15 dc b6 4b c5 9e bf
       -0.05576770582565511 -0.030049498592253147
000660 9d 7d a2 a7 d8 92 a7 bf 54 02 7d 67 fa a7 8b bf
       -0.04604222341844919 -0.013503986628735344
000670 c2 d0 15 7e 3a 0a af 3f 82 55 34 9c cd 52 61 bf
       0.06062491215826206 -0.0021146789382650586
000680 eb 07 46 bb 92 03 b4 bf 1b e4 ac 64 65 18 b5 3f
       -0.07817952224834783 0.08240350444693016
000690 77 c9 62 50 a7 ef b5 3f 02 8e fb 11 36 46 b1 bf
       0.08568807327791271 -0.0674775880721015
0006a0 d0 f4 48 16 82 1f b4 3f 5d 06 2f 77 6a eb ad bf
       0.07860577625338583 -0.05843670563582457
0006b0 16 77 52 09 22 7d b3 3f 9c 34 66 6f aa 95 ad 3f
       0.0761281273612123 0.057782484148540564
0006c0 6e b6 99 28 13 45 a9 3f 1b 8c ff 87 31 e9 aa 3f
       0.049355124193294894 0.052560375071856145
0006d0 14 b2 63 3e bd 7d 5f 3f 8d c6 1f f3 42 a1 9a 3f
       0.0019220684130757436 0.026005788888090953
0006e0 05 01 bf 75 6a 61 a3 3f 16 bf 79 46 8a 37 a3 3f
       0.037852599023155555 0.037533112624144646
0006f0 83 65 c2 cd 93 02 ad bf a8 6c 62 03 14 9a 86 bf
       -0.05666028868399577 -0.011036068299566118
000700 7f 2a 4e 99 50 3e a7 3f 89 1c e7 71 3d 2c b3 bf
       0.04539729949381854 -0.07489379912213869
000710 a0 35 da 84 e6 25 98 3f 62 31 9f 90 52 91 a9 bf
       0.02358207879892904 -0.049936847833665934
000720 c8 56 fb ba f3 76 aa 3f 08 88 ff 6d 91 de 9f 3f
       0.05168878228657331 0.031122467364078005
000730 10 ed de 3b cc 8a b1 bf e3 be 0f 4c 96 58 a3 3f
       -0.0685241361779172 0.037785240921832906
000740 14 b7 fe 37 84 70 8b 3f 1e 31 01 57 81 e5 ab bf
       0.013398201903182229 -0.05448536097591926
000750 19 e4 96 89 39 10 b3 3f d4 4d 69 6a cc 29 b3 bf
       0.07446632012478495 -0.07485654447491835
000760 56 db 76 fc b5 47 b0 bf 55 a8 5c 5e d7 9b ad 3f
       -0.06359422124556366 0.05782959963683313
000770 38 7b b1 09 b8 07 b1 bf 30 5e 05 15 7c a3 87 3f
       -0.06652403103497029 0.011542291060933157
000780 e6 6f ac d6 0e c4 a6 bf 24 88 01 6a bd 5a b2 bf
       -0.044464553551932615 -0.07169708097492894
000790 c5 78 f4 a5 d7 7b b6 3f e0 dc f0 d5 f0 9d ad bf
       0.08782718469271618 -0.05784561740477456
0007a0 b2 1c 79 e1 a6 2e ab bf 73 c3 30 cf 8e 64 a6 bf
       -0.05309030058247667 -0.04373594550305073
0007b0 ec bb 23 9f 1c aa a0 bf 09 23 22 06 8c d7 b0 3f
       -0.0325478500616255 0.0657889857267372
0007c0 d8 9c 69 4e 63 7d 91 3f 60 46 9b ef 8b 3c 64 bf
       0.01707987943737241 -0.0024702771305349785
0007d0 2e c3 a5 ca c7 1f a8 3f c8 e6 8a c0 ed e9 b0 3f
       0.04711746548389893 0.06606946898218802
0007e0 9e 6e 79 68 1f fd a4 bf ed f6 d9 b1 67 8e b4 bf
       -0.040993672850814664 -0.0802979287345484
0007f0 70 0d fd 5a e8 78 76 bf 2e fd bd 9c 47 d3 ae 3f
       -0.005486400259374732 0.06020568645817047

out.bias f8 [4]
000000 8b b0 82 94 6e 6b a3 3f fd 12 6b 12 2c d7 b2 3f
       0.037929015759204786 0.0735957665411426
000010 51 a8 d3 c1 83 cc 9b 3f 83 f6 31 33 18 c3 b1 3f
       0.02714734907650779 0.06938315629846596
