pygame_env/code/rlhf_dqn/dqn/model.pt (torch, 256403 bytes, 4 tensors)

fc1.weight f8 [128, 247]
0	0x3fa3648830a17c3e	0.037876373230340196
1	0xbf984a86ccbc4224	-0.023721796270424048
2	0xbfa85dc08ddf3ade	-0.047590272253378293
3	0x3f9d9fe3672576d8	0.028930237932732833
4	0x3f919a11b50b8de8	0.01718928973686032
5	0xbfa5bdb660ea4eab	-0.04246301587150233
6	0xbf83e3e8a8ec5f3c	-0.009712045340662827
7	0x3fa7c451233f1056	0.04641965441945277
8	0x3fa1997240658222	0.03437382732477469
9	0x3f8047374a560dc8	0.00794833369832916
10	0xbf9970d10aec367a	-0.024844423572224696
11	0x3fa61c08c0119409	0.04318263382518956
12	0x3fa9eca3458da842	0.05063352798499966
13	0xbfa647e2bc2f8404	-0.043517194244266505
14	0xbf711ddb67f554b8	-0.004178864531543862
15	0x3f959bd376dd334c	0.021102241639982908
16	0x3fa3509c15ade20a	0.03772437824858706
17	0xbfa7d4216f953959	-0.04654030310722374
18	0xbf9aac3fca66ef6a	-0.026047703484194974
19	0xbfada2c40a770e92	-0.05788242938754452
20	0x3f9e8f0f56ab477c	0.02984260527120551
21	0x3fa9d7128318f33d	0.0504689965277749
22	0x3f57c7f4d76765c0	0.001451481917334227
23	0xbfae4e04e8d742d0	-0.05918898908897108
24	0x3f593d207cebcf80	0.0015404526963580245
25	0xbf984590a75876e4	-0.02370286961933389
26	0xbf94f2c36d96c4e8	-0.02045731884363003
27	0xbfa3c9e6c5172774	-0.03864976077927809
28	0xbf84d1a1e9b67d70	-0.010165467209673124
29	0xbfa076a35b002270	-0.032155136927092154
30	0x3f8c6b1f886f1570	0.013876196242459143
31	0xbf90fbf3d0f98f94	-0.016586122159779018
32	0x3f8d43537e1b6cc8	0.014288570676788473
33	0x3fa23841c8f348f0	0.035585456638402735
34	0x3f9645bce0df1ce0	0.02175040361887859
35	0x3f70836330322f80	0.0040315508405334155
36	0xbf9b82be65388e78	-0.026865935256991297
37	0x3f56bc9a7ffdbd00	0.0013877400196767309
38	0xbfa119b0abf62a8a	-0.03339912509098493
39	0x3f99bf43dfe55020	0.025143681087982483
40	0x3f9f89512c7932f0	0.030797260608141863
41	0x3fa75594b339c754	0.04557480514348691
42	0xbfa02767df1c5180	-0.03155064199941915
43	0x3f9752f453554354	0.022777383409734966
44	0x3f8b85d77edf22f0	0.013438876685442719
45	0x3fad9c50d0318b5e	0.05783321896958314
46	0x3f856a49fcb17ed0	0.010456636451805862
47	0xbf77f4c1170c65e8	-0.005848650224629527
48	0x3fa5faeb5029d281	0.042929986510817926
49	0x3f91e5c84a35ffac	0.01747811272571169
50	0xbf989cfeee9f462a	-0.024036391558018767
51	0x3fa0f2d43d93c096	0.033102638737433285
52	0xbfa1c2b973ff3be1	-0.034688754472533175
53	0xbfa2ca3521a62842	-0.03669897113566424
54	0x3fa6f7d64eb0cff8	0.04485959730700978
55	0x3f993344af4c635c	0.024609635543217365
56	0x3faca8415c9fbeb0	0.055971186215058366
57	0x3f6deda65e50f2e0	0.00365335935432963
58	0xbfa13a7d614fe78d	-0.03364936650173354
59	0x3fad5dbafa45ef18	0.0573557310590031
60	0x3fa95eb488a99460	0.04955066841356692
61	0xbf758144e2936858	-0.005250233728668695
62	0xbfaa8ddd82566901	-0.051863596115440565
63	0xbf91a076bd34d38a	-0.017213683412780102
64	0xbfabf74d2cb3bb0c	-0.0546211354320488
65	0xbfa880dddd1ac073	-0.047858174553199094
66	0x3fa816fad8027f0c	0.047050322407129114
67	0xbf988c4595afab18	-0.023972594510193707
68	0x3f8579abb543b320	0.010485974759342265
69	0x3f933c222c697560	0.018784078560533657
70	0x3fa597a3a264d69b	0.04217254025790603
71	0x3f93be0f20b60898	0.01927970540192145
72	0xbf9b0c5d39a3e7dc	-0.02641435303028304
73	0xbf9e179f75cbed6e	-0.02938698917840326
74	0xbfafee01c27cc34f	-0.06236272334206793
75	0xbfa9508a0b4ae983	-0.049442590597624146
76	0x3fa10afcbb6ab40e	0.03328695094874244
77	0xbfa00e3a81d4899d	-0.03135855517236339
78	0x3fa6d9381ad8d840	0.04462600066874289
79	0xbf9e152d9fea54e6	-0.02937766350313078
80	0xbf738ff0cf6187c8	-0.004775944389708138
81	0x3fabd25011276dea	0.05433893403434438
82	0xbfad80d531a36546	-0.057623541173323065
83	0xbfa25e2935c74adc	-0.03587464124179515
84	0xbfa828e4b53b42a0	-0.04718699180887609
85	0x3f860a0dfabf4b78	0.0107613651415812
86	0xbfac80c45b065e68	-0.05566991435187846
87	0xbfa6cb58d10ea67c	-0.04452016403167833
88	0xbf9683a17720b77c	-0.021986506362899658
89	0xbfa8169b3607e358	-0.047047472329672047
90	0x3fa7e878bbbc1738	0.04669549266513545
91	0x3fab540accc63440	0.05337556600270732
92	0xbf3a34b5aee96200	-0.0003998702585810421
93	0xbf9ee7b36080422c	-0.030180742993311124
94	0xbf994b0ada3687e6	-0.024700326508202773
95	0x3fac04aa1f26e8a8	0.054723087599499565
96	0x3f9f77339e47c198	0.030728155646956162
97	0x3faf2d5569da26b6	0.06089274327412168
98	0x3f87f2cff30772e0	0.011693596462401812
99	0x3f9324778fdca854	0.018693798213611793
100	0x3f9957b40afe4c18	0.024748624011021375
101	0x3f9a213b682607fc	0.025517395240520088
102	0x3fa61b7700bfb514	0.04317829021588629
103	0x3f8787a3ef0cd618	0.011489182217341784
104	0x3fa1cfff1fd51302	0.03479001296594754
105	0xbfad4834022633df	-0.057191491377217345
106	0xbfaa93d80e931952	-0.051909209994436836
107	0xbfac82cc91d2e345	-0.05568541793895191
108	0x3f8a9e9ca2b0e630	0.012997840609489136
109	0xbf8422a4a527b6dc	-0.009831701555380538
110	0x3f8342b14fa28070	0.009404549830208192
111	0x3fa0d1a7b1506266	0.03284954108693654
112	0xbf9cc041343c6876	-0.028077143491011168
113	0x3f8bbf6eb57abc68	0.013548722184479625
114	0xbfaa95b2eb4ac879	-0.051923361990149304
115	0xbfa5e15a42a9735c	-0.042734928739014605
116	0x3fad5fd91994e22e	0.05737188756251431
117	0xbf8ce11cdc083d6c	-0.014101243462418998
118	0xbf6895bb39976190	-0.0030010849702472656
119	0xbf9bb7845c3e451e	-0.027067249422150323
120	0x3fa5c5d6a7142302	0.042525012870163095
121	0xbf9147c512251356	-0.01687534259078246
122	0xbfabf3b60249e703	-0.05459374216020587
123	0x3fb00b9e09901cc7	0.06267726644010728
124	0xbfae2f036cb0ee13	-0.05895243360324911
125	0x3fa89fd3eaf82248	0.0480943893745161
126	0xbf85ca99aafa3d64	-0.010640335588759604
127	0x3f9223f9bcefee7c	0.01771536079102852
128	0xbf4e95b66b35da00	-0.000933374473261861
129	0x3faa4aa0af1b6b90	0.0513506139520451
130	0x3faf533a47ac525a	0.061181851624642916
131	0xbfa47c2138fd0cc2	-0.04000953503284556
132	0x3fa7c4ee7254a4a2	0.046424342590691184
133	0xbfa74afc1b514b30	-0.045493963560735984
134	0xbfb0488afd5ef175	-0.06360691724598218
135	0xbfa5da1e938b6e10	-0.04267974425394183
136	0x3f7ce62e54051bd0	0.007055455178778439
137	0x3fa1dca9c5aa9a94	0.034886651400758556
138	0x3f9f2f5687cee508	0.030454017676423667
139	0x3faaebaf3bf5a8f2	0.05257938010147879
140	0xbfa20a78f9ccfb2a	-0.035236149304628775
141	0xbf87edb694649090	-0.011683870700444993
142	0x3fa1307c3e369800	0.03357303866805239
143	0x3f9dd28d6e167f60	0.029123506397467636
144	0x3fabc3f8cb86e1bc	0.05422952160319336
145	0xbf9d53a8a76492c0	-0.02863944551167452
146	0xbf9048797fc7e70a	-0.015901468681454957
147	0xbfabe62483a7aa1a	-0.054490223952445585
148	0xbfa22a9dde48a390	-0.03548138941216117
149	0xbf97980fe31dfd14	-0.02304100822175055
150	0xbf91c0573c60d9fe	-0.01733528429050501
151	0x3faade1d66d6766a	0.05247585182517585
152	0xbf98d7a95bf969ce	-0.024260183561958297
153	0xbfa54d68a96203cb	-0.04160620753919594
154	0xbf81953cf4bab2a8	-0.0085854303536846
155	0x3f998130444769bc	0.024906877677361314
156	0x3fa23a4d2debb2dc	0.03560105500750918
157	0xbf72071bc3fe5918	-0.004401310405134383
158	0xbf9505fd4312ebc2	-0.02053065988432557
159	0xbfaeeec39c624521	-0.060415375556781344
160	0x3f8e315828f69078	0.01474255442628468
161	0x3fa614f6f97600d8	0.043128698303009194
162	0xbf92177fbeb95914	-0.017667766586179814
163	0xbfb170d03be23f6c	-0.06812764608389238
164	0x3f97371b17877ba7	0.02267114955054308
165	0x3f9b83182f10cd7b	0.026867273209246072
166	0xbfb1593f004b3d80	-0.06776803738761394
167	0xbf9a080ed23e50dd	-0.025421363432159495
168	0xbfb047131556b8d5	-0.06358451148000495
169	0x3fa3792f6b5ac660	0.038033944945152554
170	0xbfb17f891beeb225	-0.06835228855079174
171	0x3fa0966b25511c06	0.032397602372434206
172	0xbfacf7b32d9a17ec	-0.056577300373689215
173	0x3fa43b592339fde8	0.039515290784944146
174	0xbfa1f213b9897e00	-0.03505002632004661
175	0xbf990e90a3003127	-0.02446962351682305
176	0xbf9cc49f23670d64	-0.028093802009391836
177	0xbf8d9946fdfb604c	-0.014452509523309363
178	0x3fa472f7e80f6a4e	0.03993963916555697
179	0xbfaa9c964c27d23e	-0.051975914760906225
180	0x3fa70760190a6f9a	0.04497814469979673
181	0x3fadff34f21bf8d6	0.05858769851146099
182	0x3f96989137c573b4	0.022066372899064837
183	0xbf6290adb0c44940	-0.0022662536995393945
184	0xbfaa93c7e51bcdb8	-0.05190872833000121
185	0xbf77e2c954d18a28	-0.005831514788129634
186	0x3f98ad91d1721d10	0.024099615486673776
187	0xbfa23a27b635314d	-0.03559993838516338
188	0x3f9861df189e9197	0.023810850026750065
189	0x3fa6305231084c68	0.043337410436060264
190	0x3f8b94bd23167fd0	0.013467290528581005
191	0x3fac708d6ff933fe	0.055546207350381835
192	0x3f8eb8de41f0bee8	0.015001045596448617
193	0x3f84f305a8da975f	0.010229152884970892
194	0x3f7580b2a1960720	0.005249688890559573
195	0xbfa147f7fd08b849	-0.03375220264239027
196	0x3f7b5b9f16747c70	0.0066791738857140265
197	0xbfa62bb31acc8a00	-0.04330215170036311
198	0xbf910e7c3251b6fd	-0.016656818934669627
199	0x3fa573d6efebadae	0.04189941099852078
200	0xbf81d64f93423020	-0.008709546739076812
201	0xbfa1e8499e469f86	-0.034975338526520836
202	0x3f9dc0fb3021eae4	0.029056477368139336
203	0xbfab9c121917f1c9	-0.05392509990994971
204	0x3f9e36946bff786c	0.0295050803105074
205	0xbf521d1082c25486	-0.0011055623281539819
206	0x3fa08b4d551154f2	0.032312790521851556
207	0xbfabc053080fce66	-0.0542016932812686
208	0xbf827aa29edb665c	-0.009022970650607913
209	0xbfb0239648f9d506	-0.06304301530493114
210	0x3fac09996e51baf8	0.05476073714895863
211	0xbfaf624eee2ac9a9	-0.061296907971512944
212	0xbf8ebc6657ffd1b4	-0.015007781563306156
213	0xbfa847529533e246	-0.04741914817163155
214	0xbf908ff7002fec7c	-0.01617418230669586
215	0x3facbbfb726ae31a	0.05612169048021638
216	0x3fa7ac76d0eb421c	0.04623767185478675
217	0x3f7b755c26ef7710	0.006703720063311783
218	0x3faff1415e36fc3a	0.0623875072010311
219	0xbfacd97fee2bfd8c	-0.05634689123507561
220	0x3fa22c71ace4e602	0.035495331149331136
221	0xbfa0c4575b32047e	-0.03274796474671236
222	0xbfa0e9dd8a5ef48e	-0.03303425134752401
223	0x3f9dc093f4de4064	0.029054939098898905
224	0x3f95699c797fe547	0.02091068736624393
225	0xbfaf8c80abdc48da	-0.061618824938834485
226	0xbf9e15349959897a	-0.029377767429090686
227	0xbfafd7fc3debd9be	-0.062194712218047496
228	0x3f91b7a382133588	0.017302088560247536
229	0x3f55adfed307227b	0.001323222019083441
230	0x3faa6da3898fb2b2	0.05161772779670083
231	0x3fa29404aeed7dfc	0.036285539964179464
232	0x3fa84d579893d986	0.04746507394331716
233	0x3f5e45046047317c	0.0018475096450059894
234	0xbfb0a2c39dad6743	-0.0649835834459767
235	0xbf861bb68c5fa83d	-0.010795046004165804
236	0x3fa1abbe9ea82aa2	0.03451343237619155
237	0x3fa017847055efb4	0.031429423058369294
238	0xbf906edaf7281abc	-0.016047879538769946
239	0xbfa6ad0368f146bf	-0.044288736877786665
240	0x3fa245a6c68f71f6	0.035687648523637636
241	0x3fa46f6a50784fe0	0.03991253120707916
242	0xbfa9dcaaffe10037	-0.05051168797990651
243	0x3f99e35e90ade5cf	0.025281407909892025
244	0xbfa1e55f40d08dc6	-0.03495309511370297
245	0xbf887ea53a207cb4	-0.011960306965248392
246	0x3f5f2dcdd4b6cf40	0.0019030103747867538
247	0x3f995b9e364be44c	0.024763557495109986
248	0x3fa70019ba5234d4	0.04492264174869268
249	0x3f9f3d93badd0304	0.03050833538077581
250	0x3f9f7d6014e45c68	0.030751706385754224
251	0x3fa0f058623237ca	0.033083688723408125
252	0xbfa9937a78bb0622	-0.04995329593431232
253	0xbf90e73cb6238764	-0.016507099739903622
254	0x3f97c00b25a6a390	0.02319352547934589
255	0xbfa84e7f4fd3e315	-0.04747388696154623

fc1.bias f8 [128]
0	0x3f9a81d4b26d2fb7	0.025885890379228473
1	0x3faa5d88f3772f3f	0.05149486515037304
2	0xbfa9e78f6b2ef04d	-0.050594789346604864
3	0x3f931896b1db91cc	0.018648485761234387
4	0xbf735ee63d0bde0a	-0.004729174965852243
5	0x3f71ffd75f44be70	0.004394379899437348
6	0x3fa7e6b40b9c5c9a	0.046682001511890905
7	0xbf7d75aebb489c1e	-0.0071923089458670025
8	0x3f948332c8abf1b8	0.020031732080484338
9	0x3fb222e675d8685f	0.0708450353344303
10	0xbfa418b3ec58c6af	-0.03925096759884405
11	0x3fac3a08760ea990	0.055130257045067244
12	0x3f917cd0b67bbb90	0.017077695024393658
13	0xbf91eac9ce6d0c05	-0.017497208809128768
14	0x3fa5ae2777e49db0	0.04234431589639642
15	0xbf542162588f3f39	-0.0012286625299004607
16	0xbf96d31757cf2a56	-0.022289623960924786
17	0x3fa3ab4160dcddc6	0.03841594989210821
18	0xbfa997292db5837c	-0.04998139079066896
19	0xbf8ec7c4178361a0	-0.015029460876051115
20	0x3f9ed70fb2e78bac	0.030117268843138298
21	0xbf9c72fdc4d48c5c	-0.027782406939092716
22	0x3f921cbd05520f6b	0.017687753152599777
23	0x3f90fcd6ced51cb6	0.016589504598667225
24	0xbfa22545f825addf	-0.03544062284603532
25	0xbfaa283680af325e	-0.051088050087490386
26	0x3f858c5dbba25c81	0.010521633423463907
27	0xbf9c6fd109ccd86c	-0.02777029630961929
28	0xbf8b205ef20499bc	-0.0132453363044761
29	0xbfafc158cf1edd8c	-0.06202199486090895
30	0xbfa2bc9fef29ead0	-0.03659534258345831
31	0x3f919247b27003c3	0.01715957666965885
32	0xbfae46dbf20d3734	-0.05913436250430806
33	0x3f97ba4ded1af21a	0.023171632382160558
34	0xbf93e6ffef5896e6	-0.019435881598972048
35	0x3f90659b9bbf0964	0.016012603169437326
36	0xbf8adc7a518b8895	-0.013115840543324967
37	0x3fabc44178185168	0.05423168745997736
38	0xbf85c3d86dd1f5ce	-0.010627451754994601
39	0xbfb0002b7d6b806c	-0.06250259220132798
40	0xbfac937aedd024ff	-0.05581268456450949
41	0x3f80dae0af4ad714	0.008229976033685506
42	0x3fa4469b41ea65ea	0.03960118465074543
43	0x3fa6d73606686a34	0.044610679895601996
44	0x3fa440defd79be2b	0.039557426874008726
45	0xbfac27d4f185d581	-0.05499139259601816
46	0xbf8404e62c4d777b	-0.009774969317444029
47	0xbfb27130f7775ac7	-0.07203966180473308
48	0xbf81202714bbb9d4	-0.008362107582311852
49	0xbfae8794307e5f5f	-0.059628134650835156
50	0xbf9d604943fc5399	-0.028687615179552848
51	0xbf9bf9eabf842940	-0.027320545138573182
52	0xbfae329cc6d96db9	-0.058979892037963784
53	0x3fa49bf45219f5fa	0.04025233747686836
54	0xbfa1088b24f5b996	-0.03326830698175624
55	0x3fa27c661ef16fa2	0.03610533836101061
56	0x3f9ab212471297ac	0.026069913471154102
57	0xbf851a7441f7cd90	-0.010304363501723285
58	0x3f9d630625edbdf3	0.028698059144003762
59	0xbfa1560ca65ae1bf	-0.03385962992382784
60	0xbfaddedfa1f2bd0c	-0.058341015357081444
61	0x3f930e11ee1d234c	0.01860836044150753
62	0xbf8bf5e66a3225a1	-0.013652610889283436
63	0x3f8e116a0e219f1f	0.014681652599577042
64	0x3fa003f410543f39	0.03128016185121258
65	0x3f7f09c69a7ad1e0	0.007577682299303196
66	0x3f9dc836d5162938	0.029084069019100073
67	0x3f7cb0b1c9f26e90	0.007004446494785946
68	0x3fa7ee1c40ed99a9	0.04673851292209303
69	0xbfb296415de58deb	-0.07260521452331374
70	0x3fa9c0cee35ad95c	0.05029913449600329
71	0xbfa8a3eb39c17f28	-0.048125601578020316
72	0x3f85ae404ac56280	0.010586263925391082
73	0xbf74ee6fac468665	-0.005110203001466117
74	0xbf9417ce695c65d6	-0.01962206380912853
75	0x3f62ad63303a6deb	0.0022799432061455425
76	0xbfa30f0b55ee0725	-0.03722415374705993
77	0xbfa5b6d704e75756	-0.04241058287486392
78	0x3f9cd9f75294c35c	0.028175224700308518
79	0xbfa0995ffbb02182	-0.032420157884248915
80	0x3f985d4be3cde3cc	0.02379339769274562
81	0xbf83866d21e0b65c	-0.00953374156605518
82	0xbfa8ef3f9e202c33	-0.04870032124753045
83	0x3f9acbca7725b430	0.026168025514767546
84	0xbfa1e885a5c6fe62	-0.034977127539147515
85	0x3f9b0538f1a18ee0	0.02638710951613532
86	0x3f8e19630aca9bb0	0.014696859137371593
87	0xbf8839c2fd423eb0	-0.011828921655506391
88	0xbf92f8436532f23a	-0.018525174190232564
89	0x3face575fd9e9b1c	0.056438147744577644
90	0x3f821af37b0168f0	0.008840467635469612
91	0x3fa93b7b33ae0f22	0.04928193097933177
92	0x3fa5f2c1a402d041	0.04286770941817553
93	0xbf78c06f4e18d1d8	-0.006042895112433354
94	0x3fa448c921a092ee	0.03961781058777612
95	0xbfb2194a88a7903f	-0.0706984122876415
96	0x3f9e6c4024e04d7a	0.029709818125480215
97	0x3fa2895828cd5611	0.03620410440514033
98	0x3fa48fb079c3b4a2	0.04015876280195953
99	0x3f86ad13c8c51fa4	0.011072306217684354
100	0xbfa4d0684842bc94	-0.0406525219162798
101	0x3f85408f5b2662a4	0.010377044648337837
102	0xbf9d0f00574a1e84	-0.02837753803990363
103	0x3f948ad27dedc08c	0.02006081479652315
104	0x3fa14a862ccb1b7c	0.033771698921149146
105	0xbfae529666e8d48e	-0.05922384268016244
106	0xbf9642c6d2d7b722	-0.02173910772210442
107	0xbfb26623df6a678f	-0.07187103466495003
108	0xbf7994b9154ad635	-0.006245348912377537
109	0xbfabb8315dbcfaef	-0.05413965482011018
110	0x3f9770b840a97718	0.022890929171231894
111	0xbfaf9ddbbe7accd6	-0.06175123882476334
112	0xbfa87f208101a5d0	-0.04784490179811096
113	0x3f8530a782e544d8	0.010346707040897504
114	0x3f96c784da8d44fc	0.022245479430528
115	0x3fa9a8e05a6e6584	0.050116549529046345
116	0x3facd4634a6a1ebc	0.05630789073353301
117	0x3fa0bd02fae173f0	0.03269204437740558
118	0xbfa993d45ed9b9f2	-0.049955975130490674
119	0x3fa8527bc36d8585	0.04750429878800858
120	0x3fac3de36479f566	0.055159669890580784
121	0x3f4a69e704d4348f	0.0008060815831939671
122	0x3faccab015403520	0.05623388537797269
123	0xbfad966fba049499	-0.057788363892805346
124	0x3fa637d5f422a7a0	0.04339474301498503
125	0x3f94f433a5e5081a	0.020462805748373204
126	0x3fa51cde4b7935f8	0.0412358729487145
127	0xbf9bed1c810ff78f	-0.027271695496885292

out.weight f8 [1, 128]
0	0xbfa85e793678a23d	-0.047595775508231665
1	0xbf844bbecfbb8cfb	-0.009910097803589304
2	0x3fb504c1ab8e3b87	0.08210382879609145
3	0xbfc20350681e608f	-0.14072613796156871
4	0x3fb37fd05761a63b	0.07616903432212833
5	0xbf89751416c5c600	-0.012430340714419508
6	0x3f8e6feeb636c56a	0.014861931739548157
7	0xbfb30151a46946d2	-0.07423887504526341
8	0xbfb541b792595807	-0.08303401301358813
9	0x3fb4852de67c8458	0.08015715481862296
10	0xbf8aa97e9805e73a	-0.013018597616553874
11	0xbfb348f6b4c6416a	-0.07533208764494295
12	0xbf8275d37d571af8	-0.009013798010426552
13	0xbfa879fc3d825895	-0.04780567408413209
14	0x3f924af4b8f7fe34	0.017864059247584232
15	0x3f7ad6a14681035d	0.006552343351416604
16	0xbfa9788f712d8047	-0.049747927251474304
17	0x3fa6f77a48935d92	0.044856854781467295
18	0x3fd3063f043c485c	0.2972562352525807
19	0xbfab317260d62aa2	-0.05311162407004601
20	0x3fa26e25410e2d82	0.035996593657809065
21	0xbfad67731728348c	-0.05742988259962897
22	0x3f9134727344cafc	0.0168016321997113
23	0xbfc0705818c65cce	-0.12842847070417068
24	0x3f959eefcacd5900	0.021114107850132235
25	0x3fb5754e56ace981	0.083821197663303
26	0x3f94360d1851f494	0.01973743878305763
27	0xbf8a883da5ba3a08	-0.01295517122278246
28	0x3faad8c983e1257a	0.05243520483834181
29	0x3f7fb145605d74c0	0.007737418176330724
30	0x3f79b25e15a7533b	0.0062736201457099195
31	0x3fb675087c8cdc97	0.08772328415658347
32	0x3f593d0c8d65dff7	0.0015404341298488314
33	0xbfb03d96b0d5be40	-0.06343976800212037
34	0x3fb2345f587045ec	0.07111164006371212
35	0xbfb77d69dd6c4200	-0.09175740867454607
36	0x3f86d47ee753eb49	0.011147490915836793
37	0xbfa4d0d3a7fb0fa2	-0.0406557219080519
38	0x3fafc47d15781097	0.06204596411774437
39	0x3f9b32c2bf07a268	0.026560824307951952
40	0xbf88b46cb6db0167	-0.012062882738405901
41	0x3fae12115692c9e7	0.05873159581951253
42	0x3fb4c1c373ede086	0.08108159618666563
43	0xbf97c2a5dcd2fd67	-0.023203460314787174
44	0x3fb8ec02742011f8	0.09735122046556188
45	0x3fc9301fa4ad8027	0.19678111592202294
46	0x3f3feab433c50b87	0.00048701190441507346
47	0xbfa19ed22c7efbeb	-0.03441483300365874
48	0xbfaf40afc754c26c	-0.06104039486161103
49	0x3f90ac1514fa747e	0.016281442075172674
50	0x3fb7a21dcb49bd20	0.09231744969450917
51	0x3fb0666b17d6fc39	0.06406277973199871
52	0xbfadee054e7b5dd0	-0.05845657904654511
53	0xbf954b063bfbcec0	-0.020794007693395455
54	0x3fabb1a5f38a6491	0.0540897235670822
55	0x3faaa875e0a80a1e	0.052066501306416976
56	0x3fa8c02dbe1efb70	0.04834120698750766
57	0xbf9b7d47909a1a94	-0.026845091057590212
58	0xbfab2b3d00e24525	-0.053064257009405126
59	0xbfb1ea63429fad23	-0.06998272301250501
60	0x3fa9bc0033fed4c4	0.05026245722494019
61	0x3fa876e06888b7c2	0.04778195644426787
62	0xbfb0f97b8888bddd	-0.06630680163720322
63	0x3fa80409e4d75170	0.04690581243963521
64	0xbf9e8b31553577f9	-0.029827853036628913
65	0xbfc074a45a6d8e4e	-0.12855963149478317
66	0xbfa891f5c8f16bf2	-0.04798858716886646
67	0xbfb347da6d6dbbc4	-0.0753151433143407
68	0xbf9434601a965526	-0.01973104631686797
69	0xbfc197bffca7fbf1	-0.13744354092338498
70	0xbfa46c0f0acafd4f	-0.039886922900672965
71	0xbfb0d97eec868816	-0.06581872248219187
72	0xbfb504ce8f410592	-0.08210459706699272
73	0xbfb2094d2366d1c1	-0.07045442690179639
74	0x3f94b81707d1ef19	0.020233497478769544
75	0x3fcaf8e85f767aa8	0.21072106038351035
76	0xbf53abc2cdb880e4	-0.0012006189707634502
77	0xbf54a27e9c42243d	-0.0012594448499234766
78	0x3fb2cf05b1d086fc	0.07347140875983976
79	0xbfb2f81fc506519e	-0.07409857330487177
80	0x3fad48b01b95a246	0.057195189826249535
81	0xbf48702e5d4c8f23	-0.0007457949055589035
82	0xbfb0aa548848afed	-0.0650990326618623
83	0xbfade664347c8754	-0.05839837208465207
84	0xbfa33a761077c25c	-0.037555398473959584
85	0x3f9b5c86a07edb9c	0.026720145746107357
86	0xbf71a96473f6eb00	-0.004311935801008415
87	0xbfab4568dfbf9ec4	-0.053263928711940106
88	0x3f9a8195d4580f18	0.02588495358032991
89	0x3fb19145de31d409	0.06862293886827343
90	0xbfadee3cb9cac77a	-0.058458230666828606
91	0x3f9c9c922d61c28a	0.027941020984544575
92	0x3fa3296b3309554e	0.037425374965702404
93	0x3f934ae4c1c95714	0.018840383842266453
94	0xbf9fa62823b0c536	-0.03090727537000256
95	0x3fb073c6fecbab78	0.06426662178607312
96	0x3fa0e2f794a48c10	0.03298162164198726
97	0x3fa1ef24376cadc9	0.035027629628838826
98	0x3fa080bc2a0bbc37	0.03223217023138896
99	0x3faf27cf092125e1	0.06085059153026485
100	0x3fb1121f77794cfd	0.06668278376428201
101	0xbf8f2b328582523b	-0.015219111155866041
102	0xbfacf3977cb67333	-0.05654595754024285
103	0xbf6df77a12f7fb57	-0.0036580452212996817
104	0xbf81b20bc82ee46a	-0.008640377089124313
105	0xbf98439e42692394	-0.02369544296587696
106	0xbfa30abd3b33abb8	-0.03719130847624491
107	0xbf982bd4586ebc9d	-0.023604696176047758
108	0x3fb2007b7f122610	0.07031986095730525
109	0x3fb6db9ab81a11c6	0.08928839678453135
110	0xbf9f76f7f52ebe8c	-0.030727266635663983
111	0xbfb5496cb9660a4a	-0.08315162206967233
112	0x3fb8045e999098c7	0.09381667374745738
113	0xbf69d0166b1aade2	-0.003150981698885267
114	0x3f45166600c20e00	0.0006435392438252641
115	0xbfaedce05e65b456	-0.06027890350637992
116	0x3fa99ac9da9c2f52	0.05000906747417723
117	0xbfb6327a45e9dcf5	-0.08670772749779927
118	0x3faf27cff14fa95e	0.06085061855977146
119	0xbfbe54f1eed156aa	-0.11848365860472634
120	0x3f972e91fb3d51e8	0.02263858886665729
121	0xbf989a629bfc35b5	-0.024026432772236556
122	0x3f9a232e8bd9f674	0.02552483299813564
123	0xbfa3e37cf7ee6c1b	-0.03884497190957622
124	0x3fb586ab7efda29c	0.08408614969597256
125	0xbf87cbda2ae822d0	-0.011619285997782752
126	0xbfb540e2081bae2d	-0.08302128503753954
127	0xbfa917b6350d83ed	-0.04900903127305143

out.bias f8 [1]
0	0x3fb13b23faf5ba87	0.06730866314840443
