pygame_env/code/RLHF/rlhf_dqn/model_maze3.pt (torch, 60023 bytes, 4 tensors)

fc1.weight f8 [64, 112]
00000000: 38c9 bc01 84d4 a0bf d80b e6e7 0f11 a83f
00000010: e0d3 e338 ce37 ae3f 2fe6 9d0f 1789 b7bf
00000020: 6881 4060 1c95 8bbf b065 e801 4f86 993f
00000030: 687c c807 85af 8b3f e55e 323f 7c09 b7bf
00000040: f8d0 57fd 5adb a63f bd26 dc53 10a1 c33f
00000050: 809a 333f a347 61bf 6c73 4f75 7651 963f
00000060: 5702 2f59 f26d b1bf 028f 728f 44e9 b8bf
00000070: c291 545a 816b b63f 04dd 93d8 061e 933f
00000080: 1cc9 700e 87b6 c43f b80e 0aa5 5f20 afbf
00000090: fa26 8ce5 5e19 b53f 3a58 6557 c6f0 bebf
000000a0: b8e0 6d3b 1bc7 833f 4c42 0fe2 178f 9fbf
000000b0: bd73 8a8b 99e9 81bf 8ebe cfc4 fdcb b03f
000000c0: 1039 8cd8 bcbf ad3f b587 1dcc 4f6f b0bf
000000d0: 6c56 8519 f93e c4bf 5262 5b1a e145 afbf
000000e0: 8a13 6b6e 9b64 a53f 54c1 bd08 8604 a6bf
000000f0: a09f 16a7 2d31 85bf 5241 26ad fe74 b2bf
00000100: 37fa 4874 bb66 a7bf 64a1 15e4 a01f 99bf
00000110: 802d 89aa e155 873f 0868 b65b b126 a63f
00000120: 156d 3491 04de a9bf 40da 7504 634f 703f
00000130: 5c4d 7a96 17ac b53f 9c5e e2bd 6217 a43f
00000140: 00c7 47fc 3140 4f3f e64a 854b 0780 b43f
00000150: 4064 5515 2694 69bf 6a69 8268 fcd5 b1bf
00000160: 9dc5 0da0 7caa a5bf d861 1101 4530 afbf
00000170: bf03 b788 920e 91bf 0000 76be 0bc0 7b3f
00000180: a0f3 da19 5af4 9c3f 0474 9ed3 dca5 b0bf
00000190: 4e03 e0f7 b7e2 b53f c4e5 0cb5 a2e0 b0bf
000001a0: 000a cba5 8d52 743f a442 10e4 ffd7 b33f
000001b0: e8c9 c831 0074 a83f cc1a 0106 8cd3 b5bf
000001c0: b3b4 badb c8ee a7bf 48ff f0a9 43a9 a83f
000001d0: 4be0 ba4b c25c a1bf e0e3 950f 2c56 6f3f
000001e0: 55b6 38a4 a93c a5bf 889b 10de a9a9 ae3f
000001f0: 62d3 2301 5533 b03f 0487 6581 4ba4 b53f
00000200: 6464 9592 daab 91bf e6ab de0d 6ed0 b2bf
00000210: 18d7 b5ea 9e8e 80bf 1c54 b8e2 6a0e a93f
00000220: 2028 dabf b801 b4bf 7e8d d4f4 fa75 b5bf
00000230: 7883 1903 f498 92bf b5f2 d0e2 95ec abbf
00000240: e446 a187 5f82 b83f 28fb c6aa a19e ae3f
00000250: 4229 8db0 9690 ba3f 88fd d002 c44c ac3f
00000260: 8f00 a549 51c9 a53f 15d3 22e2 d0bd b03f
00000270: 1412 8835 3ca7 883f bc07 95cd 6dda ac3f
00000280: 2c61 c8d5 55d0 b7bf 0f34 c826 4a64 a2bf
00000290: d73d 1202 1342 a2bf 10ba 5f1f 9ede a83f
000002a0: fd29 9ada 5636 983f 34f0 e7ea 1863 9d3f
000002b0: 7f55 f703 6713 b1bf 952c 66e0 ec51 93bf
000002c0: 4467 1fc5 feda b13f 2442 f06c e9bc ad3f
000002d0: f612 04ef 1ba3 9cbf 8a1c 64b8 0ac6 b33f
000002e0: 3fe0 1e73 66b3 a43f 283f eba4 087a ad3f
000002f0: 0303 e132 be1d afbf c38b 3428 6020 a63f
00000300: 82a0 97ea 7e80 7c3f f0bb a93d 271d a7bf
00000310: 8425 1afd d291 b6bf e8cf 42c6 64f1 8dbf
00000320: 78cc ce7c 2926 b83f 8188 5580 14c7 b0bf
00000330: 748b b108 b84d ab3f a64a 5c2c 0eac b2bf
00000340: 54cc 76eb d691 b73f b611 36f5 70a6 b93f
00000350: 6ea9 d95a 09dc a33f ff50 4e78 d4e2 a53f
00000360: 8ab5 de9f 15c8 b33f e908 d03e a44c a43f
00000370: 629e 2e73 a9ab 91bf 3ca5 0429 6ae7 3dbf
00000380: ac0c 33d1 d20d aa3f 903d a73d e55d 7a3f
00000390: a07b 8c71 b1e8 613f 1c5f fe78 b7cf a73f
000003a0: 70d9 8e6c b592 a43f 39bf b08d 4961 b7bf
000003b0: 70e7 9b04 b3af ac3f 9eaf a89e 2851 62bf
000003c0: bca9 dbe7 d0de 9dbf 0e2f c5ab 19a2 ba3f
000003d0: c8f9 89da effa b1bf dd0a 73e3 3132 b3bf
000003e0: e211 3acb d35e b73f ed1d 2b4c ef08 c5bf
000003f0: f6e7 7a80 4176 b3bf 2022 466d d971 aabf
00000400: b30b fafd a3b8 c33f 4014 61a9 f278 5e3f
00000410: dbcb ebd5 c72e b3bf 0144 9ed0 fa8b c9bf
00000420: 1874 c022 1730 883f 2b30 f3c0 8574 adbf
00000430: 432b 8f3e 255e a13f 380b 1386 6d22 823f
00000440: 6671 ba07 c745 b1bf 2c40 16be b031 c2bf
00000450: 0851 72c5 f047 c2bf 5dc8 698f f38e babf
00000460: 12b5 2710 16dd a53f 98d5 8a42 3aed a13f
00000470: d814 ab0e 14a7 843f fced aa48 ecfb ac3f
00000480: 7fbb b5b1 5d1b afbf b0b2 3373 33db 9abf
00000490: b8cb 1324 5192 993f ac4f c2c0 7bdd ae3f
000004a0: 881e 9965 c88e 9f3f 40b2 11d0 0d53 593f
000004b0: d0a1 2ad5 c21d 73bf 2cdb 75ea 303a 91bf
000004c0: 3849 9346 4eca 9fbf 5e17 5ece 66d4 b43f
000004d0: 714f b286 77a6 a0bf 9ded 49f5 1ed4 a3bf
000004e0: 3221 a06b cac5 b13f 61c8 0bd2 70d9 aebf
000004f0: 6bcc e025 b5db b73f 5cc3 5a62 3d9d af3f
00000500: 2359 9b05 2900 a8bf 3106 58ca 4f1f a7bf
00000510: 33a8 0122 941e aebf 5457 37db 69d7 9a3f
00000520: 9022 0d72 4e69 a2bf f611 2638 553e a3bf
00000530: 2688 8425 a5f6 b33f b012 308c 7068 7cbf
00000540: f26c 5e7a 5b5f a3bf 9427 1563 2292 a73f
00000550: bc7c 7538 b8c5 b63f 7615 ccf5 1128 b73f
00000560: 00c0 8c9c f1db d5be 8bf0 1742 02ad a1bf
00000570: 2e17 73cc 7e36 b73f a427 4859 19ea b73f
00000580: 5bad 8168 050e b2bf dc6e cbaf 86b3 9c3f
00000590: a29e cf4b 510d b2bf b0e2 87b0 dd78 883f
000005a0: 8820 3eff b839 9abf f88e 3f28 2a81 94bf
000005b0: 7ad4 fe0c 4a85 b23f 783e 6ad3 2c98 89bf
000005c0: d329 97b2 93dc ac3f c1fd af33 987f 66bf
000005d0: e5be 716d 86bd af3f 666d 3048 4390 65bf
000005e0: cd45 aded b03f 8dbf eb22 9770 ea0c 9b3f
000005f0: 75e4 4567 f287 963f 0f93 5282 f005 a4bf
00000600: 006c 4426 108c 9cbf b0b5 d296 8ff0 a53f
00000610: 390e 7a61 f1fe b4bf 9989 b1e1 84d9 aebf
00000620: 07ca fae5 87cc ab3f 0028 7174 c30a 9d3f
00000630: fa01 7bfd 8307 643f fa67 f3fe fdc9 99bf
00000640: 2017 846e f82f 76bf 6f1e 602d a1c0 ba3f
00000650: df9c 0a73 d2f2 afbf a298 03b8 f0f6 b03f
00000660: 4430 0b0a 3f97 973f 7fa5 2ae6 e698 b33f
00000670: a64f 0761 92eb b5bf 03f0 e7d1 12f5 b33f
00000680: 3b76 e3cb ac2d b93f c96a 9b15 e5b5 acbf
00000690: 1bf8 eab3 9ee9 a6bf 00c5 4eb0 878a 3b3f
000006a0: 90b2 81ce 9c8f b3bf 4b31 4daf b1ab bc3f
000006b0: 2ad3 ecc5 536f a93f c10a 0c86 29bb 903f
000006c0: 270d deab ce79 763f cefd 5fa6 e969 a8bf
000006d0: 0706 3b1c fa52 92bf 612a c156 117c b53f
000006e0: b786 67bb a3b1 afbf 8495 bc1a 5a71 a6bf
000006f0: fe98 6381 0a5f bebf dc5e 961d 6742 ac3f
00000700: 8040 39f5 74a1 63bf 2ed0 ead2 4772 b53f
00000710: 1ccd 15c1 3346 a93f 38dc a279 1796 8abf
00000720: 282a c255 1a76 b1bf b446 e4d6 fb49 993f
00000730: 2217 3a8c 747c b23f 5d8d 3118 3ddb 78bf
00000740: e889 1d1d 9746 acbf 528a de6b 730d bf3f
00000750: 94b9 bd24 b8d8 95bf 3a50 bca5 3914 a4bf
00000760: 22b2 21ff 070f b23f 3888 66a6 1ee8 b9bf
00000770: 04e8 7ddb c617 b6bf 10fb 8218 fb85 913f
00000780: a188 6111 80e3 c43f b01e 9fa7 dd3a 753f
00000790: 5d10 f3eb 6f73 b1bf 046a 151a a6f5 c2bf
000007a0: 6cb8 7a7b 891c 9dbf ae6e 82ac 4fcc b1bf
000007b0: 8c86 b0fd ab8d b03f 3f9f 4542 a944 aabf
000007c0: c0d4 ca93 168d 57bf ef93 7e96 1c43 b9bf
000007d0: 28d8 0a23 2c07 a3bf b117 353f eae1 a5bf
000007e0: baca bb8e b4a9 87bf 5830 c441 3f31 b03f
000007f0: 3452 5186 def0 a83f ace6 3e32 8016 a93f
-0.032871365749445436 0.04700517373841934 0.05901951260049265 -0.09193557864446043 -0.013468000113846926 0.024926409236376734 0.013518370914481007 -0.08998848479165707
0.04464229910436929 0.15335277647709758 -0.0021093548217437363 0.02179513064389786 -0.06808390309653 -0.09730938436637973 0.08757790046053684 0.018669230431410902
0.16182029919725316 -0.06079386605872855 0.08241837600885651 -0.12086143144310393 0.009657109023223462 -0.03081929509409269 -0.008746337481449257 0.06561265997856422
0.058103467401553144 -0.06419848187718354 -0.15817178484091998 -0.06108001181354851 0.04178319666747317 -0.043003262106938195 -0.010347706472046359 -0.07209769942551716
-0.04570565981383761 -0.02453471557729027 0.01139427472766985 0.04326395267999322 -0.05052198669928935 0.003981959139642444 0.08465716766140957 0.03924091880724953
0.0009536975927046665 0.08007855981604059 -0.0031224006476518185 -0.06967141677379166 -0.042316336191002814 -0.06091514242206458 -0.016657151789107646 0.0067749460935147
0.028275878742295313 -0.06503086248854123 0.08549070169102643 -0.06592766685653034 0.004961541472484843 0.07751464193303065 0.0477600155612839 -0.08525920054044461
-0.04674365694277451 0.04816638421516345 -0.03391081976354878 0.003825269752891533 -0.04147844438226104 0.05988818012001845 0.06328326490240735 0.08453819188209982
-0.01725713271784847 -0.07349288786524219 -0.008084527528562854 0.04893812196329625 -0.07815127071276651 -0.08383148648549896 -0.01816159504813039 -0.05453937906029208
0.09573933659819606 0.05980401239093275 0.10376874742829492 0.05527317556743144 0.04255155586224745 0.06539636155032398 0.012037725814487955 0.05635398039386483
-0.09302269429497717 -0.035921399339805864 -0.03566035652431381 0.048573438005281244 0.02364478787652934 0.028698338830494843 -0.06670230719404023 -0.01886720771430513
0.06974785149159596 0.058081907795102944 -0.027965961898206403 0.07724062921271205 0.04043121485978007 0.0575716687504822 -0.06077379580574951 0.04321575632845722
0.006958480612844766 -0.04514429691050015 -0.08816260031939832 -0.014620578098721596 0.09433230683389293 -0.0655377209964474 0.05332732301828616 -0.0729378565122639
0.09206908463129199 0.10019594179727317 0.038788120594136596 0.04274620026186148 0.0772717967326654 0.03964722887759981 -0.0172564007331445 -0.00045629827310962926
0.05088671497062455 0.0064372019500774785 0.0021861520475705137 0.04650662757847909 0.0401817984597298 -0.09132823666800229 0.05602797919523439 -0.00223596509501607
-0.02917028823041233 0.10403595393762208 -0.07023524365829481 -0.07498466303790559 0.0912907000693575 -0.16433516711388965 -0.07602319132539023 -0.05164985140715239
0.15407228375633295 0.0018598909132532399 -0.0749325654285679 -0.19958434282719398 0.011810475109138394 -0.057529620936833524 0.03392139805472152 0.008854728368879003
-0.0674709695690062 -0.14214143067920426 -0.14282045021958134 -0.10374376536654624 0.04270237872320072 0.03501302778515053 0.010084301660194958 0.05660951983506021
-0.0607556609564801 -0.02622681036602853 0.024972217394814783 0.06028353431716424 0.03081811065774656 0.001545680512459971 -0.00466705423847498 -0.016823543844533592
-0.031045172746254596 0.0813659910037052 -0.032520041649290905 -0.03872772926566912 0.06942429664207309 -0.06025269092596442 0.09319622206457871 0.06174651933304773
-0.04687622254793868 -0.04516076416986115 -0.05882704653852535 0.026212362294095584 -0.03595967428424729 -0.03758493719491078 0.07798225561103375 -0.006935538901420443
-0.03783689373741507 0.04603679141526054 0.08895446184532124 0.09045517207058204 -5.2116287825726415e-06 -0.034523077552848745 0.09067528239674225 0.09341581754429612
-0.07052644540242652 0.02802858779874283 -0.07051570988516656 0.011949283551971973 -0.025610819414879887 -0.020023974138793726 0.07234633271476013 -0.012497282220720538
0.05637036852893442 -0.00274638869223029 0.06199283681860183 -0.0026322664357515844 -0.014281637433358885 0.02641645729252932 0.022002971223149054 -0.039107814701571646
-0.02787804826321505 0.0428509589777194 -0.08201511983684719 -0.06025328879401854 0.05429482157105175 0.02836137197690647 0.0024449899609353372 -0.025184601484262693
-0.0054168419230842535 0.10450179441260742 -0.06239946035685206 0.06626801006823027 0.023037896144885175 0.07655184859563312 -0.08562579029904657 0.07795827507646895
0.09835319497820987 -0.05607524765738032 -0.04475112863791272 0.0004202443381543103 -0.07641010324159425 0.1119948437673816 0.049677484427240806 0.01633896713884542
0.005487258253086303 -0.04768304973549285 -0.017894657109314618 0.08392437332182957 -0.061902157427323905 -0.043833556903602605 -0.1186377111331218 0.05519411312269337
-0.0023963245710448278 0.08377503299090058 0.04936372501370043 -0.012981589698354154 -0.06820835679733561 0.02469628810019371 0.07221153663166693 -0.006068457270063857
-0.05522606115734502 0.12129899390723978 -0.021334531061648912 -0.03921680591716421 0.07054185847091124 -0.10119811594498251 -0.08630030497252511 0.01711265885455321
0.16319275711709216 0.005183091963722283 -0.06816768179402417 -0.14812160752883596 -0.028429172669966737 -0.06952379190118549 0.06466174071877101 -0.051305093135680206
-0.0014374466401652491 -0.09868029283695966 -0.03716409614337152 -0.04273921987127894 -0.011554155927546151 0.0632514510691079 0.04871268643970375 0.04899979222632331

fc1.bias f8 [64]
00000000: 664b 3dd7 b674 a8bf 64df 0b21 0f61 79bf
00000010: d514 1493 6e00 833f 088d 6137 506a a23f
00000020: b025 e5b1 8510 793f deb5 b3eb 3f40 a13f
00000030: 1465 8a03 2f84 aebf fd42 e8e3 9029 96bf
00000040: e8f0 e261 f4bf 9fbf 5cd4 4017 b906 b93f
00000050: 2278 2ccb 0f49 a1bf f0cf c1de d8ec 733f
00000060: 991f c009 0985 b6bf 3602 2fe0 7000 b8bf
00000070: 6444 8989 38d9 b53f e53f 6719 6c49 b7bf
00000080: d23f 663c f4de b2bf 1c41 ee0d a352 a3bf
00000090: a28d acba 8b82 b53f aa5d 3f5c 0943 b63f
000000a0: 005d 0ab5 7a97 b7bf 325a f090 5e90 b03f
000000b0: e064 3083 3c7a 703f fd2a e18f fd7a bbbf
000000c0: 6288 30e6 67ae af3f 4c78 ace4 9e31 ad3f
000000d0: e2ba 3fd7 a3e6 aebf 3f13 b137 d1dd a0bf
000000e0: d70e 6aa2 a254 a43f 2f6b fde9 a9b2 9e3f
000000f0: 26ca 9e43 8b04 b33f 4f96 8f5d 64f5 bb3f
00000100: 89e9 984a 4d01 b5bf c807 ef81 0f31 9f3f
00000110: 5aef 735e 5562 b53f b4d1 ddb4 8562 a13f
00000120: 5674 8c86 6a14 aabf 4064 f630 4ca0 b03f
00000130: 4af2 3303 26c8 a7bf 7a7a 7678 7156 9bbf
00000140: 9a7f b2a0 d614 a63f 65c7 52d7 0327 ac3f
00000150: 104b e05e 6a2f a63f 0f4c cb26 2fd0 b7bf
00000160: 8c5d bf54 3dbe a1bf 715e ad8b aa81 a7bf
00000170: 7cea f567 ec48 663f 3d01 9dbe f2fb b23f
00000180: ce2a f8d1 41c2 91bf 5000 c700 49ea 963f
00000190: 409f 9a2d a49c 99bf 73f4 b149 09b8 bb3f
000001a0: 926c 1873 d52f a93f ab25 6aeb b411 793f
000001b0: 1cb9 a9c9 a5af abbf d4b7 3959 5d2f 8e3f
000001c0: 58ca ee7f 1961 8cbf 043a a0a7 faf6 a23f
000001d0: 2d5d ce7e 8fb6 a53f 18d0 e56e 402f 99bf
000001e0: 9aaf 78e7 ff88 93bf 9aa7 3bcd 8813 b9bf
000001f0: 7ab6 d904 8d60 a1bf 3a01 e419 0967 743f
-0.047765458845467276 -0.006196078393933966 0.009278167594411727 0.03596735645330723 0.006119272466386702 0.03369331123563389 -0.05960223119945787 -0.021642936621051757
-0.0310056862588092 0.09775883500772536 -0.03376054148814968 0.004864546917918475 -0.08796745765732651 -0.09375672791703313 0.08534577710931185 -0.09096408481786929
-0.07371450876803401 -0.037739844751856405 0.08402322108718477 0.08696039678704062 -0.09215514106687195 0.06470290220782074 0.004022823693071248 -0.10734543574032425
0.06187748608523759 0.05701920072009212 -0.06035339357901194 -0.03294233136015245 0.03970821602436352 0.02997842302952874 0.07428808594594524 0.10921313556863164
-0.08205111571525071 0.03046058874657101 0.08353169971445365 0.033954790428569664 -0.050937012600322504 0.06494594760296568 -0.046448886767369205 -0.02669694230791684
0.043127734295239153 0.054985160860623584 0.04333050163417884 -0.09302038857576654 -0.0346545377685131 -0.045911149549905945 0.0027203194910588296 0.0741569247593405
-0.01734259456683667 0.02237810199017104 -0.02501160171837502 0.10827692078778899 0.049193067836506135 0.006120402066366474 -0.05407445990282353 0.014738778386540398
-0.01385707780523153 0.0370405511495058 0.04240845129896296 -0.024594313400896878 -0.01907729959763991 -0.09795432100841453 -0.03393974956712227 0.0049810748589609825

out.weight f8 [1, 64]
00000000: 61e5 31c4 fa57 ab3f 2666 e570 2b2f a53f
00000010: dca6 1452 4736 c13f ae03 c0b8 1fdb a7bf
00000020: bcb3 8be7 c2ae b2bf 19b0 5b96 419a b8bf
00000030: b4b6 5682 9287 923f 4a35 a336 26a7 b6bf
00000040: 1fb9 445d 452e babf 756d fb89 fa64 a33f
00000050: 9d8e ee57 dc98 b8bf 0c54 c2cc 648a 993f
00000060: 4bac 12eb b90d bc3f b641 19b8 9d32 a23f
00000070: d193 76df 9b1c bfbf ee21 d712 5aa6 c7bf
00000080: a7b3 5763 25f3 ba3f b1c9 b44a abab acbf
00000090: 69c1 71a8 f190 babf c58b f119 3aeb b4bf
000000a0: b983 d501 6cc2 b33f 65d6 bf57 e98d a5bf
000000b0: bcc1 5737 22d0 abbf 0fc8 76e4 9c86 a63f
000000c0: 1e32 473e 1d08 9a3f 9628 ee89 fee3 b2bf
000000d0: d12f 9db2 fd66 b73f 9861 86a4 f546 be3f
000000e0: 9a90 a403 0834 b4bf c1b9 d9f8 5fd9 b73f
000000f0: 39b1 9b74 b1a3 b43f 4681 559d 0d76 b03f
00000100: 73be d540 1cb4 d2bf 831d d220 a454 b1bf
00000110: e927 deb9 02ba b73f 31b1 09ba 8463 bc3f
00000120: 1a0f 03ed 97cb b93f 913e 802b 0936 babf
00000130: 81e3 4084 b897 ba3f 139c 3b61 cb6c babf
00000140: 2470 8b18 c205 b7bf aaf3 c9be 402d a83f
00000150: 3a11 7e94 0627 ac3f 3be2 bedf c97a b9bf
00000160: 7090 a80d 97b8 c4bf 849d f0dc e8ba b2bf
00000170: 968b 34fb 088a c13f 78aa a82c fa65 863f
00000180: a2c3 1618 ed86 c43f eef4 9ebf 552a aa3f
00000190: d0a9 4c0b f285 adbf ad24 e119 1816 c23f
000001a0: 3987 b1f4 2e53 a93f c9c6 254a e3b5 ad3f
000001b0: a751 fc17 6d07 bfbf fd94 a142 6148 b03f
000001c0: 0c6a add8 4496 b63f 1611 d7ad b585 b3bf
000001d0: 9d3d f289 f417 cebf 0928 a624 60d6 b9bf
000001e0: 6424 f161 d533 9dbf ae0d 9eda b954 bdbf
000001f0: 09a6 107d 599c b53f 103c 5654 0715 83bf
0.05340560574490883 0.04137550118566606 0.13446895130009906 -0.04659365778207501 -0.07297914650889842 -0.09610376282552159 0.018095292287106005 -0.08848799547123068
-0.10226853873311768 0.037879781096957034 -0.09608246943258299 0.024941992757323603 0.10958444584928022 0.035542420123081994 -0.12153028684276924 -0.18476415557803655
0.1052726142440422 -0.05599723135891866 -0.10377416956339904 -0.08171427853953535 0.07718539280678173 -0.04209832378539317 -0.05432230878421104 0.04399576462618892
0.025421578336862642 -0.07379141681136256 0.09141526804631829 0.11827025667878954 -0.078918934716571 0.09316062760783607 0.08062275978926871 0.06430134860193445
-0.29224306422745555 -0.0676977710846725 0.09268204725063324 0.11089353124561253 0.10076283966469327 -0.10238702117953326 0.10387757519573705 -0.10322257160042651
-0.08993161296115254 0.04722025231328726 0.05498524248744947 -0.09952985489406611 -0.1618832413379354 -0.07316451448479283 0.1370249964321288 0.010936693656806926
0.16036761928765225 0.05110424007532709 -0.05766254795010506 0.14129925979276461 0.049462764138992595 0.05802831916925084 -0.12120706401430557 0.06360442997682365
0.0882304219243581 -0.07625899786132026 -0.23510605559975498 -0.10092736143829496 -0.02851804170885365 -0.11457406604136253 0.08441695502610726 -0.00931745267987874

out.bias f8 [1]
00000000: 5b39 4f41 f68d ab3f
0.053817458603236466
