pygame_env/code/snake_game/model/model.pth (torch, 17103 bytes, 4 tensors)

linear1.weight f4 [256, 11]
000000 a1 3c 4e bd 05 af 6a be 6e 72 0e 3f ae dc b2 3e
       -0.05035079 -0.22918327 0.55643356 0.3493399
000010 ea 13 3e 3c ca cd d9 be 9d 17 ee 3d 91 da e3 bd
       0.011601428 -0.42539817 0.116255976 -0.111256726
000020 aa 4b 60 be 90 33 59 3e af 6f c4 bc b8 3d 80 be
       -0.21903864 0.21211076 -0.023979036 -0.25047088
000030 08 aa a2 3d 98 7f 18 be 63 bf e3 be 65 2c d9 be
       0.07942587 -0.14892423 -0.44481954 -0.42416683
000040 c8 4c 7e 3e ae 6c 96 3e ae 77 05 bf 5f 5d 0c bf
       0.24833977 0.2937979 -0.5213574 -0.54829973
000050 bf 3f 29 3e 3c d7 21 3e 0e a6 e6 bc 51 1f 2f be
       0.16528223 0.15804762 -0.028155353 -0.1710179
000060 8e db 05 be b6 48 6f bd c7 f6 ed 3e 2c 0c fd 3d
       -0.13072035 -0.058418952 0.4647734 0.12355837
000070 c5 72 bc bd 7e 6a bb be fd c5 cf 3d e0 34 cd be
       -0.09201578 -0.36604685 0.10145185 -0.40079403
000080 42 c7 3f bb 57 b5 77 be 14 99 bf 3e 83 b7 00 3f
       -0.0029263054 -0.2419027 0.37421477 0.50280017
000090 8c bc 8d 3c fb e4 42 be 6b ac f7 3d 4c 00 45 be
       0.01730182 -0.19032662 0.12093433 -0.19238394
0000a0 63 dd 1c be 05 4f 9f 3e 6a 0e 7d 3d 17 ec 77 3e
       -0.15318827 0.31114975 0.061781324 0.24211155
0000b0 02 15 a1 3e 64 b9 ce 3e 80 00 85 3e 42 d2 68 3c
       0.3146134 0.40375817 0.25976944 0.014210286
0000c0 52 ab 46 bb bd f7 75 bd 2b c3 71 be 86 4a ba 3e
       -0.0030314517 -0.060050715 -0.23609607 0.36384982
0000d0 97 d7 1f 3e 14 22 c8 3d 50 51 7b 3e 44 d0 6a bd
       0.15609585 0.09772125 0.24542737 -0.057327524
0000e0 17 75 e6 3e a8 09 4f be 17 6e 1e 3e 5e d4 4b bd
       0.45011207 -0.20218527 0.15471683 -0.049763076
0000f0 f5 e0 15 3e c3 b5 8f be e1 ed b7 3d fa 68 69 be
       0.14636596 -0.2806836 0.08980919 -0.22793952
000100 73 2c ee bd 78 93 39 be 14 65 df 3d c6 84 0d bd
       -0.11629572 -0.18122661 0.10907951 -0.03455045
000110 85 26 d8 3e 45 06 06 be cd 66 47 bc c7 76 86 be
       0.42216888 -0.13088329 -0.012170506 -0.26262495
000120 bd b5 a3 3e f7 ea ac 3d 5a 39 c8 be 81 64 4a be
       0.31974593 0.084432535 -0.39106256 -0.19764902
000130 e3 02 d0 be dc 76 4a 3e 30 bd cb bd f8 f5 a7 bd
       -0.40627202 0.19771904 -0.09948194 -0.08201212
000140 e6 88 66 be 0b 27 c3 be ea 00 b0 3e 11 e1 b1 bd
       -0.2251316 -0.38115725 0.34375697 -0.08685506
000150 96 c0 07 bf b6 56 59 be 8c 76 f2 3e cf da d7 be
       -0.5302824 -0.21224484 0.4735607 -0.42159125
000160 0a 2e 0d 3e 22 4d ce 3e 4c a1 eb bd de bb 1c be
       0.13787094 0.40293223 -0.11505374 -0.1530604
000170 f3 66 20 be 79 ea 2b 3e 39 83 36 be fc a5 d8 3d
       -0.15664272 0.16788663 -0.17823495 0.10578534
000180 34 64 a8 3e 69 0b 56 3e c1 c6 91 3d 13 0c 62 3d
       0.3288895 0.2090279 0.071179874 0.055187296
000190 c0 ab f3 3c 0e b8 ab 3c 79 3c a2 3d a0 44 b5 bc
       0.029744983 0.020961788 0.079216905 -0.02212745
0001a0 62 fe 93 be 4c d7 48 be 10 6b 8a 3c 44 2d 25 3d
       -0.28905016 -0.19613379 0.016896755 0.04032637
0001b0 a5 b3 7b 3d 4e 8c 74 3d 0f 2c a9 be 1a 48 26 be
       0.06145062 0.059704117 -0.33041427 -0.16238442
0001c0 fe 6b 04 3f 35 45 da be 84 63 00 bf 92 5e 1c 3e
       0.51727283 -0.42630926 -0.5015185 0.1527045
0001d0 ff 61 f2 3d c8 9b 19 be e7 67 86 be 11 23 dc 3e
       0.118350975 -0.15000832 -0.26251146 0.42995504
0001e0 63 e4 ea 3e 93 a0 06 3e c1 ce 87 3d d2 bb c7 3d
       0.4587737 0.13147192 0.06631232 0.09752621
0001f0 a7 6f ec be 3c a8 ba 3e 58 df 7b be 80 26 94 be
       -0.46178934 0.36456478 -0.24596918 -0.28935623
000200 9b 40 cc 3e aa 1f ea be 21 2b 0a 3e b5 e9 83 3e
       0.3989304 -0.45727283 0.13493015 0.25764242
000210 44 e2 6f be 85 a9 ce bd 2a 65 b2 bd 1d d8 8a 3e
       -0.23426157 -0.10090927 -0.08710702 0.27118006
000220 5e 8f 7a be a2 59 ac be 7a 3f b0 3d fd 75 be be
       -0.24468753 -0.33662134 0.08605857 -0.37199393
000230 87 62 a5 be c9 b5 68 3e 08 51 a3 be d2 16 b4 be
       -0.32301733 0.22725596 -0.3189776 -0.3517366
000240 6a d0 9c bc 39 6d 87 3e 08 80 8a 3e d9 00 17 3e
       -0.019142348 0.26450518 0.27050805 0.14746417
000250 1a de 0d 3d 1a 58 03 3e b7 2f 15 bd 12 78 bf 3d
       0.03463564 0.12826577 -0.036422458 0.093490735
000260 d7 27 31 be be f1 64 bd 9e 3a a4 3e 58 68 93 3e
       -0.17300354 -0.055894606 0.3207597 0.28790545
000270 ab 1d 85 be 57 fd e8 be 95 04 cd 3d 7e ee d4 be
       -0.25999197 -0.45505783 0.100106396 -0.41588205
000280 eb 0c 4d 3d fb a7 be 3e eb b8 4e be 21 96 bf 3e
       0.050061148 0.37237534 -0.20187728 0.37419227
000290 ae 5f 06 be db 06 cb 3e b1 c2 05 3f 3b 2a b5 3e
       -0.13122436 0.39653668 0.522502 0.35383782
0002a0 db c6 d8 b9 46 0f 08 3d 77 26 d1 bc e1 12 82 3d
       -0.0004134689 0.03321769 -0.025531037 0.06351257
0002b0 63 1b 3b 3e de c6 80 3e 50 3b 7b 3e c1 54 f9 3d
       0.18272166 0.25151724 0.24534345 0.12174369
0002c0 6f f3 b7 3e 53 eb a1 be 14 4f ba 3e e5 7c 2e 3e
       0.35927913 -0.3162485 0.36388457 0.17039831
0002d0 80 16 a9 bd c7 2e ad 3d a8 6f 36 be de 8d cb 3c
       -0.08256245 0.08456188 -0.17816031 0.024847921
0002e0 ca 79 81 3e c2 5f 3c 3e 7b c2 c6 3e 7b 44 5e be
       0.2528823 0.18395904 0.38820252 -0.2170581
0002f0 c2 a6 8a bd 85 32 e2 bc ac e5 67 3e da 0c bd 3e
       -0.06770088 -0.02761198 0.22646207 0.36923867
000300 40 37 08 bf 8f c5 06 bf 77 9a 95 3e d3 01 99 3e
       -0.53209305 -0.526452 0.2921941 0.29884204
000310 74 b2 0f bf bd 68 e0 be 40 50 45 3c c0 2a 85 3e
       -0.5613167 -0.4382991 0.012043059 0.26009178
000320 48 ea 17 3d d8 8b 1c bd 33 29 54 be e0 5c dc bc
       0.037088662 -0.038219303 -0.20718841 -0.026899755
000330 a4 66 60 bd dc 39 2f be 7c f2 7b bd 1c 9d f8 bd
       -0.054785386 -0.17111915 -0.061510548 -0.12139341
000340 54 6e 3c bd 0a 53 e6 3d fe 24 61 be b8 ea 74 3d
       -0.046003655 0.11246307 -0.21986768 0.059794158
000350 e0 c3 91 be c9 67 1a be 25 9e 92 be 65 0e 0e be
       -0.28469753 -0.15078653 -0.2863628 -0.13872679
000360 fb bd 65 bb 2f ac 95 be 1e c6 89 bd 58 4e 80 bd
       -0.0035055864 -0.29232928 -0.06727241 -0.06264943
000370 7e 1c 66 be 07 e0 75 be da ca ce be 00 df 7c 3e
       -0.22471806 -0.24011241 -0.40389138 0.24694443
000380 3b aa ba 3e 1c 7c 97 3e f5 54 9d be 18 88 18 3d
       0.36458 0.29586875 -0.3072888 0.037239164
000390 c9 cf 48 3e ba 51 97 3c 3a 95 dd be 58 38 bf 3c
       0.19610514 0.018471587 -0.43277913 0.023342296
0003a0 42 d0 ca 3e 40 40 a5 be b8 a3 ce bc 6e 28 c5 3d
       0.39612013 -0.3227558 -0.025224552 0.09626852
0003b0 6c 1a 69 3d bb 00 45 be d3 ec 56 3e 33 dc be 3e
       0.056909963 -0.1923856 0.20988779 0.37277374
0003c0 24 9c af 3e 16 1d b3 3d 04 0a c8 3e 30 12 df b9
       0.34298813 0.08745782 0.3907014 -0.00042547425
0003d0 79 55 8c be 43 b7 aa 3d 65 bd 89 bd 37 45 cb 3c
       -0.2740896 0.08335736 -0.06725577 0.024813278
0003e0 e7 10 58 be 22 83 ef 3d fc 7a 87 3e 1c a9 fc 3d
       -0.21100198 0.116949335 0.26461017 0.123369426
0003f0 72 ea cf 3e b9 87 67 ba 42 80 89 be 6a 6c c9 3c
       0.40608555 -0.0008832175 -0.26855665 0.024587829

linear1.bias f4 [256]
000000 bf be 77 be 0b 54 78 3e fa 0b 14 bd 11 3f 9d bd
       -0.24193858 0.2425081 -0.036144234 -0.076780446
000010 86 7d 09 be f4 e1 85 3d b8 8b 7d 3c f0 ff 9c 3d
       -0.1342679 0.06537238 0.015475206 0.07666004
000020 a1 64 8f 3d ac 34 a4 be 61 54 fb 3c 49 8e da bc
       0.07001615 -0.32071435 0.030679883 -0.026679175
000030 b1 fc dc 3c 14 6b df 3e ac 10 d5 3c 42 cb 81 be
       0.026975961 0.43636382 0.026008926 -0.25350386
000040 54 b2 65 be 8b 2e 79 3e 73 9a 8d be d7 8a 98 bd
       -0.22431308 0.24334161 -0.27656898 -0.074483566
000050 c4 3b 5f 3e 3a 25 0a bd b4 28 7f be 60 8d 86 be
       0.21800143 -0.03372691 -0.24917871 -0.26279736
000060 f0 bc b7 bd fd 61 97 3e d9 22 f5 bd 52 4b 21 3e
       -0.08971584 0.29566947 -0.11969537 0.15751389
000070 77 6b 10 3e 3f a4 f3 3e 5b 6a 6e be c1 00 2f bd
       0.14103495 0.47586247 -0.23282759 -0.04272533
000080 7d cc 1d be 9c ab 1b be e2 38 38 bd 27 93 d8 bd
       -0.15410037 -0.15202183 -0.044976123 -0.10574942
000090 2c ec 46 3d b4 54 15 be b0 b0 bd 3e ea 03 98 bd
       0.048565075 -0.14583093 0.37048864 -0.074226215
0000a0 d3 87 07 3d 59 2a 8d bd e1 77 14 3e 48 ac 8c 3e
       0.033088516 -0.06892843 0.14498855 0.2747519
0000b0 b9 f6 87 be ec 84 8e bc 61 9b 10 bc a2 53 b1 bd
       -0.26555422 -0.017397366 -0.008826108 -0.0865853
0000c0 5b 15 9c bd bf 9d c5 bd 70 f4 44 3d d7 5a a4 bd
       -0.07621261 -0.09649228 0.048084676 -0.08025139
0000d0 38 2a c1 3e 41 3e 86 bd 01 1e 3f 3c 79 75 62 bd
       0.37727523 -0.06554843 0.011664868 -0.055287812
0000e0 9a 16 10 3e 52 6d 6f be 99 56 f1 bd 2d 95 0e be
       0.14071122 -0.23381546 -0.11784095 -0.13924094
0000f0 0a 16 0a 3e be b1 90 3d 65 ba 87 3d c1 ea 47 be
       0.1348497 0.07065152 0.06627349 -0.19523145
000100 81 e8 ba bd f6 63 b2 bd d6 a3 95 be d8 d1 9e be
       -0.09126378 -0.08710472 -0.2922656 -0.31019473
000110 a4 c5 c6 3b 1f b5 07 be 77 33 f5 bd 0e 8f c3 3d
       0.006066041 -0.13252686 -0.11972707 0.0954877
000120 a2 51 f0 ba 0f 6e 87 bd 92 fc 88 3c d2 13 2e be
       -0.0018334875 -0.06612789 0.016721997 -0.16999748
000130 5a 15 8c 3e e2 d4 99 bd be f9 70 be 7a c3 3f be
       0.2736004 -0.07511307 -0.23532769 -0.18726912
000140 47 43 17 be a8 24 40 bd a1 eb 51 be 43 34 88 3d
       -0.14771758 -0.046909958 -0.20500042 0.06650593
000150 f9 29 a3 bd ad 38 db bd b1 b9 21 bd 16 c9 5e be
       -0.0796699 -0.107041694 -0.03948373 -0.21756396
000160 ed 11 55 3d b7 f7 66 3e 30 f9 85 3d e3 6f 6c be
       0.05201905 0.22555433 0.06541669 -0.23089556
000170 b9 ab 6b 3c a7 f4 1d be 3b 1b 3c 3e d3 09 b2 be
       0.014384204 -0.15425359 0.18369763 -0.3477312
000180 f2 fe 6c bd 28 62 b5 3e d3 35 5f 3e a8 61 93 be
       -0.057860322 0.3542645 0.21797876 -0.28785443
000190 31 80 22 3f 8b 1e 90 be c6 ea f2 bd 6a 99 ed bd
       0.63476855 -0.28148302 -0.11861186 -0.11601527
0001a0 fc 1d 10 3e aa 87 9f bd 40 b9 57 be 62 41 a1 bc
       0.14073938 -0.07789548 -0.21066761 -0.019684497
0001b0 f3 08 62 be 78 b9 bd be b1 76 75 bb e8 c8 c1 bd
       -0.22073726 -0.37055564 -0.0037454779 -0.09462148
0001c0 82 84 4c be 40 64 9c bd 73 20 09 3f 3c 7f a7 be
       -0.19972423 -0.07636309 0.5356514 -0.3271426
0001d0 ee 51 8e 3d d6 4b cd 3e 3e 74 c2 bd b6 77 9c 3d
       0.069492206 0.4009692 -0.09494828 0.076400205
0001e0 d9 2e ff bd 50 61 2a 3d 89 4f 06 be e2 10 24 be
       -0.12460107 0.04159671 -0.13116278 -0.16022065
0001f0 b0 b0 8a be 12 c1 99 3e fe 54 5f be c7 d1 ce 3d
       -0.27087927 0.30030113 -0.21809766 0.100986056
000200 a5 29 8f be df 95 db bd a1 6d 19 3e b3 33 35 be
       -0.2796146 -0.10721945 0.14983226 -0.17695503
000210 08 56 a4 3e ef 6c 70 be 35 cd 7f 3e ea 41 2c be
       0.32096887 -0.23479055 0.24980624 -0.16822019
000220 35 24 26 bd c8 ff 2d 3d 9a 76 8e be a9 ba 38 3e
       -0.040561873 0.04248026 -0.2782486 0.18039955
000230 3c 7c 01 be e1 c8 88 3d b0 3d c7 3c 74 bb 56 be
       -0.12645048 0.066789396 0.024321407 -0.20969945
000240 de 99 84 3e 47 cf 49 bd 03 26 97 be 0d e8 1f 3e
       0.2589864 -0.04926994 -0.29521188 0.15615864
000250 43 d0 8f 3e 73 a5 d2 bc 02 df ee bd e3 ad af 3d
       0.2808858 -0.025713658 -0.11663629 0.08578088
000260 68 00 38 be 91 b0 f3 bc 75 0d 3b be e3 a2 69 3e
       -0.17968905 -0.02974728 -0.18266852 0.22816043
000270 72 9e 6b be 13 09 04 3d fc 8b 3d be a8 ad b7 3e
       -0.23009661 0.032235216 -0.18510431 0.35874677
000280 45 45 73 3e 01 64 07 3d 1a ab 03 be d0 80 16 be
       0.23756893 0.033054356 -0.12858239 -0.14697576
000290 4a 93 6a be d8 3e c0 3e 85 d9 06 be fc 02 4f 3e
       -0.22907749 0.37547946 -0.13168915 0.20215982
0002a0 c2 61 89 bd 87 5e ab be 60 ef 09 3d 7b 79 7b bd
       -0.06708099 -0.33470556 0.03367555 -0.06139515
0002b0 c6 37 56 3e 10 52 cc 3d dc 7b 19 3e 8e 8d 8f 3d
       0.20919713 0.0997659 0.14988655 0.07009421
0002c0 53 7d a6 3e 7b 37 9c be 95 c9 86 be 27 54 9a 3d
       0.3251749 -0.30511078 -0.2632567 0.07535582
0002d0 3f 38 9e 3e a5 14 33 bd 37 33 2f be 26 f8 a1 3d
       0.30902287 -0.04372086 -0.1710938 0.07908659
0002e0 4f a8 b2 be dc 08 b0 3e c9 11 cb 3d 58 d3 ac bd
       -0.34894034 0.3438176 0.099155016 -0.08438748
0002f0 1e 71 5b be ca 1b 20 bd 78 ea 89 be 03 7a 00 3e
       -0.2142987 -0.039089 -0.26936698 0.12546544
000300 44 d5 34 3c c3 12 4b be 40 28 c8 3c 2f 62 67 be
       0.011037175 -0.19831376 0.024433255 -0.22596048
000310 d2 3e d5 3c 3d c1 64 bd 88 dc b1 be 76 85 29 bd
       0.026030932 -0.05584835 -0.34738564 -0.041387044
000320 87 4c 9a 3e 40 43 ab be 02 1a ee bd d5 2f ed bd
       0.3013651 -0.33449745 -0.11626054 -0.11581389
000330 65 f3 2d 3e 81 b4 03 3f 30 73 e2 bc 6b b6 47 bd
       0.16987379 0.514473 -0.027642816 -0.04875795
000340 cb f0 b2 3e 8f 0f 7f be 66 00 86 be 03 c8 33 bd
       0.34949335 -0.24908279 -0.2617218 -0.043891918
000350 35 04 2a bd 27 79 1a be f2 cb 22 3e 94 c8 39 3e
       -0.04150792 -0.15085278 0.15898111 0.1814292
000360 76 4e 75 be 79 bc 93 3e c1 fe fa bc 52 36 6c bd
       -0.23955712 0.2885473 -0.030639054 -0.05766899
000370 c0 95 2e bd 27 6b 15 bd b8 7d e6 bc d2 da c3 3d
       -0.04262328 -0.03647914 -0.02813612 0.09563221
000380 fb 33 08 3f eb 38 87 3d 02 48 7d bd 9a b0 c6 bd
       0.53204316 0.06602653 -0.06183625 -0.09701653
000390 e4 7b ab 3e d0 19 37 be 96 7f 6f 3c 9b 6c 8f bd
       0.3349296 -0.1788094 0.014617821 -0.07003137
0003a0 ce c5 c5 bd 8d 80 43 3d cc 10 0d 3e 1c 04 35 be
       -0.09656869 0.047730017 0.13775939 -0.17677349
0003b0 14 31 94 3d fd fa 52 be f0 85 36 3e fb 27 15 be
       0.072359234 -0.20603557 0.1782453 -0.14566033
0003c0 96 23 37 3e 19 e7 56 be 05 9b 3b be 2f b2 56 be
       0.17884669 -0.20986594 -0.18320854 -0.20966409
0003d0 6e 6b 19 be e3 af 36 3e 08 fb a1 3d 9e 72 11 3e
       -0.14982387 0.17840533 0.079092085 0.14203879
0003e0 00 f8 48 3a de c3 93 3e 04 c3 0b 3e 4d cf 09 be
       0.00076663494 0.28860372 0.13648611 -0.13457985
0003f0 6e ce 56 3e 9f 23 0b 3f 83 db 45 3d ba 4e 53 3d
       0.20977184 0.5435123 0.048305046 0.05158875

linear2.weight f4 [3, 256]
000000 71 98 25 3d cb 57 e9 3e a1 8e 65 3e cc dc 71 bd
       0.040428583 0.45574793 0.2241769 -0.05904846
000010 b1 59 bc bd 36 dd ff 3d 38 eb 5a be aa 87 bf 3e
       -0.09196795 0.124933645 -0.21378791 0.3740819
000020 9c 0c 0a bd 89 0a 86 bc 7c 8b ae 3e 86 58 e4 be
       -0.03370343 -0.016362445 0.34090793 -0.44598788
000030 6f 27 22 bd 91 03 57 3e 66 08 cc be 0d 2a f2 bd
       -0.039588388 0.20997454 -0.39850157 -0.11824427
000040 1d 73 37 be fa db 18 3f 00 1e 92 3b 10 8d db bb
       -0.17915006 0.5971066 0.0044591427 -0.0067001656
000050 70 a1 8d 3e 78 52 19 bd 13 3b b4 be 4c ec c2 be
       0.2766223 -0.037432164 -0.3520132 -0.38070905
000060 ac ee d2 bc 2a e4 88 3e e6 70 e4 ba 18 45 8c 3e
       -0.025748573 0.26736575 -0.0017428666 0.27396464
000070 92 2d 65 3e 4c c7 f2 3e 7e 76 da bd c0 91 30 bf
       0.22380665 0.47417676 -0.10667132 -0.68972397
000080 8d 4e 61 3c a0 bf 9e be 5f 6d 7f be 63 d5 02 bf
       0.013751638 -0.31005573 -0.24944066 -0.5110685
000090 08 4f c5 3c 5b 2f 0c be e1 92 9e 3e 23 8d d3 bc
       0.024085537 -0.1368994 0.30971435 -0.025824135
0000a0 61 43 85 3d 40 0a 6a be b2 ad 03 3e c9 bb 75 3e
       0.06506992 -0.22855473 0.12859228 0.23997416
0000b0 4c fe f9 be 73 65 f8 bd 42 6a 27 be 61 98 5f be
       -0.48826826 -0.12128725 -0.16349128 -0.21835472
0000c0 2a d2 a0 be 1c f0 00 be 53 bd 9c 3e f9 33 54 be
       -0.31410342 -0.12591594 0.30613193 -0.20722951
0000d0 bf 06 25 3e 20 c4 e4 bd c0 d6 3e be 65 64 1e be
       0.16115855 -0.111702204 -0.18636608 -0.15467985
0000e0 02 7b 30 3e 34 62 81 be e3 4d f7 be 3a 3d 72 bd
       0.17234424 -0.25270236 -0.4830161 -0.05914042
0000f0 cd d0 d4 3d a0 c4 1a 3b 89 2b 10 3d f1 cc e7 bd
       0.10391388 0.0023615733 0.03519777 -0.11318386
000100 77 2c 7c 3e 0b b9 fe be 04 bc c2 3b 8a ec a0 be
       0.24626337 -0.49750552 0.0059428234 -0.31430465
000110 35 9c 63 bd ee 18 8e be 64 11 f2 bc 44 54 89 be
       -0.055568893 -0.27753395 -0.029549308 -0.26822102
000120 d3 ad 26 be 38 3e 95 3e 3c 9e 7d bd 22 e8 b5 be
       -0.16277246 0.29149032 -0.061918482 -0.35528666
000130 56 fd e1 3d e5 7d 04 be 34 4e 66 3d 0b 53 05 be
       0.11034648 -0.1293865 0.056226924 -0.1301996
000140 0f 23 5b be fc e3 52 bd 13 c6 bd be 36 84 c5 3c
       -0.21400093 -0.051486954 -0.3706518 0.024110895
000150 1a ff b2 bd b5 27 91 bd 62 95 95 3d 3c 39 f9 bc
       -0.08740063 -0.07087652 0.07303883 -0.0304228
000160 33 eb 64 bd c7 50 da 3d 6d 9c cd 3e 21 4d 59 be
       -0.055888366 0.10659938 0.40158406 -0.21220829
000170 2e 3e 1e be 82 84 b9 bd 12 77 72 3e 20 dd 66 be
       -0.15453407 -0.09058477 0.23678234 -0.2254529
000180 59 91 60 3e dd c0 fa 3d a3 29 9b bb 68 4c 4b be
       0.21930446 0.12243817 -0.004735188 -0.19853365
000190 7b 48 cd 3e 2f 80 8e 3d 30 5b 28 3c 14 ae 50 be
       0.4009436 0.06958043 0.010275647 -0.20378906
0001a0 2e 9c 19 3e d5 fc cf 3e 02 80 22 be ac b8 9c be
       0.15000984 0.40622583 -0.15869144 -0.30609643
0001b0 20 8f 8a 3e 20 fe 71 be 10 d4 b5 bb 3e 42 e1 be
       0.2706232 -0.23632097 -0.0055489615 -0.4399585
0001c0 64 58 e7 be ff cd f8 bd 3d 93 cf 3e 57 13 b6 be
       -0.45184624 -0.12148666 0.4054202 -0.3556163
0001d0 00 52 f7 b9 c8 05 92 3e 4f 12 0c 3e fd 17 04 3d
       -0.00047172606 0.28520036 0.13678859 0.03224944
0001e0 dd 5d 76 be ff 7f a5 3e 4d d5 c5 3e 60 ba 15 bf
       -0.24059244 0.32324216 0.38639298 -0.5848751
0001f0 44 1d 09 3c 8a 54 b4 3e 42 a7 07 bf 48 91 04 3d
       0.008368794 0.35220748 -0.5298959 0.032365113
000200 05 a0 e9 bd bc 26 be be c7 30 ae 3e b6 19 1a be
       -0.114074744 -0.37138927 0.3402159 -0.1504887
000210 7e f5 b8 3d 31 88 7a be 26 1c 93 3d d2 53 18 be
       0.09031199 -0.24466015 0.07183103 -0.14875725
000220 57 b1 a2 3e c6 7c 4d 3e f5 c7 32 be 27 c9 7b 3e
       0.31775925 0.20067129 -0.1745909 0.24588452
000230 ac d0 cd bd c0 ef 9e be 59 de 66 be b3 e5 f7 be
       -0.100495666 -0.3104229 -0.22545756 -0.48417434
000240 be 40 d2 3e c2 25 a4 be ab 44 64 be 27 17 05 3f
       0.4106502 -0.32060057 -0.2229182 0.5198845
000250 b3 a0 4c 3d e0 f6 9c 3b 70 51 06 be 9a d1 d2 3d
       0.049957942 0.004790172 -0.13117003 0.102938846
000260 96 f8 12 bd a5 7a f6 be e3 42 8f 3c 05 61 13 3e
       -0.0358816 -0.48140445 0.017487949 0.14392479
000270 f8 11 e7 bd 60 4f 74 3e a9 bf 05 be ec cf 15 3e
       -0.11282724 0.23858404 -0.13061394 0.14630097
000280 b3 fe 14 be 2a a6 b7 3d 7e c5 b9 3a 6e cf bd be
       -0.14550285 0.0896724 0.0014173237 -0.3707232
000290 2e c2 bc bd 19 4c 7c 3e 42 af 66 3e 1c 0b b9 3e
       -0.09216724 0.24638404 0.22527793 0.36141288
0002a0 23 e1 bf 3e 0a 39 0d be 10 39 0c bf d9 d7 a4 be
       0.37476453 -0.1379129 -0.5477457 -0.3219593
0002b0 e0 cb c8 3e 2f e1 89 bd a3 80 39 3d 4f 15 98 3d
       0.39218044 -0.067324035 0.045288693 0.07425939
0002c0 ba 9d 04 3f 60 44 e3 bd 6d 37 07 bf 6d aa 77 bd
       0.5180317 -0.11097026 -0.5281895 -0.060465265
0002d0 ab 8a 48 3e e0 61 15 bd ea a8 7d be fa 77 02 bc
       0.19584148 -0.036470294 -0.24771467 -0.007963175
0002e0 67 b8 30 be 40 16 45 3e b0 ce 42 3e bf 8d f1 3c
       -0.17257844 0.19246769 0.19024158 0.029486535
0002f0 2a ed 9c 3e 7b 6c 85 3e ba 06 f2 3d 13 d2 5a bd
       0.30649692 0.26059327 0.11817689 -0.053423
000300 8b fc e2 bd 70 aa ef be 5d 9e 3a be b4 e1 50 be
       -0.11083325 -0.4680972 -0.18224473 -0.20398599
000310 ad 89 99 bd 7d a3 64 bd 3c b5 02 be 9b fc a8 bd
       -0.07496963 -0.055819977 -0.12764448 -0.08251306
000320 69 34 61 3d 38 66 81 bc db 7d bf be d8 e0 d1 bc
       0.054981623 -0.015795812 -0.37400708 -0.02561991
000330 4c cc eb bd 9d 11 a8 3e 54 a2 8a bd cb 9e 99 3e
       -0.11513576 0.32825938 -0.06769243 0.30003962
000340 55 a4 1c 3e 25 cf c9 3d 17 f6 aa bc a9 87 ae 3e
       0.15297063 0.09853963 -0.020869298 0.34087875
000350 86 1d 8e 3e 4e 39 8c bd d0 25 31 bd 3a 59 3e 3e
       0.277569 -0.068468675 -0.04324895 0.18588725
000360 e3 16 c3 be 79 84 14 3e 66 8b f5 bc b8 fe d7 be
       -0.381034 0.1450366 -0.029973697 -0.42186522
000370 bb 11 c0 bd ab b5 fa be ce 95 28 3b 17 f8 1c 3d
       -0.09378382 -0.48966727 0.0025724056 0.038322534
000380 f1 07 c4 3e 2a 61 11 bd 95 f8 54 be aa 6c 27 be
       0.3828731 -0.035493053 -0.20797952 -0.16350046
000390 fe e5 97 3e 59 75 a8 be a0 87 41 3e c1 fd cf be
       0.29667658 -0.3290203 0.18899393 -0.40623286
0003a0 92 10 61 bd 7f 58 22 bc ab f5 5b 3e b0 da 2c bf
       -0.054947443 -0.009908794 0.21480434 -0.6752119
0003b0 90 d2 d1 3c 5e 72 84 3e 8a 21 84 3e c5 93 cd bd
       0.0256131 0.25868505 0.25806838 -0.100379504
0003c0 44 da 8a 3e 01 03 37 be 8c 29 89 bd 95 50 0c be
       0.27119648 -0.1787224 -0.066973776 -0.13702615
0003d0 b5 d6 14 be 77 43 07 3f 3d b5 90 3e 70 c0 14 3e
       -0.14535029 0.5283732 0.28263274 0.14526534
0003e0 1c 19 ac bd 7d 56 c1 3e 4b 10 60 3e 21 76 74 be
       -0.08403227 0.37761298 0.21881215 -0.23873188
0003f0 af 61 7b 3e 50 1e e9 3e 10 f6 06 bd d4 c1 c0 be
       0.24548982 0.4553094 -0.032949507 -0.3764788

linear2.bias f4 [3]
000000 b4 91 23 3e 60 ee b9 3d b2 b2 d3 bc
       0.1597355 0.090786695 -0.025842045
