pygame_env/code/rlhf_dqn/model.pt (torch, 255379 bytes, 4 tensors)

fc1.weight f8 [128, 243]
000000 20 9a d8 4c 96 01 69 3f a0 b5 8e c2 46 0d 6d bf
       0.003052514605559567 -0.003546369746308911
000010 74 66 be ee 24 7f 81 bf 40 00 d2 b8 fc 3f 65 3f
       -0.008543289695626323 0.002593988034789191
000020 4c 19 e0 c0 59 1a a7 3f 00 97 ea e7 34 19 46 3f
       0.04512291411815514 0.0006743915872291228
000030 d4 23 1c d0 b6 82 93 3f 60 44 85 f8 6b e7 7a 3f
       0.019053322269460285 0.006568357239602113
000040 94 a5 fd 96 be 1f 92 3f 80 3c 92 ea ee a6 6d 3f
       0.017699220624682946 0.003619639047037604
000050 9e b2 ef a5 30 08 83 3f fc 03 0f 1d f1 3e 65 3f
       0.009292964996313654 0.0025934895752190972
000060 1d 36 52 9e 6c b2 97 3f 2a 87 52 8a a1 34 95 bf
       0.023141572154193314 -0.020708583896186607
000070 e1 ff 20 ba 86 9e 7d bf e9 d1 7f bc 26 0f a0 bf
       -0.00723126056442422 -0.031365595350425775
000080 92 72 3d 18 cd 40 a9 3f f4 c1 98 3b ee 2f 95 3f
       0.04932251854800031 0.02069065321683357
000090 96 9f 1d 4b b8 ba ae bf 85 49 35 16 79 70 7c 3f
       -0.06001830975475213 0.006943200106734775
0000a0 3c bb d4 0e 6e cb 97 bf 65 9d 4a 33 02 5f b3 bf
       -0.023236961035929968 -0.07566846611245166
0000b0 bc 08 7e 01 48 b8 a8 bf f7 08 4e b6 bd 79 91 3f
       -0.04828095453469092 0.017065967800143658
0000c0 68 fb e3 dc 61 1e 79 bf 11 1b a5 d6 39 7e 73 bf
       -0.006132490422031768 -0.004759050303909233
0000d0 c0 af 3b e2 1b 9b 53 bf d0 16 db 42 a7 8d a7 bf
       -0.0011966488172516637 -0.04600260439978643
0000e0 54 eb 51 24 a2 6d b1 3f af 46 9c 53 0b 22 a6 bf
       0.06807912241667441 -0.04322848697314662
0000f0 05 94 14 15 5d 8c 98 3f ec 91 91 9c 9d c4 af 3f
       0.02397294465221835 0.06204693351972765
000100 b9 94 69 f1 6d c0 a2 3f ea b7 56 ae 13 f2 7a 3f
       0.036624370307245475 0.006578518752048604
000110 7f cc 8b b5 b1 fd 90 bf 90 96 68 03 4c 28 9e 3f
       -0.01659276648110763 0.029450595577279304
000120 40 cb 6f 94 ce 40 8e 3f 14 e0 7f d8 16 f0 89 bf
       0.014772046952179374 -0.01266496513561325
000130 67 f4 79 80 d5 7d 8b 3f e2 8a 52 8a ad 0e a3 bf
       0.01342360304192365 -0.03722135842806097
000140 78 a4 0d 03 74 01 a1 3f 80 48 17 c3 25 78 54 bf
       0.03321421181937806 -0.0012493485231641899
000150 4a 47 c9 65 3a 53 8f bf 72 2a 1b d5 38 7e 92 bf
       -0.015295463782567648 -0.01805962372490417
000160 2a 4e 77 ef 22 e1 9f bf ae ce 5a 89 c9 7e ac 3f
       -0.031132264963004065 0.055654809967930916
000170 50 b0 c3 a7 e4 65 b0 3f ca 78 d0 99 22 7e a1 bf
       0.06405476661501663 -0.034165459896244935
000180 fa ce 49 78 b7 d3 b1 3f 54 57 08 51 20 66 94 3f
       0.06963679014898708 0.01992083067496904
000190 71 93 72 ab af 00 8e bf c9 9c f9 16 28 01 aa bf
       -0.014649746341385246 -0.050790074162074435
0001a0 9c 63 fe f4 ad 1e a4 bf a4 bc b5 35 e3 98 92 bf
       -0.039296566158731866 -0.018161344674294214
0001b0 40 13 72 97 33 87 82 3f f5 d7 a0 61 80 17 af 3f
       0.009046938952687378 0.060726177136913785
0001c0 77 ba 51 1d e2 36 a1 3f 5a 96 34 ec 0b 5b b0 bf
       0.033621851042757216 -0.06388926045163981
0001d0 0e ec ca ce 14 e9 98 bf c9 d4 7e 6c 37 4e a1 bf
       -0.02432663452303179 -0.03379986953169973
0001e0 a5 34 b0 11 98 20 7e bf ee 39 23 d7 67 0b 75 bf
       -0.007355302829649056 -0.005137830378045367
0001f0 0a 20 4b 71 b6 7c a2 3f 6c 68 02 f0 34 a9 98 3f
       0.03610773213364389 0.024082972668658817
000200 65 c1 c3 5e 1d ee a7 3f 5c f4 c4 55 9c d5 b0 bf
       0.046738546197846266 -0.06575944036463127
000210 dc df da 56 15 d8 a9 bf be 0c 2f d9 76 ac a4 bf
       -0.050476710178770395 -0.040378297816937345
000220 c4 d7 26 31 f7 53 a9 3f 30 31 1c 87 f6 7d 9d 3f
       0.049468731641737956 0.028800823208301185
000230 11 9b b3 8d 61 1e aa bf 85 13 a9 0c cd 99 ab bf
       -0.05101303915744471 -0.053907783313241565
000240 70 17 06 2a 36 d7 a3 3f 8a 36 07 1c a4 ef 9f bf
       0.03875130904184132 -0.031187595568374728
000250 b4 5b a6 9f f1 57 a9 3f b8 2a 1b d3 b2 49 7f bf
       0.04949908326960131 -0.007638643773769153
000260 d2 75 ec 0e ad fe 9f bf 54 36 70 64 7a 8c a7 bf
       -0.03124494937502737 -0.04599363781026669
000270 9c 9a 1a ad 29 1d b0 bf 46 b6 6c 0a a0 0f a9 bf
       -0.06294498897714579 -0.048947335503140496
000280 9c f9 2d bb e0 f9 99 3f 28 a2 b1 68 7c 38 81 3f
       0.02536727087453415 0.008408519692424468
000290 22 d2 10 d9 22 9f aa 3f bc 9c 7d ed 15 ad a5 bf
       0.051995362279204 -0.0423361637502295
0002a0 c0 3f 5c e9 73 73 a3 3f 22 93 e0 41 43 09 af 3f
       0.03799020980488832 0.06061754397550191
0002b0 90 5d 8b dc fb 4b 77 3f d6 ad 3f f7 96 9b a1 3f
       0.005687698205938743 0.03439018028424427
0002c0 14 0e a7 95 2d 62 aa 3f c2 4f 0e 3d 93 70 a6 bf
       0.051530289190420714 -0.043827630236733764
0002d0 ce 45 80 49 62 9d af bf 2c 05 8d a7 ab e2 93 3f
       -0.061747619125650396 0.019419366933339052
0002e0 18 5b 7c 74 6a 59 85 3f 96 a7 e0 c4 c2 9c ae 3f
       0.010424453430045541 0.05978974011698239
0002f0 b0 2a e0 35 1b a0 7e 3f 80 c6 02 68 9c bd 92 3f
       0.00747690800745697 0.01830143341857715
000300 f0 3d 4d b6 7a c9 91 bf 00 ca ce 79 97 9f 30 3f
       -0.017370145203413345 0.0002536530317300001
000310 e8 43 d1 6f 19 91 8e bf ac 49 d0 24 31 f0 9b 3f
       -0.014925192570588622 0.02728344714348345
000320 54 f9 61 ef 27 af 8e bf 30 af 6d ac e5 cf 86 3f
       -0.014982521050339294 0.011138719868277386
000330 b4 03 88 86 25 2a 99 3f 00 e0 1c 5c a7 00 51 bf
       0.024574838958873094 -0.0010377535222243495
000340 c0 09 a0 bc da 09 a5 bf 14 df fa 49 40 81 61 3f
       -0.04109080841591917 0.0021368270534728537
000350 8e 80 e4 92 76 81 af bf 0a 10 cf 9c 70 dc aa 3f
       -0.06153460066912074 0.05246307291193382
000360 06 12 52 81 6e 71 ab 3f 16 8c b2 c1 b9 74 a5 3f
       0.05359978989239171 0.04190617074461771
000370 60 ae 37 b0 a3 14 74 3f a8 95 4c c4 5c a2 96 3f
       0.0049024957729489615 0.022103738289975944
000380 0f 45 40 7c f7 27 a5 bf 29 de e4 c8 83 fd a1 bf
       -0.04132054702507492 -0.035137289307780435
000390 a2 ae f7 58 69 a3 95 bf b8 9e b7 95 92 cf a3 bf
       -0.021131177954812792 -0.03869302823642101
0003a0 1a 9a cc 5c bf cf a1 3f d0 c1 fc 61 be d9 93 bf
       0.03478811271479661 -0.01938531373088087
0003b0 9a bf c9 26 26 21 96 bf 30 82 e8 17 2c cd 98 3f
       -0.02161082851165439 0.024220169982188178
0003c0 44 b2 51 60 4c 42 96 bf 5c 86 95 5c 7b aa 87 bf
       -0.02173728311429303 -0.011555637133542955
0003d0 20 8f df c2 32 1d 64 3f 02 c6 ef a5 65 ce a2 3f
       0.0024553290777350606 0.03673093462556311
0003e0 00 ae c7 7d 87 79 2d bf 74 87 d4 e4 17 9e af bf
       -0.000224874295681729 -0.061753031428692845
0003f0 95 92 e6 e0 69 b8 a9 bf 4e 82 2e 5a fb df ad 3f
       -0.05023508901948507 0.05834947086191687
000400 70 a2 f5 b6 ad 32 ad bf c0 76 08 97 ce 1e 71 3f
       -0.05702727182762579 0.004179770462113985
000410 9a 4c 60 7c 28 62 ad 3f 4c da 39 72 c8 91 93 bf
       0.05738951223624973 -0.019110805484581925
000420 30 5c 06 7a e1 56 9d bf d0 1c 71 ef 19 4f a6 3f
       -0.028651736328893118 0.04357224510072799
000430 04 2d c4 55 d2 f8 9e 3f 93 d8 89 f6 2f 19 a8 bf
       0.030246054157982108 -0.04706716427328774
000440 5a f6 cf 28 82 0a a6 3f a8 e2 b3 6b d4 11 8f bf
       0.04304892299840608 -0.015170726334404819
000450 04 ce bd 02 13 19 84 bf fc a2 e7 77 9b f6 86 bf
       -0.009813450356637617 -0.011212553593354262
000460 00 1b 4c 44 82 bd 8a 3f 4c c5 f9 b8 4e 50 af 3f
       0.013056771954791824 0.061159572677648016
000470 a4 9e 6f a0 14 89 8e bf 18 b7 e9 5d f4 8b ad bf
       -0.014909897943609814 -0.05770839353941265
000480 40 08 c9 0a e9 b9 aa bf 38 a6 73 da 0f 26 8f 3f
       -0.052199633184969674 0.01520931611453867
000490 4c 09 de 05 34 b0 87 bf 6e de 31 e2 16 e4 a2 3f
       -0.011566549710327799 0.036896433936758
0004a0 40 06 1c 43 1b 94 87 3f c0 34 0e cd 5f 0f ad bf
       0.011512959466475015 -0.05675792101019672
0004b0 ce 8d f0 5a ee 0a b0 bf 80 0d 29 3a df 7e 4e 3f
       -0.06266679496962199 0.0009306516624935507
0004c0 60 c8 fc b5 34 04 a8 bf 4c f2 cd f2 c5 6c ac bf
       -0.04690708848501468 -0.05551737393304687
0004d0 4a 3b 32 78 a5 d1 aa bf b6 19 6c 17 83 48 a4 bf
       -0.052380724832906525 -0.039615723237193576
0004e0 20 17 d9 a4 a5 8e 89 3f e0 c5 fd b2 7d aa 90 bf
       0.012479108899366376 -0.016275371598970412
0004f0 80 64 37 41 28 7c 84 bf 6c 6e 3b b8 22 f7 98 3f
       -0.010002436151739014 0.024380247587812695
000500 08 0a e3 df e8 8a 87 3f 80 7d 82 7e 41 e9 76 3f
       0.01149541791199217 0.005593543850550886
000510 a8 a1 ae cd 41 74 91 bf bc df bd f8 9a 14 95 bf
       -0.017045047930567186 -0.0205864157028086
000520 b0 db 9a 1b e4 28 8c 3f 94 15 d6 86 e5 35 a1 3f
       0.013749868481097355 0.03361432333899042
000530 47 b0 95 c7 0e 60 76 3f e6 00 06 57 4d 8a 58 3f
       0.00546270154277912 0.0014978175423437322
000540 30 00 0c 06 14 e9 50 bf b9 69 51 63 94 90 b3 bf
       -0.0010321326773805699 -0.07642486023670515
000550 a8 b9 8e 12 92 d1 a6 3f 3a 7c 95 74 a3 eb 9f bf
       0.04456764675647956 -0.03117232703277415
000560 29 86 94 0d c0 96 a2 bf 24 26 b5 5b 63 f0 82 bf
       -0.036306382806526045 -0.009247566448396922
000570 c0 92 9a 0a 9c d8 96 3f 1c 56 ea 1c a1 90 86 3f
       0.022310674807743736 0.011018046088149318
000580 0f 64 83 e2 20 76 aa bf 08 cd 44 c8 6f 5c 98 3f
       -0.05168249859861628 0.023790117834505714
000590 cc de cf a9 cc 22 9a 3f e8 34 c2 8f f3 97 a3 3f
       0.025523374428273723 0.03826867227426495
0005a0 3a b2 c6 76 f6 3a a9 3f 38 5f 99 dd 94 02 94 bf
       0.04927797508148442 -0.019541097665153745
0005b0 a2 a2 ff 10 83 d7 a9 3f 48 41 92 69 27 55 99 3f
       0.050472350907346156 0.02473889905792362
0005c0 3d 6c 98 ed c5 9a ad bf b8 e8 65 0e 91 57 ae bf
       -0.057821450475068016 -0.059261830337122345
0005d0 80 bb b6 98 e2 00 4d 3f 80 57 12 3b a6 1f 50 bf
       0.0008851152828607128 -0.0009841082904009368
0005e0 b3 d3 75 aa 8e 56 9a 3f c2 df 3f 4a dc f2 a3 3f
       0.02572081485182638 0.038962253631268165
0005f0 66 de c9 3c 6a 37 a3 3f be 07 1e af 93 e7 aa 3f
       0.03753215782211043 0.052548041464447234
000600 fc 75 be ac 4d 49 a8 bf 90 f9 50 3b 97 56 a8 3f
       -0.047434260689652036 0.04753563498569513
000610 20 7d 5b ff 1a 5a 68 bf c4 40 7e cc c0 2d 93 bf
       -0.00297265313098162 -0.018729221802971777
000620 10 58 6d 6b 8a a4 a1 bf c6 a6 40 09 f3 89 8b bf
       -0.03445847092977783 -0.013446711273064859
000630 bb 2d 32 b6 2d f2 66 bf 7d 08 2f 1b f7 0b 9c 3f
       -0.00280102661196732 0.027389393839037702
000640 97 e3 e8 70 5f e2 ae bf cc b9 64 1f 51 69 ac bf
       -0.06032083752911104 -0.05549100406857441
000650 c2 33 97 54 3f c9 a0 bf ca fd a6 0e c5 a4 95 bf
       -0.0327853956947375 -0.02113635923319438
000660 7a 7f c3 14 72 7e a6 bf 8d 5f be 58 e8 5c b2 bf
       -0.04393345359289831 -0.07173015753357799
000670 12 5b 94 37 7b ae 93 3f ac aa c1 a9 81 18 5d 3f
       0.019220280902199134 0.0017758623353311504
000680 30 f7 34 fb 53 8f 76 3f 7c e3 c3 68 05 27 a1 3f
       0.005507782031882333 0.033500832594603985
000690 40 b8 cd 40 11 81 6b 3f cc a3 37 c4 aa 7d aa bf
       0.0033574425673839337 -0.0517400135539173
0006a0 a6 16 9a 6a df 64 a7 bf 2b b4 85 ad 19 22 ab bf
       -0.04569147278111289 -0.05299453967277431
0006b0 3e 21 0f b8 64 77 a7 3f e2 14 aa bc 26 72 91 3f
       0.045832774608756996 0.01703701521411894
0006c0 b6 12 c1 56 dc 78 73 3f 68 4a 85 b9 d5 ae 84 bf
       0.004753933619274056 -0.010099096035138547
0006d0 0b 2b d3 74 4e cd a7 bf f6 28 05 3c 4d b9 94 bf
       -0.04648823906025797 -0.020238119877185455
0006e0 70 38 28 c2 c5 2c 96 bf 40 18 07 b4 d2 0e 58 3f
       -0.02165516850987398 0.0014683778427850985
0006f0 c4 89 3b 42 ba 7e 92 3f 1e a4 a5 ee 33 2f 91 bf
       0.018061552326693833 -0.01678162712179098
000700 d7 35 26 d7 c6 ab 6d 3f c7 28 b7 2b 26 ea 8a bf
       0.0036219485857091715 -0.013141916474428318
000710 74 f3 a9 57 66 b7 9e 3f b8 f8 b4 31 d0 12 80 3f
       0.029996489620760028 0.007848383442816562
000720 a2 0c 84 27 cf ba ae 3f 58 04 23 6a 90 f5 9d 3f
       0.060018991063793395 0.029257065275264033
000730 40 e6 91 3b ac 10 59 bf 48 64 18 0b 5e 60 90 3f
       -0.0015298540077125639 0.015992612292482528
000740 8e e4 1b 81 e1 39 96 bf 23 cc 3c 9c cf a6 56 3f
       -0.021705173020539585 0.0013825442737924818
000750 56 9a 4e 58 c2 13 75 3f 88 a5 06 b7 f2 e5 99 3f
       0.005145796928366217 0.025291244908350247
000760 ea 41 5d 7b f2 9f a0 3f 6d 06 f6 70 c5 c4 af bf
       0.03247030025397975 -0.06204812053603068
000770 16 b8 ce 7e 2c 66 90 3f 1c df 66 6c 64 c9 a0 bf
       0.016014762153354033 -0.03278650115265533
000780 5a 2b 7b 97 7f 55 9c 3f 90 b4 ff ef af 79 b1 bf
       0.027669900532412008 -0.06826305016848466
000790 5d c2 0f 82 bd 6a a5 bf 70 10 d0 cc c8 05 80 3f
       -0.04182998860040208 0.007823532820119022
0007a0 98 00 02 23 73 f0 9f 3f cc c4 ec b4 08 f4 91 3f
       0.0311906805150107 0.017532478373315993
0007b0 c0 21 c6 93 e7 12 60 3f 7c 34 9d 48 ed 46 a3 3f
       0.0019621394150741434 0.03765050422098512
0007c0 c0 f0 d5 01 80 02 9e 3f c0 6b 0a 10 2b 4a 9a 3f
       0.029306411850016145 0.025673554281279598
0007d0 76 d3 bd bd 0c 51 a4 3f c8 fa e6 d7 b0 29 a8 3f
       0.03968086067371861 0.047193075518853045
0007e0 ec 25 40 52 31 6a 98 3f c8 b1 44 6a ac 4a 7e bf
       0.02384259285466854 -0.00739543294575324
0007f0 44 4f bd 42 e5 59 85 bf a0 c4 85 7a 8e d9 89 3f
       -0.010425368403651832 0.01262198745164006

fc1.bias f8 [128]
000000 38 4f a0 bf de 00 93 bf 1c 58 26 32 ff 88 9b 3f
       -0.018558006711898417 0.026889789043330933
000010 74 37 e9 5a 9d 5d 98 3f e4 2a 2f e8 e6 23 ae 3f
       0.02379461161972736 0.0588676603725469
000020 1e 92 c8 99 42 c1 a8 3f cb 96 85 57 6d 05 b0 bf
       0.048349458000562104 -0.06258281122935754
000030 5d b9 20 3e 8c 4e a1 bf 25 21 c8 5c 31 77 92 bf
       -0.03380239733120292 -0.01803280953211685
000040 da 75 82 f4 0f e7 a7 bf 25 09 34 df bc 34 ab bf
       -0.04668474063621959 -0.05313673233651376
000050 0a 06 c1 a9 ff 59 aa 3f a8 a8 a7 4a 3e a5 80 3f
       0.05146788546745647 0.008127676633155126
000060 2a 10 e9 e7 e3 d2 b3 3f bf 3c b0 1f 97 3e 9c 3f
       0.07743667995333739 0.02758251315031823
000070 69 07 9d 1a b1 8d 89 bf 5a 23 e8 79 eb d2 a8 bf
       -0.012477286934543934 -0.04848419058914173
000080 b3 6d 9c 10 cc 2e 6f bf f4 25 1a 8b c1 8a ab 3f
       -0.0038064942972490744 0.05379299948715391
000090 fc 18 2f aa 52 5d a8 3f e1 33 f6 01 48 43 91 bf
       0.04758699729386426 -0.016858220214590495
0000a0 62 d7 88 8c a0 76 8c bf 96 20 39 69 87 a2 ac bf
       -0.013898138321660706 -0.055927497477172114
0000b0 3e b7 12 4a 98 35 8b 3f c0 ff 23 fe 41 3a b0 3f
       0.013285817871600988 0.06338894323925981
0000c0 3e 5d 62 42 10 38 a0 3f ff 2a ce bb de ac 72 bf
       0.031677730659050315 -0.004559392979795573
0000d0 85 5d 89 08 39 8b a1 bf e0 ca ab 53 f7 83 63 3f
       -0.034265310566008934 0.0023822622873635874
0000e0 1e 3e de a6 2e 27 a3 3f 11 25 c7 4f f7 c3 b1 3f
       0.03740831171955626 0.069396454789189
0000f0 d4 52 60 ca 66 0d 8c bf ce e3 26 e3 9b 01 83 bf
       -0.01369743638137192 -0.009280412549616115
000100 14 e0 62 27 41 7d 9f 3f 20 17 d5 d0 b5 86 74 3f
       0.030751245526261142 0.00501128217485361
000110 15 ff 71 74 58 01 a7 3f c4 2d 02 23 20 dc a5 bf
       0.044932140554918266 -0.04269504954671846
000120 15 35 17 7c 83 7a a9 bf d4 ba 3d 7c 25 dc aa 3f
       -0.049762829683098676 0.05246083394637471
000130 cc bf b4 5b 63 37 9d 3f 7e f6 98 3c bc 1f a9 3f
       0.02853160140256232 0.0490702461215564
000140 4c 87 69 3e 1c 45 a5 bf 8e cb 86 7b 49 bb 87 bf
       -0.041542894953421866 -0.011587690431815092
000150 7a be 48 af 0b 6c a4 bf 6c 41 9e 43 39 c5 9b 3f
       -0.03988682284068275 0.027119536163412603
000160 f9 85 c0 76 32 50 a3 bf c1 cd 4b 7a a5 ea 93 3f
       -0.037721230503176835 0.019449792470323638
000170 b0 90 b2 15 63 ed 6e bf 1c 07 dc 7e 9d fc a1 bf
       -0.003775304341234152 -0.035130426154877464
000180 47 70 2f 13 40 d7 a2 bf 9a 27 fd 6d 29 98 97 bf
       -0.03679847940631525 -0.0230413888341797
000190 24 63 c8 22 61 51 9b bf 8c c5 ca 36 60 28 90 bf
       -0.02667762541577469 -0.015779021591418238
0001a0 20 25 88 1c b9 05 a1 bf 7c 12 d4 55 47 70 8c 3f
       -0.03324678872383857 0.013886029536032789
0001b0 e1 c4 b7 59 fc d6 87 3f 44 88 8a d7 5d c6 a4 3f
       0.011640521514865334 0.04057591682546094
0001c0 40 b0 74 1d a5 06 a6 3f 8a 8d 6b ba d8 46 a5 3f
       0.04301944717948958 0.04155614162098249
0001d0 62 a1 cd 11 70 4c 9a 3f 40 4a 5a b5 98 96 99 3f
       0.025682211958526387 0.024988542622461418
0001e0 c9 c3 84 c7 b9 c9 9c 3f 79 10 73 a4 6f 73 86 3f
       0.028113272478723226 0.010962364393329193
0001f0 7e 2d 0f ae 7c c5 a2 3f c9 2b d0 20 83 0f 90 3f
       0.03666295647380034 0.015684174421078532
000200 ae 7d 16 0a 47 23 9d 3f 74 e1 08 ec 23 d3 90 bf
       0.028454885473932094 -0.016430436402715867
000210 f3 25 82 cc 11 81 8c 3f 34 a3 3a 7e 3a 81 a7 3f
       0.013918055585480515 0.04590781012422554
000220 18 8c 8d 7b 7d ef 6a bf 40 cd 6b ac 42 e5 88 3f
       -0.003288025935420002 0.012156029593347939
000230 8e 78 87 f3 e0 37 ae bf c2 63 61 60 22 1a a9 3f
       -0.05902007076996184 0.049027513756932276
000240 d8 be f1 b2 14 e3 9a bf ec fe f5 d1 f6 3e ad bf
       -0.026256869718450954 -0.05712100327491307
000250 22 50 aa e7 e9 e0 95 bf 41 7e 28 ff 26 c8 9a 3f
       -0.021365790142752535 0.026154145549410982
000260 f8 9a 22 a3 bc 15 a0 bf 72 66 86 02 73 b1 4e 3f
       -0.031415839113199284 0.0009366809436414782
000270 28 27 c2 c3 08 33 95 bf 83 b6 12 a8 ef 89 87 3f
       -0.020702492664475575 0.011493561093028909
000280 d6 27 30 d5 c8 fa 97 bf 02 00 04 a5 f0 d8 58 bf
       -0.023417604457826112 -0.0015165662808271922
000290 87 53 7f 5f 37 af 9a bf 44 4c e0 a3 1f 93 9a bf
       -0.026059022144028467 -0.025951856972892054
0002a0 60 03 df 15 4f c3 7d 3f 01 52 9d 20 f8 ed 8d bf
       0.007266339232899849 -0.014614046569172425
0002b0 d9 ae 1f 0a 35 78 a0 bf 99 43 f1 16 f9 a3 a1 bf
       -0.032167108045397526 -0.034454139757719555
0002c0 4a 80 e0 c1 4e d5 92 bf d0 92 95 b3 5f c8 6d bf
       -0.01839182909327545 -0.003635584752077349
0002d0 98 98 fd 5b b2 8e 88 3f 39 36 8e 47 e1 ac 93 bf
       0.011990922386484734 -0.019214172356035262
0002e0 4c 99 cf a5 67 7d 62 bf 90 f1 b5 8c d4 24 83 bf
       -0.002257063328659081 -0.009347591919088655
0002f0 5c a8 b2 aa 81 72 a5 3f 75 0a a3 fb 0c 39 a9 bf
       0.04188924034799932 -0.049263387410538075
000300 06 f0 d3 8b 8a a9 ab 3f 02 c5 9d 7b e5 e8 aa 3f
       0.054027871674378544 0.05255810865390666
000310 21 a6 6f 04 a2 4c a4 3f 8c b5 c0 86 cb a0 8e bf
       0.039647162477035154 -0.014955129670932953
000320 2b 34 49 e9 68 c3 a5 3f f8 26 be 2b a5 ac 75 bf
       0.04250648353318128 -0.005291600416862378
000330 7e 52 f8 ae 8f 8a a9 3f 24 cd cd 17 cc 52 ac bf
       0.04988526354660382 -0.0553191927964696
000340 c4 5c e6 61 06 74 9f 3f e9 fd e4 1e c6 0f a1 3f
       0.03071603748830111 0.0333234703743946
000350 0d e6 ae e8 d3 46 8a bf 13 00 bd 21 20 d9 a5 3f
       -0.012830405748775165 0.04267216121525066
000360 78 7c c4 85 04 e8 91 bf a2 62 55 2d b3 34 b0 bf
       -0.017486639656564468 -0.06330413681770122
000370 4c c5 d1 5b 95 be ab bf 78 65 cd fd 8c 8f 86 3f
       -0.05418841119616022 0.011015988822395725
000380 68 5c aa 22 94 40 aa 3f b3 33 c6 f9 34 79 91 3f
       0.05127394602930552 0.01706393026829618
000390 c0 0c 80 42 ec 93 6d 3f 84 8b aa 55 cc 22 76 bf
       0.0036105741928636748 -0.005404279882585853
0003a0 9a ef 9a 64 61 1a 99 bf 8a 4c 89 48 c0 cb 65 bf
       -0.0245146958975365 -0.0026606326612551067
0003b0 4d c2 e8 1e f3 5c af bf 42 46 ab 60 5c 56 a9 bf
       -0.0612560248595214 -0.04948700599710466
0003c0 60 6a ad 18 7e 99 60 3f 1c 25 b0 8c 5e 8a b1 bf
       0.0020263159580456297 -0.0685175984837269
0003d0 50 fa 49 c1 ba 48 76 bf dc 46 56 72 9b 20 a2 3f
       -0.005440454017501553 0.035405023295550925
0003e0 ba c1 49 75 71 78 a2 bf e0 a8 22 ce ab 60 6a 3f
       -0.03607515866031315 0.003219924504340374
0003f0 76 42 5f e2 ae 49 8e 3f ca e4 dd e6 2d 4d a1 bf
       0.014788976939514625 -0.03379195635984329

out.weight f8 [4, 128]
000000 22 66 34 07 54 9e 85 3f 82 f0 ed aa c9 1e a6 3f
       0.010555893392438401 0.04320364200154449
000010 81 1d 84 78 3e 14 94 bf b8 75 09 0f bc 90 8c 3f
       -0.019608474832265358 0.013947934349910138
000020 70 62 fc c2 0d 3e 84 3f 34 e4 6b d5 2f 49 92 bf
       0.009883983147618042 -0.01785731067773018
000030 2a 06 97 dc 46 ab 93 bf 9b b6 c7 77 df 13 88 3f
       -0.019208056653729745 0.01175665458955715
000040 ff ed d8 a5 3e 44 a0 bf aa ac 9f 8b fb 24 96 bf
       -0.03177066587928933 -0.021625452420192794
000050 98 5c 29 26 3e 53 95 3f d7 de 36 8a fa a9 b2 3f
       0.02082535846633657 0.07290616869328957
000060 54 1f e6 10 1a 90 ba 3f 3d 97 2d 0c dc e4 93 bf
       0.10376131928034954 -0.01942771744088322
000070 03 9c c6 15 61 a4 9a bf 06 e1 b1 dc 5f 5d c0 3f
       -0.026017682031717736 0.12784956241717554
000080 34 de bc 29 a5 7d a8 3f 21 e8 8e 48 1e f5 b1 bf
       0.04783359655851563 -0.07014645835343504
000090 1c 7c 24 e5 86 0d 91 3f 09 f8 83 01 21 7c a7 bf
       0.016653163657903133 -0.04586890357494162
0000a0 a1 37 63 8b 8f a6 a9 3f ee b7 67 9a 7b 19 af 3f
       0.05009888245113748 0.0607412935240602
0000b0 56 87 cb 47 83 30 a1 3f a8 8a 33 82 0c a2 88 bf
       0.033573248399774755 -0.012027833674840352
0000c0 3c 46 13 8c d9 19 a3 bf c6 62 eb 6d 08 ac b2 bf
       -0.0373065932741494 -0.07293751414853053
0000d0 75 e3 ab 14 04 da 80 3f 5c 7e ee 5f a7 7b 95 3f
       0.008228332405893582 0.0209795143415462
0000e0 16 1a 33 2f d4 77 ad 3f 78 64 c3 04 50 68 b7 3f
       0.05755484653632352 0.09143543354311301
0000f0 60 10 d0 93 66 43 67 3f 89 35 16 c5 0f 25 a9 3f
       0.0028397563423841338 0.049110882576410005
000100 65 24 81 7c 00 88 b4 bf 05 93 a3 5c fa 8b b2 3f
       -0.08020022430095393 0.07244839441007052
000110 38 ff 77 92 f4 40 ad 3f b7 25 94 ff a0 22 80 bf
       0.05713619506786788 -0.0078785493847303
000120 47 73 ee 55 47 a9 b0 3f d7 cb 6f d5 be 57 a0 bf
       0.06508298728881555 -0.03191944461277501
000130 59 99 51 6f e0 7d b3 3f 7e c5 ba 76 19 5b a6 bf
       0.0761394759916575 -0.04366378378234524
000140 80 85 29 88 bb 65 89 bf 66 44 09 4b a4 b5 a8 3f
       -0.012401070683327076 0.048260816726391195
000150 4e cd 47 2f 30 d6 a9 3f d0 0d dc b1 44 36 b4 bf
       0.05046225144533399 -0.07895306913638156
000160 ec 0c 8e af 4e ff b3 3f 4d 23 74 89 97 1a b6 bf
       0.07811443124778678 -0.08634326082041106
000170 e0 75 47 c9 7c 57 83 3f 9f 32 56 14 f4 3f b6 bf
       0.00944421281104274 -0.08691335197927195
000180 1f f2 e9 86 83 c7 bc 3f a2 f8 a6 20 c8 0b 9c bf
       0.11241933864398178 -0.027388693802770654
000190 0c 17 9f 61 29 30 98 bf ef 8b 69 a7 e3 81 b1 3f
       -0.02362122209867494 0.06838820302213809
0001a0 1f 3b 76 2a ae 8b a8 3f 4a 25 fb 7e 9d 21 b1 bf
       0.04794067638714793 -0.06691917753336898
0001b0 f8 f3 da fb ef d4 aa bf ce ec 34 bf a9 83 b3 3f
       -0.052405833715489736 0.0762277690709425
0001c0 32 0c 62 b0 11 5c 9f bf 82 b1 54 d8 04 e3 b5 3f
       -0.030624653235019568 0.08549528390421382
0001d0 50 9d 48 ec aa 33 8e 3f 59 de 6d 96 1a 19 b6 3f
       0.014746985755734215 0.08632055447184807
0001e0 fb 74 0b da ec 17 9f 3f 71 3d 6c b9 b6 ad 95 3f
       0.030364704903026212 0.021170477931318602
0001f0 e8 51 a8 af 4c 9d 93 3f 01 fb c9 c1 61 78 b4 3f
       0.019154737683566042 0.07996188145805762
000200 04 cf c6 5c de e6 b0 3f 44 ac 76 29 ed 89 a8 bf
       0.06602277531674977 -0.04792729502818152
000210 e1 74 c7 79 b0 65 41 bf a0 07 08 68 b0 2e 62 3f
       -0.000530921144271137 0.0022195287167514205
000220 d6 ce 42 bf 71 96 b0 bf 20 7f 17 dc ba 6a 8a 3f
       -0.06479559821564904 0.012898883668583105
000230 78 3e 39 b2 f6 55 b3 bf b8 b7 45 1b 95 5b 89 3f
       -0.07553045130884495 0.01238171090582428
000240 29 47 0d 34 50 10 b1 bf 33 f3 f2 07 48 69 b0 bf
       -0.06665517111585174 -0.06410646623676257
000250 7a 22 df bc 3b 9d 9e bf 3e e5 0d c2 f6 fd ae bf
       -0.029896672632988765 -0.06053134077860499
000260 57 68 ec 83 5b e7 b1 bf 42 74 5c f2 9d e0 b6 3f
       -0.06993648501193782 0.08936488310833204
000270 4b a8 bb f2 30 49 b6 3f 86 38 3e c6 00 71 a7 bf
       0.08705430914020089 -0.04578401966055971
000280 eb 09 40 89 84 35 b1 bf e3 86 5e 78 57 22 a9 bf
       -0.06722286558946393 -0.04909013122893471
000290 a3 49 6d 76 b0 73 ae 3f 3c dc 40 c6 6d 9f b2 bf
       0.059476389366540226 -0.07274519052667555
0002a0 50 15 56 27 b1 85 71 bf be 63 75 e7 e0 d3 b3 3f
       -0.004277889257882819 0.07745175982326111
0002b0 15 50 d8 6e a9 80 b4 3f ff 3c 7c b4 c4 0c b5 3f
       0.08008822399307321 0.08222608000163588
0002c0 59 5b 38 e2 f5 1d b6 bf 54 39 64 b3 5e fd af bf
       -0.08639466069176417 -0.06247993411862987
0002d0 58 e3 3f 06 b5 4a 94 bf d8 16 bd 0f cf 61 a2 3f
       -0.019816235071604765 0.03590247218248316
0002e0 81 39 36 c6 c5 bd a6 3f 3b 2c 38 1e 58 a9 ac 3f
       0.04441659969880885 0.05597949379815544
0002f0 c8 84 2c 7b 8f 68 9b bf 19 1c 0b 3a 31 24 b1 3f
       -0.026766054051340388 0.06695850054812559
000300 fc bd eb b2 15 b4 9c 3f 72 dc 1a 0a 3b 64 ab 3f
       0.028030718846762767 0.05349907396651411
000310 fc b6 6a 4b a5 66 a6 bf 8d ce e9 9f 31 2c 91 3f
       -0.04375187440505887 0.016770148644765604
000320 ee 85 7e 4a 5e cc aa 3f ee a7 52 b9 7f de a4 3f
       0.05234045657494933 0.04076003205530286
000330 3f ea 35 f5 bd 84 b6 3f df fe 14 32 d3 c6 b1 bf
       0.08796298252665567 -0.06944007847505017
000340 d5 d7 cf cf 2a 80 b3 3f 6b c3 fc c7 3d 8b b3 bf
       0.076174426780056 -0.07634340412620381
000350 5f b3 09 73 a2 3e b5 3f 02 10 2e c5 1d 89 a2 3f
       0.08298697765867534 0.03620236427289571
000360 3c 0c b1 13 b3 be b4 bf 19 5a 88 9e c1 9c 82 bf
       -0.08103484373809605 -0.00908805146268059
000370 e0 b5 b9 44 5c d8 93 3f b4 57 a4 9b 9b ba 9d 3f
       0.019380037016551444 0.029032164930945917
000380 c9 df 28 47 09 c1 b1 3f 27 9a 5b c9 28 cf b1 bf
       0.06935174929901601 -0.06956725040399957
000390 e7 63 9b 09 61 0a b2 3f 9c 87 b8 9f d6 bc 97 3f
       0.07047087177797061 0.02318129873140827
0003a0 f0 18 46 85 47 09 95 3f f5 6c 92 1b 85 3a bb 3f
       0.020543210515392596 0.10636169360298083
0003b0 7a 4d a5 fe b2 d4 a3 3f 60 98 bf e0 7b 2c 85 bf
       0.03873214109867269 -0.010338752552297048
0003c0 97 96 75 1a a9 5c ab bf 26 21 87 8c 64 93 b1 3f
       -0.05344131896962983 0.0686552851758547
0003d0 98 cc d1 a4 c1 fd 85 3f d2 93 50 68 35 13 65 3f
       0.01073790821303637 0.0025726359476885086
0003e0 69 d0 cf ab 5c a4 b0 3f 64 02 a9 8f 74 62 90 bf
       0.06500796503661523 -0.01600057722885352
0003f0 96 a2 fd 17 21 46 b3 3f 92 d4 02 eb 98 72 c0 bf
       0.07528883777343717 -0.12849723315381262
000400 c6 e7 18 27 fd b9 a9 3f 86 eb 67 6d 5d 5e ab 3f
       0.05024710752736854 0.053454322438446986
000410 5b a8 67 38 f9 fa b2 3f f4 0e 5f 66 17 aa 96 bf
       0.07414205195496619 -0.022133222220658902
000420 67 b4 a5 42 cf 4f b5 3f ee 2e 40 c6 c0 ce 9b bf
       0.08324904801493603 -0.027155887699378427
000430 7e d0 c9 28 10 29 a6 3f 8a 7f 0a 7b ab 67 a6 3f
       0.0432820367613269 0.04375968815770566
000440 fd d5 f5 58 a2 18 b1 bf ae 6e e7 e7 28 29 b2 bf
       -0.0667821376026367 -0.07094054853171869
000450 44 ac 0e 40 dc 50 a6 bf 00 d0 48 a9 ec 92 17 3f
       -0.04358566553067836 8.992738214247398e-05
000460 bd 70 8c 69 09 9c b3 3f a4 c3 70 75 fc 6e 78 bf
       0.07659968211050035 -0.0059652196569438855
000470 82 77 66 61 a0 df b3 bf ea 3c 28 5d 15 1a bc 3f
       -0.07763101938186703 0.10977300190301134
000480 75 77 03 94 27 99 b7 3f 6a 5e 66 41 60 e2 ab 3f
       0.09218070376979688 0.05446148680055958
000490 94 57 34 db eb e9 a6 bf 14 af d0 1b da 75 aa 3f
       -0.04475342799030027 0.05168038930454891
0004a0 bc da d7 9f 93 65 9c 3f b8 9d 15 35 67 55 97 bf
       0.02773123419862132 -0.02278672467710205
0004b0 e0 03 27 16 d6 6f 94 3f 75 2b a1 cd 10 26 b5 bf
       0.019957871534419414 -0.08261208553555639
0004c0 40 1d 55 0d 55 3d a0 3f 06 fb 5f 4d d9 c3 77 bf
       0.03171792781591387 -0.005802010380647321
0004d0 1b 79 05 5e b3 d5 8a 3f a0 35 6e 0f fd 0d ac bf
       0.01310291414909819 -0.05479422391281763
0004e0 16 27 2f 8f 1d e2 b3 bf 01 7b 6a d2 ee 31 a6 3f
       -0.07766899820049064 0.04334970778039882
0004f0 80 5d b9 6f 2d eb 4c bf 20 8c af ff 2e eb b3 3f
       -0.0008825275285272854 0.0778073667748207
000500 5c 37 14 b6 8b c5 b4 bf e0 bc 38 9f bd 6f 94 3f
       -0.0811393088845 0.019957506983868778
000510 60 82 0b a5 81 01 ad 3f 7a a0 f0 bb 78 bf ac bf
       0.05665211810788118 -0.05614831251324488
000520 3e fe 70 1a 1d 72 a6 3f 6e bc 0e df 86 6a a4 3f
       0.04383936832209344 0.0398752352988304
000530 30 00 30 4c 42 3f 94 bf 24 49 d5 93 56 13 a5 bf
       -0.0197725638390695 -0.04116316370586251
000540 2e 2a 39 07 72 fb ac 3f 0c 75 3d 98 93 38 a5 bf
       0.056605876332998725 -0.041447269758217414
000550 d0 ac 49 74 f1 7b 7e 3f 37 4f 8e fb 26 78 b2 3f
       0.007442420178090006 0.0721458782339227
000560 be f6 fd bf a7 42 b1 bf 62 4c fe c2 08 6b 9b bf
       -0.06742332875543419 -0.026775490666818398
000570 ab 22 c3 62 20 4f b3 bf 40 c8 fa 07 82 14 5e 3f
       -0.07542612467944802 0.0018359441600464127
000580 8f aa 5a f6 4c 8e ae 3f d0 78 32 bb 9e ea 7b 3f
       0.05967941767933837 0.006815547984983364
000590 67 5f 01 b8 64 f3 b0 bf f6 1f 8e e9 6e 12 9b bf
       -0.0662138890487519 -0.026437504773213015
0005a0 66 29 47 7f 7e cd b0 3f 48 e5 e9 8a bf a3 af bf
       0.06563559157726714 -0.06179617472384763
0005b0 ce 58 8f a6 0e 07 a8 3f f6 ad 90 40 e9 c4 ad 3f
       0.04692884238436222 0.058142937785614565
0005c0 63 ac 32 a1 eb 88 b1 3f c1 66 34 06 55 b0 ab 3f
       0.06849548993584302 0.054079682357224275
0005d0 00 a4 4b 84 97 27 31 3f 3c 90 a7 77 71 2b a1 bf
       0.0002617592729579621 -0.033534570556895876
0005e0 00 d9 e7 fd 72 8a 8e bf d6 fd 05 f4 54 42 96 3f
       -0.014912508367143307 0.021737410921103116
0005f0 80 e7 26 d4 49 b6 a0 3f ba d1 aa b7 eb 18 b1 3f
       0.032640750071961655 0.0667865107923892
000600 94 16 4c bb cd 8b 8f bf 42 56 73 8c 37 24 ad 3f
       -0.015403373030049829 0.05691693868145055
000610 91 5d 2d 8e c7 4f a2 bf 2f b7 0c cd 38 44 a8 bf
       -0.03576491938172944 -0.04739549162910205
000620 ea 43 fc a7 64 43 a1 bf c0 42 bd 23 99 02 97 bf
       -0.03371729422190824 -0.02247084885249495
000630 2c 6d 46 55 2a 9f 91 3f b3 09 58 05 a5 5e a0 bf
       0.017208730177668816 -0.031972081091243075
000640 9e a7 c3 4f 4e db b3 bf 97 26 e5 73 db c5 b2 3f
       -0.07756509253854779 0.07333156184645372
000650 ee b2 cc 7d d1 6b ac 3f 02 5b d0 75 1f b3 95 bf
       0.05551008854522431 -0.021191112104214767
000660 32 1b fa 34 e0 c2 98 3f 7f c2 80 c1 46 40 97 3f
       0.024180892213304613 0.022706132469638703
000670 ce b3 03 5b 47 1d af 3f 60 ff 5b a7 b1 89 a0 3f
       0.0607702540017737 0.03230052154503826
000680 d6 6c 80 b0 f2 c8 b1 3f e0 cc cc e3 af a7 77 3f
       0.06947247323153091 0.00577515322656838
000690 e5 15 10 8d c8 de 92 bf b0 8f fe ca bc 33 82 bf
       -0.018427976236145133 -0.008887743897339678
0006a0 ae 2c 7f ac 20 93 aa 3f 69 4a dd 44 f0 db b8 3f
       0.05190374475167779 0.09710599595318005
0006b0 aa 78 7f b0 62 bf af 3f 33 6b f9 1a 27 05 b4 3f
       0.06200703053012664 0.0782036248069005
0006c0 10 43 b5 f4 68 61 82 3f a3 de 2e 13 7b be a1 bf
       0.008974857299706623 -0.03465637787979616
0006d0 f9 76 e5 e8 81 59 a2 bf 3d a1 44 ec d4 54 8f 3f
       -0.03583913772557241 0.015298522434549095
0006e0 4b cc a4 d8 f9 ee a3 3f 43 26 1b 18 57 42 ad 3f
       0.038932616897363014 0.0571467606474241
0006f0 3c f3 bc ca 43 7c 94 3f d0 ca c3 89 47 45 71 bf
       0.02000528263964728 -0.004216460653185108
000700 de c5 13 8e 8d 52 b0 bf 7c 65 cf c1 45 a0 97 3f
       -0.0637596580379731 0.02307232852385742
000710 6d ec 9a 83 cc b1 b1 3f 32 5a c0 82 88 84 b3 bf
       0.06911924565331314 -0.07624104683086655
000720 b9 82 60 19 03 34 a7 bf d0 1b d4 48 8f 4c 96 bf
       -0.045318695876863165 -0.021776427097417728
000730 ed 56 26 d3 9f 78 a5 bf 05 50 c7 5d 4e a3 a5 bf
       -0.04193591549407736 -0.042261551807001786
000740 a2 56 7b 21 e1 97 b1 bf 51 7f 24 2e 3a 8b ae bf
       -0.06872374598909883 -0.059655969746244104
000750 0f 2b 03 92 4b 96 a7 3f 0d 82 58 24 f6 af 9b 3f
       0.04606853635194429 0.027038427322738246
000760 5d 36 50 d2 ad 59 b6 3f 6b 15 b2 96 a7 8d a6 bf
       0.08730589279749652 -0.044049489160026344
000770 83 30 14 41 6c 05 b4 3f df a5 89 ab d3 b2 b3 3f
       0.07820774639930232 0.07694743097240274
000780 d3 91 72 bd 5f 8f 99 3f 7d d4 17 05 e7 70 a4 bf
       0.02496099084659582 -0.03992387711688481
000790 fb bc 7b 5b 47 62 b5 3f d3 fb d0 1f 3a 85 9b bf
       0.08353086455803187 -0.026875408355632246
0007a0 ba c3 a9 56 5f 1e a8 3f 51 68 7b b7 b3 cf b5 3f
       0.04710672314548199 0.08520053128759854
0007b0 c3 2d 95 ff 81 e1 b0 3f af 73 f3 26 06 83 af bf
       0.06594097604572995 -0.06154650903201941
0007c0 59 15 28 2c d0 41 b6 3f 9c dd a2 ae 45 0d ab 3f
       0.08694172933617973 0.05283563381947973
0007d0 07 e2 d5 0f 86 50 b1 3f cb 78 14 3b bc 55 a7 bf
       0.06763494383438494 -0.04557598324957864
0007e0 f3 6a db 6a c8 27 a3 bf 54 7a 93 0d 16 0c a9 bf
       -0.03741289429100005 -0.04892033496593187
0007f0 5f 8e 4b 8f 7f bc b3 3f 40 a8 cc 28 e0 84 96 3f
       0.07709500549713642 0.021991255274010024

out.bias f8 [4]
000000 0a 82 77 03 05 bd 7a 3f bc b4 1d 11 a1 1f a2 3f
       0.0065279193727012606 0.03539756139694236
000010 5c 30 d3 14 1d 1c 86 bf 07 62 19 c9 84 ac a4 3f
       -0.010795809934642069 0.04037871317695268
