pygame_env/code/RLHF/a2c/model.pt (torch, 772325 bytes, 12 tensors)

actor_fc1.weight f8 [128, 243]
00000000: 3aac 09ce 755f a53f 1cb1 8570 cf9a af3f
00000010: f809 7f8e a723 a1bf 0c41 fdf4 c5f4 acbf
00000020: 60b3 4961 e2df 673f 224b 4f2c a1fb a93f
00000030: 24a4 ff96 692b 97bf 4cff 5cd0 9e31 933f
00000040: 26f9 e0fe 5c4a a7bf fad4 b26a 6c95 9ebf
00000050: 3681 bead 350f aebf fb02 028b 4dd0 9bbf
00000060: a79e cbe7 ac3a 80bf bcc7 5acf 299e 953f
00000070: 5cf0 7c01 4290 933f eef0 02f1 d415 b2bf
00000080: 359e 5650 67fa a6bf 8234 0b76 bb9f 96bf
00000090: 1850 09d6 9393 973f 70c2 2e3e be87 8c3f
000000a0: e1aa 3703 e0cb 813f ab88 faa9 f315 9f3f
000000b0: eb82 a235 4100 b73f a9c1 2e80 84f6 5cbf
000000c0: 7cbb c9a6 0787 a5bf acc1 e297 0f18 a6bf
000000d0: e88d 88fd ece2 70bf 02d1 3847 2bb8 90bf
000000e0: 7a96 efce fea0 a13f 423c 1736 278b 993f
000000f0: 4fc6 78a0 fd3a a53f 8a5b ca97 af43 92bf
00000100: 404f 16c6 9d81 a63f 569c 6fa6 b0b7 993f
00000110: c478 328e 7403 b8bf 582a 9436 1ae2 8f3f
00000120: 92c2 cde6 4c34 aebf 4cb3 8c23 09f1 89bf
00000130: 12bc cfb7 cb87 aebf 624a a047 a06c 99bf
00000140: 5a5a 1dc9 1e86 a43f 311c 4362 d707 a8bf
00000150: 59e5 4e1f dea3 a83f 3088 613f a2d4 793f
00000160: 80b7 8063 f1cf af3f 2b18 b6b6 25e8 abbf
00000170: 577c 7f24 fa87 94bf 8a6d 96e3 8a5b ae3f
00000180: 4995 cc42 5ad7 8b3f c0de 273b fd71 8f3f
00000190: b7f6 6c7d 5ff9 39bf b84a 884c 63a7 7abf
000001a0: 58d6 9bc1 3509 aabf d4d5 07f2 be7f ae3f
000001b0: 4c36 3895 c047 b0bf 2fe3 23af 34be 89bf
000001c0: d848 afc1 3126 963f e03c d666 9ee0 abbf
000001d0: 7ce4 bf7c 3c47 a83f ab73 15ac a783 a7bf
000001e0: 1bf9 6d5d 957f 803f 7e6b a9c1 19b8 afbf
000001f0: 04ad 7f8a 49e5 96bf bc49 3a53 8087 9e3f
00000200: bf8e 41d7 d3ce a9bf f784 6324 1400 8b3f
00000210: 5347 4da0 f442 853f a83d 2c9e 40d5 983f
00000220: dfca 8bcb 3457 9abf 5260 3b3c a7e3 aabf
00000230: ddfd 2560 aaa0 8fbf f0a6 830e c747 ad3f
00000240: abea dac1 a060 b0bf c8e7 fc54 6b4d a23f
00000250: a8b7 a7fb 3579 943f 3c7f 8a4b cf81 9a3f
00000260: 56a1 ca1c 4655 acbf b08c 6139 06e5 9d3f
00000270: c4d0 9b56 a07f a83f 806c 174b d3df 7e3f
00000280: 1050 c092 2bd7 8e3f f403 73ec ffd9 af3f
00000290: 8c86 0459 ca8a 9a3f ec6b daed 8721 953f
000002a0: e4f2 5312 8574 af3f 6602 b7ec ff7b a6bf
000002b0: d844 4d4e 2a11 89bf b84f 53b8 4c06 823f
000002c0: 3c2d 5931 79ad 9fbf c04b d7a6 99e9 53bf
000002d0: 0ccd fbe8 c203 ab3f 9003 d061 1770 7a3f
000002e0: 62ee 089c ba5f aa3f ed97 1b4b f6cc afbf
000002f0: 4052 da07 c25a a53f 8dcb 2d62 d7e1 a5bf
00000300: 6222 b8ec 7374 a83f 44a9 96fe 68cd 96bf
00000310: bdf0 cc0f fa5e a8bf 1ed1 329f 1dc1 a83f
00000320: e863 433c 3b15 9ebf fc88 b9e1 9b8f 9c3f
00000330: 7831 fbee 413a 96bf 78f9 2162 991c 9fbf
00000340: e1d8 b16d ca43 a3bf 3237 00bd 716c a6bf
00000350: 8cdd 0c73 37de aebf f047 2fe4 4cdb 65bf
00000360: 4449 6c2b c29b a5bf 5e44 db3a 2adf ac3f
00000370: 324b aa69 530a 97bf b2ee 264f 1e12 b03f
00000380: 4c95 b96c afd4 a2bf 88ad 1d23 0421 9fbf
00000390: 25e4 84d2 9af3 abbf 946a 499e 4873 ad3f
000003a0: 26e3 00cc 55a7 a53f 80b4 7398 e485 963f
000003b0: 8530 4221 e3b3 acbf 44b1 c710 2be9 a83f
000003c0: 0031 ee15 6256 a13f 34fd c3db 08c6 953f
000003d0: 9860 2a2f 3d3b 8d3f 5636 97a0 aafa 96bf
000003e0: d859 6690 12d0 8c3f 347f 0c64 4dc5 85bf
000003f0: c08a ce48 3a76 933f fe44 ac78 1e84 a1bf
00000400: 5e9e ac05 789f 9bbf 4658 92e9 767c 95bf
00000410: 688f e941 e40f ad3f 3cf4 2ba8 d8bd 9d3f
00000420: f495 8ed4 05be 95bf 308e 6200 556b 86bf
00000430: 3294 9a27 7555 90bf 326f afdd 7d32 9dbf
00000440: b2cc 8bb5 d40a 99bf 18f9 5b6c e2e6 973f
00000450: a4ff 2120 2743 933f a88c 7299 0886 823f
00000460: fce9 6a1c 6780 a43f 464e 7d5c bd82 a2bf
00000470: 2225 a9c5 8403 a63f 1080 ebae 0b95 8a3f
00000480: b6e6 b3f0 329b a13f 2027 fdb1 f70c 6d3f
00000490: d869 7729 b9a3 8bbf 8681 4c74 8237 99bf
000004a0: 507b ff8c 68db 81bf 46cb 3cb6 0ec7 a33f
000004b0: b458 bd2c d886 9fbf 00aa a278 db80 a73f
000004c0: 3e62 1a49 1e08 a13f d622 770e a0db a13f
000004d0: cc52 8dc6 cf5b 9f3f 1caa 3217 8d70 9dbf
000004e0: e29d eeea 5d6d 97bf c02f 5d98 5353 8c3f
000004f0: d812 c5ff fc01 883f d077 cb13 2513 7a3f
00000500: 004c 4e41 eb38 43bf 1e01 1731 7225 adbf
00000510: 52ed 38c5 7c4e 943f 582b 419d 8b1b 973f
00000520: 61e2 2f29 084a 93bf 896a 42d9 13ec 9dbf
00000530: 4bc6 1492 73cb 9e3f b0fe 7816 cf13 b03f
00000540: 9a3f 3818 3292 a8bf f061 42c4 4a35 b03f
00000550: be0b c378 7b71 9d3f ddb1 b20b 1efb abbf
00000560: 18c8 412d 5c46 ad3f e469 771d acf5 98bf
00000570: 90cc e20c 600f 7f3f 9dd4 e5a5 5bad 933f
00000580: 7cf4 4391 c0d4 a33f 3847 474c d730 80bf
00000590: aeb2 48ad 195b 91bf 65d8 7694 2f6d ab3f
000005a0: 5f95 c879 3c86 95bf 2058 49cb df7b 8dbf
000005b0: 1005 ae08 d4d0 8b3f d08f 8c11 9ff0 83bf
000005c0: b807 c82a c73f 943f 051c b4f9 f5b0 aabf
000005d0: 405e c73c 0ec5 52bf 15ee 2dc0 5fb9 a9bf
000005e0: ed28 f499 d014 3bbf 0530 4526 4ab2 ac3f
000005f0: ccc3 f134 ff61 a8bf 2e3d 463e 747a a1bf
00000600: a06b f39d 4ed7 673f 8865 5c16 8e40 70bf
00000610: 643e cae4 ab8a a53f b85f 2762 39d3 9c3f
00000620: ca05 e817 32f7 a13f 26b7 6220 24c9 aabf
00000630: 51f2 837a 249d 96bf 9faa 8a26 d6dc 923f
00000640: 8009 3a0c eb24 a53f a7f9 0e36 782c aabf
00000650: 5551 b01d 7fc3 ac3f b1ab 4024 16d6 abbf
00000660: ee37 438d 80ab 95bf a1c2 c6c5 9868 a5bf
00000670: dcea c250 f365 a03f 371d 3511 2ba8 81bf
00000680: 201b 6dbb b0e7 a73f 2065 bc02 06ae 733f
00000690: 7aaa d078 3d90 a9bf bbd1 d3c0 ed91 94bf
000006a0: 4e36 073a b031 91bf cc83 4c92 5b48 9f3f
000006b0: cc61 fafb b7a1 9b3f 2571 0d8f 2f68 a23f
000006c0: 3182 bb22 8d31 a53f 305c 9299 6303 aebf
000006d0: f8fd b062 b6f9 8bbf ec25 e7f8 a9d0 80bf
000006e0: 50fa 892a 736f a53f 464c a225 a307 9bbf
000006f0: 60bd 35ce 38a2 853f 58fc 365c 057f 7ebf
00000700: 5fbe 61c9 8e05 a63f 68b8 6144 11e5 a8bf
00000710: fc9b 89c2 93f3 a43f 00f8 0ffe 741a 5ebf
00000720: c84d bab2 e6dd acbf 49c7 5844 e115 843f
00000730: f043 cf2e 8c64 72bf 3206 1e6a 38b6 a83f
00000740: 264a 4160 2cd3 a33f da00 b2ef af3c 623f
00000750: 272d 37eb 2278 8dbf bdd8 8329 b310 513f
00000760: b693 7f5d eb49 a03f eb51 2f95 fd70 923f
00000770: 6cba d415 56a0 a2bf a15e 88fd b8dc 9bbf
00000780: 4287 223c 8847 923f a317 eb1c 52c2 ad3f
00000790: 5855 fe5f 91bd 873f 6078 84d6 2847 723f
000007a0: f6f3 6a7a 0585 a33f 52bb 8916 9419 aebf
000007b0: 18ac 8118 1359 963f fed3 dbbb 5cf7 a0bf
000007c0: 16c1 8258 91da 95bf 0310 a159 8610 acbf
000007d0: e006 196d fbbb 8abf babd 32e0 866c a53f
000007e0: d0b8 5baa cd1d 743f e8e8 12b0 c83e 80bf
000007f0: f6a0 0404 ccef a9bf 401b 2cca a4a9 7cbf
0.04174392833814307 0.061727983937858805 -0.033475147385178816 -0.05655497184364053 0.002914373539445611 0.05074790635958083 -0.02262654289362244 0.01874397417782285
-0.045489221680769895 -0.029866880428660793 -0.058709790667537495 -0.027161800011984188 -0.007924414466699515 0.021111157685204537 0.019104987469504273 -0.07064562686986495
-0.04487917762463348 -0.02209370525342936 0.023023900927299307 0.013930784485496533 0.008689642046154801 0.03035717701880773 0.08984763678973777 -0.0017677587463645705
-0.042045821294656144 -0.04315232018541634 -0.004122663253415017 -0.016327549192468822 0.03443142200539469 0.02494488971370524 0.04146568855175003 -0.01783632625537338
0.04395764391952506 0.025114784391828536 -0.09380272361383662 0.015567974844562446 -0.05899277036121932 -0.012666770360363032 -0.05962978953163413 -0.024828438159668294
0.04008575634968699 -0.046934824700251794 0.04812521106891649 0.0063062989994211865 0.06213335361131467 -0.054505518487573866 -0.020049961545620523 0.05929216411751799
0.013594346202419632 0.015354135864057539 -0.00039633351609667404 -0.006507289778272245 -0.0508515166128915 0.05956837372279336 -0.06359485285812488 -0.012569820017675674
0.021630074926925896 -0.05444808011372415 0.04741848967382453 -0.04592632270462301 0.008055846132034852 -0.06195145119701005 -0.022359036520282607 0.029813771323981206
-0.05040609362256764 0.01318374382066388 0.010381613866829708 0.02425099339876416 -0.025723290370431747 -0.052518106558353 -0.015443163928238352 0.05718824436355685
-0.06397442562858184 0.035746912121296825 0.01999363277894131 0.025885809884697894 -0.055338088049497955 0.029193970920812162 0.04784871155962514 0.007537675251536702
0.01505884210204303 0.06221008073180903 0.025920068438728225 0.020635723011405746 0.06143585060815385 -0.04391479267679159 -0.012239771380026118 0.008801078200498455
-0.0309351860399094 -0.001215362596998601 0.05276307195699745 0.006454554878474364 0.0515116038772845 -0.06211061159937956 0.041708053072543994 -0.04273865769837135
0.047763464590450125 -0.022267952479219547 -0.04759961550596035 0.0483483559450255 -0.029377866318870988 0.027891574527878923 -0.021706609927421877 -0.030382534613175832
-0.03762657727286168 -0.04379611427439868 -0.06028912810728135 -0.002668047121439969 -0.04220396785798866 0.056390113529808814 -0.022500327419560047 0.06277646477149793
-0.03677890970429107 -0.030399384158426496 -0.054592931936390955 0.05752016956531239 0.042292290833250853 0.02199513607495307 -0.05605993062008089 0.04865393237909868
0.033862176110320164 0.021263254559923797 0.014273145677450125 -0.022440591861416635 0.014068741828663286 -0.010630230537173803 0.01900569028260679 -0.03421111319597435
-0.026975512834864872 -0.020982606893618326 0.05676186852067994 0.02904451872290202 -0.02123269185871908 -0.01094690711426613 -0.01595099500868375 -0.028512922912212697
-0.024455379086202718 0.023341691840863182 0.01881085523245897 0.009044711287350474 0.0400421354474538 -0.03615371469518584 0.04299559510088559 0.012979594493515406
0.034387199289949974 0.0035462224767898315 -0.013495871141391655 -0.02462581477004868 -0.008719269564549187 0.03862806295946668 -0.03078782818860111 0.045904978252412576
0.03326506273623807 0.0348787324579171 0.03062367104878909 -0.028749661007774305 -0.02287813898479197 0.013830807769089293 0.011722542338824679 0.006365914185804969
-0.0005866192537830051 -0.05692631577722039 0.019830655610559696 0.02256601474099837 -0.018837096704347526 -0.029220876822913886 0.030072980681501254 0.06280226038597436
-0.04799038453722844 0.06331317225920663 0.028753213163110074 -0.0546502484588449 0.057177429699450666 -0.02437466554497715 0.0075830223051297635 0.019215995789143226
0.038732545597647466 -0.007905656829197846 -0.016949082566656663 0.05356739699657068 -0.021019883091999755 -0.014396427527724909 0.01358190204132595 -0.009736292574935052
0.0197745437490153 -0.052131354075804416 -0.0011456145322109729 -0.05024241658153642 -0.0004132279663770073 0.056047742053664286 -0.047622657025278764 -0.03413737545190042
0.0029102836120790815 -0.003967814472866656 0.042073604277103965 0.028149506202538283 0.035089078348402206 -0.05231583495456808 -0.022083826043841907 0.018420549490353207
0.04129728817226219 -0.05112052593129884 0.05617902028476133 -0.05436772530114043 -0.021162041303618588 -0.041813635008457035 0.032027820213860386 -0.008621536696081662
0.04668953216473981 0.004804633597609326 -0.049928589818894545 -0.020087923902751586 -0.016791108648069923 0.030549460224509592 0.02698409533931727 0.035951124393905944
0.04139367150287788 -0.05861960649161124 -0.013659882437536006 -0.008210494907774334 0.04186592001223188 -0.026396321460719706 0.010563319962527629 -0.007445355356536863
0.04301115234636365 -0.04862264594781679 0.04092084645963465 -0.0018373625282488426 -0.05638047153220388 0.009807357691076784 -0.004490420903452183 0.04826523108841875
0.038720499753839996 0.0022262035614063315 -0.01438929825135078 0.0010415792112872656 0.03181396023118259 0.01800914977123284 -0.03637951866618469 -0.027209177469642246
0.01785099856409223 0.05812317469603492 0.011592040769566367 0.004462394259716701 0.03812424773557403 -0.058788898230764844 0.021824167605171224 -0.03313722413250984
-0.02134158232428359 -0.05481357425790636 -0.01305385996522851 0.04184361922068143 0.0049112352187263425 -0.007932250855777714 -0.05065763043450204 -0.006997722349075641

actor_fc1.bias f8 [128]
00000000: ec9d 3d7d 25ff 99bf 508f c370 5d67 aa3f
00000010: 7997 8eb4 c2d4 98bf 7d42 23d1 c335 ab3f
00000020: f829 6f8c 36c3 b0bf d2c9 9e3e ca34 91bf
00000030: 5c94 44d6 6064 a23f eb6d bebd 3165 91bf
00000040: 3f81 8a96 600b a9bf 7426 02c7 f014 acbf
00000050: ebf4 9e60 c180 7cbf 3a55 60ee 76f3 a9bf
00000060: f55d da70 af0b b1bf 46e8 db9c 4bdd a83f
00000070: 63bb 937b 290d 333f ce28 02bd 4292 a23f
00000080: 4025 0cf5 b8ab 973f a7c5 0b90 575a 9dbf
00000090: d3ad 0dda cab5 7b3f 435d 3e4b 560f a63f
000000a0: 1a3f f688 8a71 b1bf 802e 97c9 97dd 51bf
000000b0: 19be a0df 671c a53f f4b3 0798 e333 af3f
000000c0: 38c6 638e 5bb4 99bf 1ff4 2278 a914 75bf
000000d0: 9d9b 9add 6a31 a9bf d0dc d35d d01e 85bf
000000e0: b1d5 fb49 bc97 b03f 1a2f b6c9 b40f afbf
000000f0: 56bf 2c9a 0cbc 583f 7a4c 502e 0e9d a33f
00000100: 0e40 26bd a1f5 95bf 7798 985b f5dc aabf
00000110: c57a 709e 4efe 893f be3e 2869 f5f8 a43f
00000120: 3494 cea4 fc0e 87bf 4ef6 9dce 0f25 a3bf
00000130: 9d49 1dfb d291 923f c010 1d2a 34c4 853f
00000140: 2860 eaae 0416 a3bf 2616 8014 4c6e a33f
00000150: 498c 838d 2754 a1bf f4e0 5af8 72b0 81bf
00000160: 84d6 8c6f 3406 81bf d982 31a0 de2a ab3f
00000170: 3e92 c13d 3e99 a5bf 5092 032e 7d0e 85bf
00000180: e0fe 74c3 7e9f a0bf 0c0a f171 23c3 9abf
00000190: 8cc6 23eb ff13 abbf 0c38 5332 3f3b 9abf
000001a0: 18f5 1f94 cd61 8f3f 2e03 7621 c46e a53f
000001b0: 7e8d e09f a859 90bf 02dd 0965 7c01 903f
000001c0: c2d7 3cf2 c05a 9abf f6f1 0e91 8718 af3f
000001d0: 1606 c995 eb2e a7bf 4c55 9556 cccb 913f
000001e0: aab4 788d 759e aa3f a257 93a6 5823 a53f
000001f0: a174 3bc2 4b8f a6bf d020 a21d 1e26 a2bf
00000200: 74f8 611a 00c8 8e3f e69a d862 f74f a1bf
00000210: aa17 b52a ad32 ae3f 2d9c fa50 a792 993f
00000220: 3dcc f28d 00dc 973f ba86 dc7e 422c 9fbf
00000230: c44d c2a2 aa76 8fbf c022 10ba 45be aa3f
00000240: c0f2 09fc abbd 8b3f 5c9f 1664 1798 b03f
00000250: e08e fb8d d5ea 963f 615e fe09 c4ae 833f
00000260: 7dbb 16d6 9007 903f 228b 6689 912f 9bbf
00000270: 3a7b 75a0 5ea0 a7bf 1450 4e3c 2f5c 9d3f
00000280: 117e 8659 ca39 a33f ac53 54d1 9b2d ae3f
00000290: e16c 9f1d 91bc 913f 99da d0e6 c581 9b3f
000002a0: 8ad8 6cba 2360 ac3f 14cd 5322 f11d a93f
000002b0: 3ddd 994d 4414 61bf 3273 aeed 6582 8dbf
000002c0: 5af8 57c0 289c a6bf 18ad 153e 1b63 873f
000002d0: 109a 49d4 28c5 aabf 12ba 88f6 9b97 a6bf
000002e0: d32c c4f7 2e55 973f 32e1 7ce4 30ac a4bf
000002f0: fbde 802d 2ed4 afbf c8cb e38a afa8 a3bf
00000300: 8e86 5f67 cdb2 4d3f 4675 6a10 1b52 a4bf
00000310: 503e 29ee 47da 7d3f f196 8a7f 6435 9f3f
00000320: e4f3 e2a6 e520 673f fa2d de89 d800 aabf
00000330: c04f 36dc 5fd6 afbf 3fab 023e ef83 9dbf
00000340: 0d71 d7a2 15c6 a5bf 5f5d 2443 fca1 703f
00000350: cb29 b217 81d8 a8bf 7156 febb 742f afbf
00000360: 9a19 036b c0c3 abbf 3c65 deec ca96 a53f
00000370: f339 e46a 8249 6c3f 5632 59f6 6e6a 963f
00000380: 6af8 c272 9640 adbf ac38 d940 9995 67bf
00000390: d346 b13c 5b46 9c3f 2349 4988 63c4 aabf
000003a0: 723f cd1e 5300 3fbf 74a8 a73f c736 973f
000003b0: c009 9274 84e7 71bf 2d51 1fd8 aea5 9fbf
000003c0: dc27 dce5 1a7c a4bf 3245 7b4a 312d b0bf
000003d0: fb9b e249 f99e 9fbf 5090 8cea c267 9fbf
000003e0: 26ef dc91 ebec 46bf 98d8 a91b 51da a33f
000003f0: 6050 b916 fc36 7b3f 3349 076d 2c86 aebf
-0.02538736893566622 0.05156986238014716 -0.024249117155384668 0.05314456870985838 -0.0654787152153985 -0.016802940437352927 0.03592207542013945 -0.01698758812527316
-0.048914926888075964 -0.05484726361562489 -0.006958728199547108 -0.05068561229578923 -0.06658455376815893 0.0485633496263778 0.00029070151101866763 0.03627213055831789
0.023116006809720036 -0.028664940039509947 0.0067651676080049015 0.04308576267720323 -0.06813875049396892 -0.0010904295253223728 0.04123234371979496 0.06094275694690757
-0.025102072301655037 -0.0051466579336052745 -0.049205150176297986 -0.01031267916049075 0.06481530004733461 -0.06066670381832591 0.0015096781796266243 0.03830761256554012
-0.02144482342697534 -0.0524670290290467 0.012692083559213594 0.040961903654645124 -0.011259053973683299 -0.03739213368588122 0.01813439996414844 0.010628135237887526
-0.03727736125182474 0.037950875761492406 -0.0338451729055796 -0.008637331203644717 -0.008312616018524517 0.05306144433484911 -0.042184777296629936 -0.010281541792616228
-0.0324668515772808 -0.026135019139710322 -0.05288696046217209 -0.025616633841131928 0.015323263247405225 0.041860703548996944 -0.01596702075779665 0.015630668322470072
-0.025736822876943462 0.060734020669290276 -0.04527984813149659 0.017378990921618695 0.051990197677107844 0.04128529580491082 -0.04406201120375753 -0.03544706451163082
0.01502990799440005 -0.03381321984880063 0.058980380500130394 0.024973501508295626 0.02330017916092352 -0.03044227504063344 -0.015363057224283667 0.0522329129817698
0.013545364026179896 0.06482073014796924 0.02238019637196842 0.009610683016759216 0.01565386110967947 -0.026548646937622718 -0.04614539822318027 0.028671968513279536
0.03755028097952729 0.05894171648302601 0.017320887978581893 0.0268622324112707 0.055420986659030794 0.04905656379733095 -0.0020848592801560304 -0.0144088709983464
-0.04416015003151648 0.011419499237226335 -0.05228545752907021 -0.04412543663453418 0.02278588664289034 -0.040376212970331685 -0.06216568284474807 -0.038396344856571896
0.000906324667763596 -0.039688916925323656 0.007288247087287994 0.030477113995082076 0.0028233037365610215 -0.050787703351570415 -0.062182422286383154 -0.028823602828804026
-0.04252688992321128 0.004060731315142035 -0.04852679647690968 -0.06090893549769028 -0.05422784143734134 0.042166081823959506 0.0034530207841563187 0.021890386377253122
-0.0571333899583671 -0.002878951380615188 0.02761213834703009 -0.052279577623851624 -0.0004730418138949511 0.022669900188624983 -0.004371182826732711 -0.030905467930851294
-0.040009346541481 -0.0631895834769878 -0.030879874357790254 -0.030669255796184125 -0.0006996298068097969 0.03877500021637664 0.006644234391917164 -0.0596174128619559

actor_fc2.weight f8 [128, 128]
00000000: 1a08 b478 f562 9f3f 265d a350 fb14 9fbf
00000010: 9ef8 6053 074b ab3f cd83 d71a 947d b23f
00000020: e758 0dfd 01e7 ad3f cf02 6ed8 57af 76bf
00000030: 22de 27db dc3e a03f 75a6 76c8 609f 993f
00000040: 7fb0 0205 1665 b53f 7e75 2b08 6d2f ae3f
00000050: 5be2 d6f2 11d8 b53f 654b 641f 3999 803f
00000060: 454b 6925 5227 6e3f 30bf 62f1 7074 843f
00000070: e4d0 a495 c9b2 adbf a1d2 1e81 d4d2 b43f
00000080: 47ca a9e0 8fe9 9b3f 7ef3 dce4 c108 993f
00000090: 1b05 91d9 e257 823f 78e4 15c2 6a76 943f
000000a0: c633 8ce0 c0e2 733f fb17 1296 3630 aebf
000000b0: 124e 34cb 97f1 b2bf d03e 5f4a d737 963f
000000c0: b5ed 934b 9d1d 86bf 3df5 d64b 453b b53f
000000d0: 6080 fec8 bd18 9f3f f056 8fc6 ea63 87bf
000000e0: 431c ec77 8332 aa3f 5a30 173d e08d b5bf
000000f0: fd38 56e6 b2bd a1bf d264 c6e4 2297 97bf
00000100: f8d4 6f09 91ea 8ebf 68ec 7342 cf6b b0bf
00000110: 87fb 1256 18be ae3f 8515 3825 e478 a7bf
00000120: 8a0f e724 c9cf a8bf f481 3bc8 4c50 b5bf
00000130: 6b96 e8ff 2a75 a0bf 4a0e d48f a315 a63f
00000140: d75a a0aa 2fb3 b3bf ddb1 38f6 3b66 b43f
00000150: 13bb 53e3 26e9 b1bf 97e4 1eba 416d 95bf
00000160: e0ee 1268 eb89 93bf 4223 d942 8f88 7cbf
00000170: b857 0f41 5c48 a03f eef5 0187 0f80 7d3f
00000180: 21a9 5882 7d3d b03f bdbd 7da3 d209 b0bf
00000190: 9d79 a606 d58d af3f 558b d14e 10da b3bf
000001a0: 3687 9383 1556 af3f f8a0 5ac8 b62c 8abf
000001b0: 2ad3 81fc 763a a53f 21ca c4ab 52fb 583f
000001c0: f85d 7f86 5449 91bf 9953 8bb1 c061 b63f
000001d0: 4a2d b622 5a68 a1bf 1dd9 33c9 57f8 b43f
000001e0: 1091 2184 847a b13f 00f2 0355 4a28 a9bf
000001f0: cada d728 6314 7dbf 9d69 0d9d a971 b6bf
00000200: 145a 09c3 2464 6ebf f495 7f12 1076 933f
00000210: b879 dab1 f4db 823f 8b28 1a26 6ca4 a23f
00000220: 3d41 a79d 0861 ad3f 6a19 87dc fc15 ab3f
00000230: 7438 5aa2 1421 9fbf 6373 6bd9 42b0 98bf
00000240: 3093 3779 e22d a2bf 45d4 6bb1 6190 b03f
00000250: 55be 79e3 ff27 aabf 8860 c2d2 b248 a3bf
00000260: fac0 3fdc 66be b0bf 566f 64ab c1d2 a53f
00000270: 809c 99dd d44a b6bf eec4 f30b f135 7f3f
00000280: 32d3 ac34 7b13 b2bf f8bc 8074 5dd5 90bf
00000290: 0547 897c 9db1 a23f 021c b408 2166 a5bf
000002a0: 0e53 8bca 1f31 a5bf 0df0 2a85 682a 88bf
000002b0: a28d c6ed 3568 b5bf 5500 dd59 3d23 a0bf
000002c0: 35e6 9d67 884b b2bf 5c8e e564 6664 99bf
000002d0: 0753 0fed 3b9e b23f 8ed4 8e78 299c 7f3f
000002e0: d549 5be6 a290 b13f 67d6 3432 eb17 b03f
000002f0: adaa 782b 7e51 8f3f 17b1 db94 da1d b13f
00000300: 49cb 5a97 38e9 adbf 965d 0a91 fbe5 a43f
00000310: e5b7 7c78 b530 b43f fb70 0e34 f93d 80bf
00000320: fe1e 1e2f 02c0 a13f 8a17 6713 5814 b03f
00000330: c2cc f93d 6ef1 b4bf b905 952d cb07 a8bf
00000340: 586c 123a e210 8dbf e64e 6126 8560 b43f
00000350: ac0a c8be a6f9 913f c86c ab12 83b5 84bf
00000360: 10c8 03a1 cf3b 9b3f 3bbd ca24 6e19 80bf
00000370: 51ec 15b5 6475 a83f f1b8 f311 30fa 8b3f
00000380: 2af3 f737 781b 903f cbfb 11c3 54ef aabf
00000390: 2b5a 8b19 24a2 a5bf 7299 8a49 2d20 b5bf
000003a0: 7584 40fe 5326 b0bf 3563 e7ee e618 b23f
000003b0: 28a8 fa40 c5bc a03f e9e1 33df 2f1d b5bf
000003c0: e4f2 b42d 07c8 9fbf 14c9 9814 8aae af3f
000003d0: 1d26 b64b e58c 873f 843a 478b 84b0 94bf
000003e0: 6c18 5bee eee4 a6bf fa47 55d4 71f2 a13f
000003f0: 400c 299e 96f4 80bf 5fe7 db48 9695 b43f
00000400: a05b 4237 f2c2 b43f 266d 489b 8998 7b3f
00000410: 0cae dafe 1cd4 a13f 3180 0eb0 4350 adbf
00000420: 98b3 a7de d582 b4bf ab54 9c89 aa29 a2bf
00000430: b826 eb58 e7b9 b4bf 96f7 146d f5e0 b23f
00000440: f260 5416 6541 a1bf d68c 3d98 f374 a73f
00000450: 9302 3baa ba33 a4bf 17fe e0c3 5db8 a53f
00000460: 5cc8 a4c0 789f a73f 6938 10b0 6c94 b13f
00000470: ba90 5cae 6a2d a3bf c21a b525 177d af3f
00000480: 65c5 35b6 9716 a13f f846 b0f8 8586 823f
00000490: 958c b0db 0881 af3f 98f9 c3c2 8ed5 903f
000004a0: ff3c 8ac9 a698 84bf 2e5e f7ea deab a63f
000004b0: 15b8 982f e200 a0bf 237d 0ee2 bfe5 a9bf
000004c0: 5ac3 b3b8 e672 b2bf 3160 a756 ff31 a0bf
000004d0: 57fb e0f5 0908 7bbf e501 927d 04ff b43f
000004e0: 5ac7 c5f8 ca48 ad3f 83f1 77e8 cd60 b13f
000004f0: 6ae2 4c50 39dc b13f 249f 18f8 8fba 963f
00000500: fe22 49a1 e990 b1bf 5403 fda4 fe45 9bbf
00000510: 1afe 2475 dcf4 a13f 0682 b8ce a0b0 b1bf
00000520: 70d2 aef1 57ea 90bf a892 1583 c3f5 9c3f
00000530: bd16 2e3a e41c 9a3f 46b3 bc06 a355 a53f
00000540: 81e4 c8df 71fb b23f e385 7a91 e2a1 823f
00000550: 1f50 e6ae 81cb b53f 4ada e72e 7029 803f
00000560: e8ca 6b89 5e97 963f 1f13 7ccb c064 86bf
00000570: 3b44 b5fc bace b43f fb7f dc76 0dff 833f
00000580: 17da 850f 1d0e b4bf 17cd 7521 4358 adbf
00000590: 4c90 a01a 2458 b7bf 6578 d20f 364a 943f
000005a0: a06c 02de 66f8 64bf fb3b 51a3 4e70 98bf
000005b0: fa77 9ff7 3059 b4bf 8f06 fde9 1648 abbf
000005c0: 952c 6acd 4c93 b6bf 6064 14d7 32a0 69bf
000005d0: fcc2 f7ec deb1 9c3f d4ab 3164 59ee 9dbf
000005e0: b190 d259 309b a2bf cc3b aa20 f948 b2bf
000005f0: 62a0 4659 f8f8 70bf d798 98f5 12c5 af3f
00000600: f932 9fa3 c05f b4bf a267 42a1 c305 ac3f
00000610: f8be 94b0 2d95 823f 8f0e eb33 abf1 afbf
00000620: 216f 1cd4 b478 a9bf 91a9 d07c 9557 b13f
00000630: bf87 c1c4 8364 b03f 1a97 91fa 276e 7d3f
00000640: 3677 42c4 c081 a63f 2ab5 d3f8 1689 b3bf
00000650: 2c60 195e 1888 9cbf a8fb b985 6f1b a1bf
00000660: 2df2 8e01 5989 ae3f 8a72 4b32 97ce a93f
00000670: d792 a4fb beef a0bf 50ee 9731 a0d7 aabf
00000680: b552 4438 4eb1 ae3f bb67 769f 1fdc b2bf
00000690: 1606 fa7b 804d 96bf a721 39a0 23c8 b2bf
000006a0: 4162 5a11 956d b63f 2ae1 ba56 8ea3 b4bf
000006b0: ac64 2da6 408f 70bf 895d b989 85b2 b0bf
000006c0: c8ec 3a6e 5532 b5bf 289b 6919 6fd2 a3bf
000006d0: 5c54 b490 ba70 90bf c546 e79a f345 99bf
000006e0: a2e1 e8c6 0ddb a1bf 80c4 bc55 a422 78bf
000006f0: 616d 5288 944c ac3f cfd0 43d8 8879 ad3f
00000700: 6dc0 cba0 1d5b b3bf 3fbe 0a21 1a57 a3bf
00000710: e417 44bd 5649 a0bf 80a2 2c10 b5f9 883f
00000720: 47c8 4648 447e a7bf 4fa2 c735 bc4b 99bf
00000730: 34e2 9d71 2da6 96bf 6b40 62a2 4ef4 a2bf
00000740: f40e b73b 607d b4bf c4f3 1e69 cc89 a13f
00000750: ee97 89b0 eabb acbf 55cf 533a 92cb b43f
00000760: 10ea da92 8abe aabf 2e34 7b4f af49 8abf
00000770: 9676 4355 4888 943f 683a b6a9 d5e8 933f
00000780: 43f2 4627 464f b4bf 1736 2d97 d1c1 61bf
00000790: 266a 9234 3656 b63f 3267 b595 fdac 943f
000007a0: be2f 34e4 a181 b03f 5fb1 9a1c c0bb b43f
000007b0: f969 d687 f143 b2bf f2ae 9bc1 9d0f b13f
000007c0: 1c90 a33a 2ac2 a13f f361 5e60 c17d a5bf
000007d0: 3330 0257 7da0 a83f fa0e dcdc e997 a4bf
000007e0: 2fdb a981 5f54 b53f 9ed0 ff1f aab2 b5bf
000007f0: 201b 6be3 b895 6f3f f8eb 478c 3e54 b6bf
0.03065093564237751 -0.03035347633052967 0.053306797912669554 0.0722286763698456 0.0584030743981872 -0.005538314005094149 0.03172960448494801 0.025022041545219104
0.0835737001640968 0.05895558094719443 0.08532821825691299 0.008104749937535247 0.0036808590332752266 0.00998771893168246 -0.05800466491419501 0.08134201195100356
0.0272581559060632 0.024447469323820574 0.00895669199428766 0.019982975097694283 0.004854920793843703 -0.05896158773343526 -0.07399891577761533 0.021697391428289248
-0.010798672551110092 0.0829356489329784 0.030367818253239753 -0.011421045479362374 0.05116663779158916 -0.08419610492200161 -0.034650412194524784 -0.023037476743046188
-0.01509583768891297 -0.06414504406341026 0.060044060237024736 -0.04584420160612538 -0.048460279230794504 -0.08325652969825353 -0.03214392064937218 0.043133841807528286
-0.07695291438754324 0.07968497048631869 -0.06996386575677276 -0.020924593911079894 -0.019080808856172804 -0.006966170896313186 0.03180206579388262 0.0072022062814744835
0.0634382670620295 -0.06264988414272117 0.06162896829777085 -0.07754613804131101 0.061203644095952844 -0.012780597676581781 0.04146167595255286 0.0015247638066965346
-0.01688129492671739 0.08742908796860006 -0.0339992682812303 0.0819144121377104 0.068275720842909 -0.049135516050203165 -0.007099521009414198 -0.08767185291563924
-0.0037098615651232156 0.01900506127267039 0.009208594968467362 0.03641069378962055 0.05738093304137457 0.05290212814320479 -0.03039962998314434 -0.02410988285088268
-0.03550632219029237 0.0647030885846372 -0.051086422460568194 -0.03766402075524505 -0.06540530087636745 0.042623569652475865 -0.08707933817059832 0.007619802082659206
-0.07060976062787175 -0.016438923106929487 0.03651134629457257 -0.041794807732053144 -0.041390412783277694 -0.011799637378651107 -0.08362137847011877 -0.031518857211722796
-0.07146503953654178 -0.024797058017965376 0.07272696054071669 0.0077172870596104014 0.06861322521152798 0.06286497092954733 0.01529215402759595 0.06686178335411729
-0.058419960475836925 0.04081712861551094 0.07886823836881225 -0.00793070497621117 0.034668033839862375 0.06281042550753405 -0.08180893910484868 -0.046934460939620455
-0.014192359349456549 0.07959778010382088 0.01755390681683859 -0.010111831671954966 0.02659534855133222 -0.007861004350472647 0.04777064047353775 0.013660789058544927
0.015729788223313758 -0.05260720139721505 -0.042252662771421555 -0.0825222305817073 -0.06308484036755309 0.07069247562993726 0.032690204793951516 -0.0824766082695373
-0.03103648392174109 0.06187850476671222 0.01149920594504566 -0.020204611779087958 -0.04471537265412526 0.03505283085782192 -0.008279015256567601 0.08040751723083649
0.08109964226819821 0.006737267995528462 0.03482142077458769 -0.057252993813790794 -0.08012139020838871 -0.035474137590577236 -0.08096166535247107 0.07374509728557962
-0.033702048278600474 0.04581414445308389 -0.03945716217049724 0.04242222801303457 0.04613854743583154 0.06867102907583135 -0.037455877098439186 0.061501239159544877
0.03337549304240887 0.009045645381806619 0.06153133088835109 0.01643965781931342 -0.010056784654152382 0.04428001993408902 -0.03125674086582834 -0.05058097490768378
-0.07206575402575535 -0.03163145001207147 -0.006599463375151902 0.08201625886614002 0.057195990436311475 0.06788336682797617 0.06976659975487967 0.02219605399855519
-0.06861744105948372 -0.026634196109856248 0.035071267413965226 -0.06910138174908562 -0.01651894962897632 0.02828126418661961 0.025500837374713415 0.04166898209800833
0.0741492434834914 0.009097833695082385 0.08513651390086395 0.007891537124106968 0.022061802995220342 -0.010934358796939101 0.08127945584898637 0.00976381796823488
-0.07834035519577075 -0.05731401236962535 -0.09118867540434045 0.019814343181331035 -0.00255985347037109 -0.02386591789064239 -0.0794859509037166 -0.053284374297175245
-0.0881851197720372 -0.0031281464549804266 0.028022273267143114 -0.029229542484625018 -0.03634024712053597 -0.07142598197445621 -0.004143686401597875 0.06205043075560617
-0.07958606714892004 0.05473147719858608 0.009073597861600544 -0.06239066132323245 -0.04974904145475834 0.06774267480128617 0.06403373292553648 0.007185131232380982
0.04395868678805785 -0.07631057333829419 -0.027862911933283538 -0.03341244227794188 0.05964162963889339 0.05040428627919365 -0.033079117029307596 -0.05242634396924173
0.05994648396350525 -0.07367131846549928 -0.021780021254477054 -0.07336638127993088 0.08760959314020857 -0.08062066667014692 -0.004042866264023431 -0.06522402393726713
-0.08279928151289362 -0.038714858867754665 -0.016055026132637415 -0.024680906610064186 -0.0348743729886707 -0.005892412122009749 0.055271760598055726 0.05756786003067448
-0.07560906577760003 -0.03777391103119187 -0.031809530833967675 0.012195028835394028 -0.04588521368295111 -0.024702969343623867 -0.022118291911711732 -0.037020165750733046
-0.08003808458220957 0.03425444396223257 -0.05612119107244938 0.08123125003822669 -0.05223496477761469 -0.012835855115009034 0.020051126674721496 0.019442881091487868
-0.0793346258059922 -0.0021676152768239742 0.08725298675054968 0.02019115663765731 0.06447803326972143 0.08098984430643473 -0.07134923521372362 0.06664453484307467
0.03468448606307126 -0.041975062383418214 0.048099438544426575 -0.040221508226776906 0.08331868091214 -0.08475745469314908 0.003855572805466237 -0.08722296643092864

actor_fc2.bias f8 [128]
00000000: 3b67 2156 0c91 af3f d26f 06ea 81e7 b33f
00000010: 7cd2 0cd1 5884 af3f 0bbb 9b4c 680a a0bf
00000020: 975d e2be 50ff 8b3f 69e5 94ca c11c b0bf
00000030: 7f96 8d0d 6b6b a23f e30e bc87 e508 893f
00000040: e968 94be 5714 aa3f 7c11 9550 4da9 a43f
00000050: 59e3 47cc ec8c a7bf 5425 66e1 6dab b03f
00000060: 8c18 2a88 71ee a4bf 68de dceb e7c6 a63f
00000070: 3150 521c 5d8e adbf fb04 e354 a558 993f
00000080: 70aa 296f 3a22 7dbf 29ee 0559 e533 6b3f
00000090: 4f77 9b68 a37f 7cbf 7932 3be1 c28b a1bf
000000a0: bf42 dcb0 b5bf a63f ccd4 61a7 eea6 94bf
000000b0: 3c50 7048 f71c 943f cb8a 57a2 c485 a63f
000000c0: 2310 d850 68ee a33f 7910 0095 a6d9 b1bf
000000d0: 8943 86b1 23c9 b43f 5332 0a41 a310 acbf
000000e0: 622b 74e9 1ae2 793f f0dc f385 f9dd ab3f
000000f0: 279f 433d ce8f 873f 1ed1 cae2 0060 a3bf
00000100: 30d7 01f9 63d7 a1bf 6e87 b536 dd26 b13f
00000110: c0d7 b70c 8673 b43f 33ec fdb4 2113 9e3f
00000120: 40b0 d3df ac6c bc3f ddaa 6d85 5e4c a1bf
00000130: 8076 61df 6eb8 55bf eb80 87c6 cc8a 9d3f
00000140: d51c b863 25e5 a93f 9aeb d0bf f6cb b13f
00000150: e6b3 3a23 e5b9 a03f 6542 b3b3 a555 953f
00000160: c1e0 5991 a09d 903f 924c f32b e13b a93f
00000170: c9f9 fbed 01aa a5bf b3d7 f4db 3fc1 acbf
00000180: ea6a 28f9 4f96 9d3f 2487 dc52 bb34 aabf
00000190: e215 80e0 7277 8abf 8600 655f 4cae b53f
000001a0: 1eb3 5419 7f9c a7bf a911 44c2 e6d6 a83f
000001b0: 0156 f545 bac6 6e3f e752 74d5 0dc0 b4bf
000001c0: f4d2 7739 67d0 9d3f 8d2f 110f 6035 8a3f
000001d0: 0aed 75e2 3a77 b43f 10ec d226 ee7b 8cbf
000001e0: 948f 7a09 92a9 a23f 9431 e1fe 0d6a adbf
000001f0: 9312 5829 ac14 51bf af54 e185 d11e 993f
00000200: 0822 a4d7 a208 a03f 57a8 8673 3336 92bf
00000210: 4d28 b30c a7da a83f d4fd 6477 d072 b4bf
00000220: 67a8 d310 af8c a03f c93e 88b5 4776 b5bf
00000230: 534e 055f 3552 acbf 9229 fd15 2c48 86bf
00000240: 4381 c25b 85a9 b13f 6eee 676b 3b33 a2bf
00000250: bb30 2098 09a2 b43f d087 c931 db44 acbf
00000260: e098 bdc0 7bab b53f e326 8f21 b99b a83f
00000270: 3657 3417 3294 b0bf 8092 1ca9 d3cd 92bf
00000280: 01e4 b1c1 c176 98bf b570 1f41 5a21 b5bf
00000290: 4246 6142 1a4d b8bf eaaa 0d4f 3564 b23f
000002a0: 2482 f3ab 184d 82bf 7f85 431c 85a0 ba3f
000002b0: f621 504b ac90 a2bf 18b4 1734 8e07 b03f
000002c0: c9e1 d463 21db 9ebf a467 04d4 fb2d 873f
000002d0: 9083 558a 9d24 9e3f 8159 bf74 cf97 a03f
000002e0: 169d 1cb2 6198 b5bf 7e3f a0b6 b2c5 b0bf
000002f0: 5344 e941 4572 b1bf 812c 8102 cb48 a63f
00000300: ef30 9f01 e5a3 5ebf 1963 cb66 8487 ad3f
00000310: fdb2 2797 794f a6bf a2e4 c936 e91d b5bf
00000320: efff f9f6 19ba b6bf d63a 0787 abe1 bb3f
00000330: de43 1444 13a4 b43f 8df1 87ab ee6a 7b3f
00000340: 825c 51f7 c919 b1bf 6c32 3897 0313 78bf
00000350: 6b26 204e 7fda a53f 0eda 7e58 3476 9d3f
00000360: 5a39 c59f b83d 99bf 9099 d4f5 eb30 993f
00000370: f3ee f5ee f3d7 a5bf 8606 2b56 6979 a9bf
00000380: 8c3a 89b9 e2ea b03f 017f 913d 345e a0bf
00000390: 27d3 5424 1e0e b43f 925b a0e8 7adb ab3f
000003a0: c141 404f 7961 b2bf 12dd 631a 4bf6 aebf
000003b0: f133 89bd 2749 aebf 4761 4647 a487 b03f
000003c0: ebd7 0484 88eb a8bf 79bf b64a 1784 b33f
000003d0: f7a5 1929 26e5 b23f a051 48d5 38e4 a23f
000003e0: 2491 6b71 2065 783f 663d 98b2 4cc6 a8bf
000003f0: 68c6 e120 56ec ad3f 952c 22d0 5b30 a4bf
0.061653504861807616 0.07775127376083837 0.06155660201912824 -0.031329402305223374 0.013670569253277516 -0.06293879695740191 0.03597578564112513 0.012224000172416044
0.05093645287907284 0.04035417183561926 -0.04599704736387506 0.06511580231576392 -0.04088167941249407 0.04448628191169918 -0.0577267739364803 0.02475221949203375
-0.0071127207362261385 0.0033206443260363106 -0.0069576628827386485 -0.034269418710754125 0.044431379165080546 -0.020168045965381506 0.01964174632674108 0.04398931962693594
0.03892827975144566 -0.06972733628941964 0.08119414409726579 -0.05481443566268198 0.00631914627525529 0.05442790756381466 0.011504756207116508 -0.037841823277093165
-0.034846424242387264 0.0669992693488248 0.07988775072575915 0.029369856521480563 0.11103325333141445 -0.03378577593578822 -0.0013257105579422002 0.028849792115466604
0.050576370642426184 0.0695184915829671 0.032668266821339206 0.02083453091910527 0.016226300117040852 0.04928496991637944 -0.04231267957765145 -0.05616187629713867
0.028893708784475537 -0.051183561196252364 -0.012923142887312392 0.0846908314606499 -0.046115848390718236 0.048514567579363295 0.0037568700933359182 -0.08105551205910509
0.02911530769593447 0.012797117671787617 0.07994430569481295 -0.013908253249942631 0.03644996991832197 -0.057449757922401506 -0.0010425263657235825 0.024531625553511457
0.03131588823641002 -0.01778488533606323 0.04854318647410647 -0.07987692751793612 0.03232333259968883 -0.08383606130541489 -0.05531470093651749 -0.010879845067070435
0.0689929341338074 -0.03554711996181657 0.08059749568946277 -0.055212831332724144 0.08464787917691607 0.04806307348878904 -0.06476128641619713 -0.018363291928056302
-0.023890521475980368 -0.08254016961967887 -0.09492649193386973 0.07184155635847458 -0.008936112163099592 0.10401184024842357 -0.036260017579539935 0.06261528751174728
-0.03013279125045346 0.01131817570471922 0.029436551635970754 0.03240822124614607 -0.08435640905792172 -0.06551663359300439 -0.06814988001976134 0.04352411656926681
-0.0018701301946633627 0.0576745391351265 -0.04357509584574435 -0.08248765552152063 -0.08877718238545616 0.10891220137203148 0.08062858974541551 0.006693775467735097
-0.06679975784332906 -0.005877508188416241 0.042682626997771 0.028771226788842745 -0.02464951014672443 0.024600684050847088 -0.042663214607243115 -0.04975442101341536
0.06608407048882209 -0.03196871997420026 0.07834041964526915 0.05440887536695195 -0.07179983315314244 -0.06047281930107763 -0.05915188015624285 0.06456972828016659
-0.048671976199713494 0.07623429845875575 0.07380903724119735 0.036897445712529064 0.005955816965727476 -0.04838790588484691 0.058443728937061235 -0.039431447178764824

actor_out.weight f8 [4, 128]
00000000: 85e7 1038 8ba9 93bf 4165 df3a 9404 49bf
00000010: 751d c312 a568 84bf 4ac0 6b3e a689 a43f
00000020: 3d51 004e 002c a13f 8f70 2c92 79d7 adbf
00000030: 7b5c d529 cb0d a0bf 1662 5ebd ce84 b53f
00000040: 4fbc f523 84da b83f 6227 3db1 1899 aabf
00000050: a208 a588 b4b7 b4bf e29c a83d 9857 adbf
00000060: e364 06af 2086 9bbf be9a f07a f93f ae3f
00000070: 601e 9dfc 4325 ab3f fb69 9246 d46a b3bf
00000080: c871 1007 bba5 85bf bbca 764f 14de a8bf
00000090: f97b e209 c930 ad3f 8a28 5531 78e4 a7bf
000000a0: 1c57 e49b dc2a 933f 5956 e038 69c8 ad3f
000000b0: 2a6b 4c14 9fb1 a33f dfb2 95c4 c987 94bf
000000c0: e7d8 75b8 b15b b03f 0c46 b524 a2cc a23f
000000d0: 7842 9778 31b5 883f ea2a d463 5962 ab3f
000000e0: cf96 9d99 9a89 90bf 00eb 502b 8f6e 92bf
000000f0: dc1e c6cc efe5 aebf e2f0 437a f684 a6bf
00000100: f002 b153 0d4f 8ebf 419e 98f4 5e9b a83f
00000110: f0d3 d1df d5c1 b33f 630f 6689 9c75 adbf
00000120: 7180 dab8 139d b63f d4a4 6205 2154 a03f
00000130: 12b2 def8 223f b4bf 5317 9832 43f7 ac3f
00000140: 4386 0e37 3ebd 703f 513f bb4d c27b 923f
00000150: ec66 d1a2 32ce ac3f 9cc7 d19a f00f 943f
00000160: 364d 12b0 8321 a2bf 7dda 4ba7 0bcc 993f
00000170: cdea a9e1 1808 b13f 37a0 b5ed 6bbf 813f
00000180: e696 cde6 08f6 ab3f 8f93 7077 5ad5 b23f
00000190: f02f e2ba 3d27 903f 64a2 efa7 b928 b3bf
000001a0: cdf6 6420 79d8 b0bf 721c 2f66 7bf5 b1bf
000001b0: af51 4ad5 4f5e 763f 0085 bc64 709e 833f
000001c0: dd6c 0de2 31c0 90bf 6972 588c 173d 57bf
000001d0: 9bc7 2d6b a0fb a3bf c849 7d26 2ae4 b5bf
000001e0: fc3c 2fd3 78fa 863f f83c ca0f b2aa 8f3f
000001f0: 54fb d35e 1204 b2bf e088 cd4b e3e5 773f
00000200: 6f14 c928 b705 b23f e766 3b77 27b1 6bbf
00000210: 2b5b 1a16 487d a0bf d9f4 3e8e 27ac b53f
00000220: 560b 8a2e 1305 aa3f 3d71 9f3a dafc b23f
00000230: e4af 1552 99aa a13f 32a9 6728 7c8c adbf
00000240: 9071 4e62 3946 a53f 383f e0ad 2bc5 8ebf
00000250: 5849 df65 2e4f b33f b09f cbd6 bb54 983f
00000260: 86da f209 6054 9e3f e304 cd10 2dbb 8a3f
00000270: 47c0 7010 9fe5 b43f 2c33 6938 dfea 91bf
00000280: 3748 2f21 fa6e a2bf 6002 5165 b1c5 9fbf
00000290: 17d3 1ca4 63c8 ab3f 33d9 b5ee 2b28 a23f
000002a0: 0374 9cac b6f6 9b3f 9084 3a77 2ba9 b63f
000002b0: 9265 9c0d f805 ad3f b35a 4a9a 719a 943f
000002c0: 549b 81a3 cfd0 a4bf 0a5f 4a50 15be 98bf
000002d0: 4c26 4753 42a8 b0bf 8d24 e6e3 6877 a23f
000002e0: cbc4 0caf 99d8 b2bf df0e 2a38 5132 b3bf
000002f0: ae9b fbe9 d316 b0bf 63ae 6813 9002 a2bf
00000300: 0049 ff10 41d1 b03f e519 eb6d 7aea a7bf
00000310: c210 409c a856 b73f 449d 2066 8eaa 993f
00000320: 3d8c cf29 f3f1 adbf 8424 2d9e 46ef b63f
00000330: 0860 274f 3f37 8fbf b4e2 f483 8fb5 8bbf
00000340: dd3c 7e73 b3ed 98bf 5671 d89e b878 a93f
00000350: f2bf 4245 7081 b3bf 895f 14bf 5442 96bf
00000360: 3b16 11d5 fc90 853f ba2b 41de 0253 b73f
00000370: 124e ac07 28fb a73f 4936 5bae b5cf 83bf
00000380: 47c8 156a 747a 8abf 667b 1eb3 9b00 85bf
00000390: 95ee 105c be56 b43f fb4c 75af bfb5 a1bf
000003a0: 9ea2 69cb 4e38 94bf e436 f115 9c66 953f
000003b0: 199e 03cf 33c4 b43f 26ba cc2a ce48 b03f
000003c0: fa2e e2db 17cb a13f 4170 edf9 ad7b ab3f
000003d0: c8ab c736 e402 b1bf 77b5 ffaf 86ae b4bf
000003e0: 648c b04b a290 a6bf 3c4f eefa 8b3f b53f
000003f0: 9b40 5072 53b4 b3bf dfd2 edd7 7c65 a13f
00000400: d056 c54e 203e a63f b5de bd8d 0b95 903f
00000410: a6d4 a580 92c4 b1bf d1c5 9aea 10ee a3bf
00000420: 29f3 bbfa f75d 663f d500 75cb 8535 a83f
00000430: 2af2 ecf7 ffe0 91bf bd6a 7b5b f782 74bf
00000440: 5d62 93df 0927 b7bf 8a43 f568 994c b23f
00000450: 23b0 5f5a 01a4 af3f dab2 0131 d305 a63f
00000460: e14e 9c16 9564 b2bf 4c31 552e 9688 96bf
00000470: e6f1 7536 b493 a93f 66c7 9384 22a3 b13f
00000480: bd44 8e86 8e61 b13f 80bc 04fd 4570 b53f
00000490: 146d 51ab eac0 9d3f c858 c4d1 02be b53f
000004a0: a878 66d5 8e5d ac3f 3603 b1da 5693 b9bf
000004b0: f0e9 bddc db73 8b3f deb7 8904 6cc4 973f
000004c0: 264d c37b 2b44 a13f 05bd 903a 873d a3bf
000004d0: 5511 8d3a fdda ac3f 4b13 bf5d 05b8 b23f
000004e0: 699e fb8f 0913 b1bf 88c5 d3fb 047b adbf
000004f0: b93a 71ae f203 9dbf 0d75 e702 22a3 a13f
00000500: 6d9e cdbb 86b7 aebf 99a0 bd48 d24e 70bf
00000510: 860d 7c36 48a6 a6bf 4246 1e9f c66c 9bbf
00000520: ee9e dd14 4486 a4bf 30d6 1720 2cfe 823f
00000530: 6a4e 46d6 de61 a83f 55cc 7db2 d101 a8bf
00000540: 9ba5 068c 93f4 b43f f154 1fd4 6ccd af3f
00000550: 54f8 73d0 7bae a9bf ecbf 9072 e3dd b3bf
00000560: b331 ef65 7d19 a9bf 8315 06b9 8d97 af3f
00000570: 5eb3 1cee 7e23 b6bf be70 e022 fe9f 7cbf
00000580: 30ee 2e1e fcd0 b5bf 85c9 1dcd dc41 b03f
00000590: c81c 844f 1c1a 52bf 2289 284c 2749 b4bf
000005a0: 11c8 4aea 44fc a4bf 9114 7dab f632 9c3f
000005b0: a51f f2fa bdfc 93bf 04b2 535a 4e2a a23f
000005c0: 2f04 681e a1de 99bf e401 8aae 2376 b53f
000005d0: 5aaa 17da 100d 873f 14aa 94f4 363e 943f
000005e0: 4443 350c c737 b33f 70b3 7020 cadd 743f
000005f0: 98a1 6941 72e6 b33f 366e f7b0 92c1 643f
00000600: 6277 9aea db0f aebf 5196 c7b6 b6b3 8c3f
00000610: 900a f0c4 47cf a53f 3813 c288 56c5 903f
00000620: 5c48 696c 9a1d 9c3f b8e1 5a3c d534 96bf
00000630: ebf8 8654 76f4 ae3f e115 9a08 516d b5bf
00000640: 1bce 69eb 6c09 ab3f 6e65 54be 196a b2bf
00000650: e368 7e41 eed6 9dbf c784 2cf4 27fd b33f
00000660: 20b7 f639 972f a9bf f721 70ed b1d1 923f
00000670: 3094 9341 656a b4bf ee7a 0c70 2729 b2bf
00000680: 4810 a1fe 19f6 6abf ebb6 1fe3 34db a03f
00000690: 62f7 2a19 b610 703f 2042 fd3b 92a6 83bf
000006a0: b4f5 a1d1 f446 b0bf f70d 77b1 ae8a babf
000006b0: 7081 3680 ada3 aebf 6eb2 33c9 f7d6 abbf
000006c0: 086d 9318 8f53 a33f cbcd fb76 5343 a1bf
000006d0: cebf fe59 fbc0 a2bf 8ecc 7472 6001 7a3f
000006e0: cf1e 4ea1 ece0 a33f 09e7 3341 af7b ae3f
000006f0: 57a1 ab93 6533 b3bf 90f5 9baf 0d29 903f
00000700: 8834 53bd 4804 9fbf 5262 99ae b696 a23f
00000710: 6409 896c e1a9 a43f ee40 9206 bc5e a9bf
00000720: 66ac 0cdd 4e03 a03f ce34 345b 90e5 a7bf
00000730: 2beb 72d9 d8ef b53f 0d39 bd34 dc46 b5bf
00000740: 4e51 c4a0 aa32 9b3f 440f 0511 51d9 b13f
00000750: 0c66 33b4 bd4b 8dbf 4f6e 963f 7358 b43f
00000760: 3931 1c3a e7d9 803f 8628 9e67 a8b3 bbbf
00000770: 347d 1051 e1ec b3bf e097 13fd a96e 9c3f
00000780: 871f cfdb 70c3 a9bf c066 2925 cabf 92bf
00000790: cea8 cd2a 394d a1bf e1ac 71dc 688f 8fbf
000007a0: b81f 8449 95e2 a33f c2d4 a0fb cfdc a83f
000007b0: d25b f02d a641 b33f f072 0aae dc8c aabf
000007c0: b71f 67be 7e22 b13f d58a db63 d65f b23f
000007d0: 4ff8 4926 93f4 a9bf 7609 8e0a 0b26 5dbf
000007e0: 0636 0d5e bf0a b03f 499f 183e f263 a53f
000007f0: f68b e7cc e44a 7b3f a073 8a49 0382 a63f
-0.01920144586276919 -0.0007634853152424307 -0.009965219149661956 0.0401126815030471 0.03353882743991441 -0.058284567922073476 -0.03135523687040461 0.08405773280390635
0.09708429220130309 -0.051949283252340064 -0.0809281190495619 -0.057308919455232546 -0.02687884395854646 0.05908183694582679 0.05301868876136662 -0.07584883425662518
-0.010570012238582019 -0.04856933088321599 0.057012827355030944 -0.04666495897488783 0.018718192114724905 0.05816963977137552 0.03846451876434849 -0.020049240706998425
0.06389914277483265 0.03671747873398709 0.012064348690644197 0.053484719692354535 -0.01614991724581821 -0.017999875086597505 -0.060348027941527355 -0.0439831756829976
-0.01479921733528175 0.04806038604538943 0.07717644419047054 -0.05753792931775938 0.08833430541062783 0.03189185324419844 -0.07908838821339995 0.056573963094747846
0.004086726214980243 0.018050228113508485 0.05626066434406404 0.019592055749349066 -0.035411944621183286 0.025192434392887087 0.06652980336540822 0.008665888969247344
0.05461147134228188 0.07356801429757652 0.015774693042246157 -0.0748401675224471 -0.0658031181419247 -0.07015200848319283 0.00546103653745826 0.009579542230826465
-0.016358165189882413 -0.0014183740580683507 -0.03902913387618342 -0.08551276626284399 0.011219924874153346 0.015462294680473651 -0.07037463011873274 0.0058344725374317175
0.07039971109141317 -0.0033803721251900345 -0.03220582265674062 0.08465811941910618 0.05081996863466169 0.07417072230550033 0.034504691381556346 -0.057712440426103476
0.04155139279393716 -0.015024510616086326 0.07542695986857006 0.023760733590193872 0.029618740660874575 0.013052322459432058 0.0816287436616686 -0.017497527902651175
-0.03600293784224145 -0.031027576264252565 0.05426322344138706 0.03546273507065436 0.02730832508597204 0.08851882611135609 0.056686164533128594 0.020120406191007145
-0.04065560217787004 -0.024162610078376758 -0.06506742985870878 0.03606727392168194 -0.07361755870512636 -0.07498653050611946 -0.06284832441779883 -0.03517580258298094
0.0656929651734437 -0.0467108019998255 0.09116605581954487 0.025064682944642827 -0.05848655591378147 0.08958855973937047 -0.015242094615061333 -0.013529893126006477
-0.02434425728239097 0.04974915446311694 -0.07619382563530033 -0.021737407839367093 0.01053044820049386 0.09111040044915245 0.046838046013501736 -0.00967351854651634
-0.012928876388034761 -0.01025506630304358 0.07944860217770107 -0.034589758079755804 -0.019746047177621955 0.020899237479446678 0.08111881069236694 0.06361092133440902
0.034752603141070496 0.05367797542450648 -0.06645037019158828 -0.08078805729720338 -0.04407221960016086 0.08300089718096343 -0.07697030583244883 0.03397741447307622
0.04344273530538845 0.016193562055802874 -0.0694057048875317 -0.038925675047163495 0.00273035462839601 0.04728334530455106 -0.01745986891477195 -0.0050077116390762596
-0.09043943127051919 0.07148131191685372 0.06179813602634023 0.043013190967803275 -0.0718472652627571 -0.022005411699227026 0.04995501675418605 0.06889549004315895
0.06789484772731931 0.08374440600595001 0.029056231218743525 0.08493058797134545 0.05540129046424741 -0.09990446890971047 0.013404576944357566 0.02321022775361558
0.03372321973588503 -0.03757879819783664 0.05635825481161542 0.07312043703775577 -0.06669673695761848 -0.057579189053181656 -0.028335372826684167 0.03444772992564014
-0.05999394457358851 -0.003981419966159327 -0.04423738160223949 -0.02678213449650558 -0.04008686785419778 0.00927385781231313 0.047621692329951795 -0.04688887885904395
0.08185693901636741 0.0621141442240204 -0.05015932960121519 -0.07760449931151897 -0.04902259702030012 0.06170313724127665 -0.08647912324222548 -0.0069885184475674805
-0.08522010552308568 0.06350498206828632 -0.0011048580618664861 -0.07924123391470464 -0.040987161254989364 0.02753816053088493 -0.0195188221373709 0.035479019666897954
-0.025263326149801365 0.08383391390999112 0.011255389838841601 0.019768580129644844 0.07506984756515772 0.005094327504633664 0.07773508164394227 0.002533709055325929
-0.05871474493800012 0.014014651730529655 0.04259704855941948 0.016377784821560243 0.02745667730989286 -0.021685916718270554 0.060458848779932094 -0.08369928798682437
0.05280628560731434 -0.07193146607132458 -0.029140208003448086 0.07808160506512528 -0.04919121344151578 0.01837804805475859 -0.07974846697796134 -0.0709404610210915
-0.0032911784847176363 0.03292241356380806 0.003922187158137054 -0.009595053153732158 -0.06358270757660628 -0.10367862541811933 -0.0598425120363143 -0.05437445002630602
0.03774687933920445 -0.03371678187786705 -0.036628584609729495 0.0063489692177426515 0.03882541150147533 0.05953738852436003 -0.07500300269351122 0.015781606524787828
-0.030289780192835042 0.036306103528379055 0.04035858583349031 -0.04955089168754677 0.03127523849828932 -0.04667330849961503 0.08569102581797654 -0.08311249053551624
0.026560464918547404 0.06972223916551196 -0.014304620801726585 0.07947464277679582 0.008228117428665459 -0.10821011094791019 -0.07783325413810332 0.027765899726453713
-0.05031922038284536 -0.018309744375392567 -0.03379229209424893 -0.015410250880640354 0.038838067268499754 0.04855966517099254 0.07522047635607912 -0.051855942006317934
0.06693260334497962 0.07177486360482573 -0.05069408266443586 -0.0017790897202024348 0.06266399427587296 0.04177815444955841 0.006663221122354726 0.04396066925730868

actor_out.bias f8 [4]
00000000: a423 afae 1e55 a73f c7f7 209a 76f0 89bf
00000010: 135e 5ee2 7866 ac3f ba83 2146 3d7a a2bf
0.045571287940737976 -0.012665678576123341 0.05546930087365012 -0.03608886223879133
